MNISTnet.pth (torch, 181069 bytes, 10 tensors)

conv1.weight f4 [6, 1, 5, 5]
000000 47 05 11 be 24 9f 8b be a3 59 f4 bd 7b f6 09 3e
       -0.1416217 -0.27269852 -0.11931159 0.13472931
000010 45 25 fc 3e a0 75 e2 be cc 8d a8 be 20 f2 91 3c
       0.49247184 -0.44230366 -0.32920682 0.01781565
000020 64 ff 51 3e 57 22 ed 3e f9 05 98 bd e7 c4 75 be
       0.2050758 0.46315262 -0.07423014 -0.24000894
000030 11 6f ce 3d ff 18 05 3f 31 95 e2 3e a8 6d ac be
       0.10079778 0.51991266 0.4425445 -0.3367741
000040 a8 bf f4 bd c0 57 a3 3e df 6b b8 3e 3a 31 e5 3d
       -0.11950618 0.31902885 0.360198 0.1119103
000050 a1 4e be 3b 81 49 31 3e f5 bd d0 3e 39 b6 4e 3e
       0.005807713 0.17313196 0.40769926 0.201867
000060 0c d3 e2 3d 7b c7 db 3c 42 2b 12 be 67 cc e5 be
       0.1107541 0.026828518 -0.14274314 -0.4488251
000070 3b ee ef be a8 24 b5 bd c0 3d 10 3e 43 56 f1 bc
       -0.46861443 -0.08844882 0.14086056 -0.029460078
000080 50 ce ac be a0 58 3c be fe 09 6c be 97 39 54 3c
       -0.33751154 -0.18393183 -0.23050687 0.012953184
000090 0a e8 3d 3c 21 15 0e be 98 0f 55 be 5e 14 2f be
       0.011590967 -0.13875248 -0.2080673 -0.17097613
0000a0 cb 48 1c 3e f7 47 f6 3e 20 30 ea 3e fe 52 b4 3e
       0.15262143 0.4810178 0.4573984 0.35219568
0000b0 a6 5c 45 3e ec 1e 96 bb 9b 12 96 3e a8 92 d7 3e
       0.19273624 -0.004581323 0.2931107 0.42104077
0000c0 52 26 8d 3e 73 b1 2c 3e 37 51 13 3e 69 85 8b 3e
       0.275683 0.16864567 0.1438645 0.2725022
0000d0 52 c0 a7 3c ee 45 75 bd f7 35 b9 be 0d f5 1e 3b
       0.020477448 -0.059881143 -0.36173984 0.0024254948
0000e0 39 62 bb 3e e2 a4 36 3e 9c d3 92 be b4 25 ba be
       0.36598375 0.17836335 -0.2867707 -0.3635689
0000f0 2e 8f af 3e e5 9d ac 3e c5 1c 46 be 2e bf 9f be
       0.34288925 0.33714214 -0.19346912 -0.31200546
000100 89 36 e0 bd 28 b9 ce 3d 7d 55 87 3e d2 5f 09 be
       -0.10947902 0.100939095 0.2643241 -0.13415459
000110 94 da 7e be 00 57 2d be 12 c5 fa 3d 46 65 7c 3d
       -0.24888068 -0.16927719 0.122446194 0.06162002
000120 a3 27 c2 3c 76 94 46 be 2c a2 2f be 3e e6 4f be
       0.02370054 -0.19392571 -0.17151707 -0.20302674
000130 1b 84 e5 bd 93 c0 c7 be 8d 5a b2 be 0f b4 f1 be
       -0.11206838 -0.3901411 -0.3483471 -0.47207686
000140 48 4e 07 be f4 38 02 bf 9b 44 e6 be 8b 70 01 bf
       -0.13213456 -0.50868154 -0.44974217 -0.5056235
000150 62 a7 84 be 9d 41 95 be d3 98 ad be e6 a1 cb be
       -0.25908953 -0.2915162 -0.33905658 -0.39771956
000160 fa aa 05 bf 4c f7 b6 be 50 14 c3 be ad 63 e6 be
       -0.52214015 -0.35735548 -0.38101435 -0.44997922
000170 67 7f 86 be 8a 6f 83 be 23 f4 b0 bd 5d 3b 96 be
       -0.26269075 -0.25671035 -0.086403154 -0.29342166
000180 58 0b 68 be 85 76 ec bc 12 09 25 3c 3e a8 65 bd
       -0.22660577 -0.028865108 0.010072963 -0.05606865
000190 df fd 0e 3e 69 14 7f 3e 0e a4 c6 bc 93 bf ba be
       0.13964032 0.2491013 -0.02424815 -0.36474285
0001a0 60 ff 6d be 55 f6 3a be 3f 25 5f 3d b2 ff 2e be
       -0.23241949 -0.1825803 0.05447888 -0.17089728
0001b0 5c 87 30 3e 56 62 78 3e f3 15 6c 3d 63 d1 f8 3d
       0.17239136 0.24256262 0.05763812 0.12149312
0001c0 bc a3 cb 3e 87 79 c3 3e a5 2e b9 bd 12 e5 ed 3d
       0.39773357 0.38178656 -0.090421 0.11615957
0001d0 20 b5 96 3e 54 35 9d 3d fc 39 c9 3d e3 fb a1 3a
       0.29435062 0.07676187 0.09825513 0.0012358393
0001e0 f6 7b 4e bd 10 d2 a9 be 39 ea 93 be 70 17 81 be
       -0.050411187 -0.33168077 -0.28889635 -0.25213194
0001f0 0b ee 73 3a 3e 37 57 be d9 aa 37 be f3 4e 75 be
       0.00093051855 -0.21017167 -0.17936267 -0.23955898
000200 8f 4e 41 be 5c c2 63 3e de 6d 55 3d 19 00 42 be
       -0.18877624 0.22242111 0.05210673 -0.1894535
000210 65 b3 87 ba b8 38 32 3e 70 1f c8 3e 26 aa 78 be
       -0.0010353146 0.17404449 0.39086485 -0.24283656
000220 a0 85 f0 3d 37 9a 53 3c 56 64 87 3e 99 79 62 3e
       0.11744237 0.012915186 0.26443738 0.22116698
000230 77 c0 a7 bd eb 1f f8 3d a3 bd 0c 3e da 6a d9 bd
       -0.08191007 0.12115463 0.13744216 -0.106160834
000240 f6 8d 00 be bf cc 3d 3e 87 b6 8c 3b dc 39 93 3d
       -0.12554154 0.18535136 0.00429422 0.0718877
000250 25 72 4f 3c 5b 12 8b be
       0.0126614915 -0.27162442

conv1.bias f4 [6]
000000 f3 a6 d3 3e 69 7a 9e 3e 5a 20 22 3e 5d db 3e 3e
       0.4133831 0.30952767 0.15832654 0.18638368
000010 40 83 d8 3e b9 90 17 3e
       0.42287636 0.14801301

conv2.weight f4 [16, 6, 5, 5]
000000 2f 91 26 bd e5 ab ce 3c 4d 53 8f 3d 8d 09 ac bc
       -0.0406658 0.02522845 0.0699831 -0.021000648
000010 58 65 0b bd d2 2e 64 bc cd af 6c bc 48 4a e4 3c
       -0.034032196 -0.013927178 -0.014446211 0.027867451
000020 6d 76 7d bc c2 40 f5 bc ac d8 e2 3b 00 34 d5 bc
       -0.015470129 -0.029938105 0.006922802 -0.026025772
000030 63 21 9e bd 66 2a bc bc e0 8b f7 3c 2e e5 49 3d
       -0.07721212 -0.022969436 0.030218065 0.04929083
000040 fe 9a 94 bd ef 7c 65 bd 57 07 91 bd bf 94 a3 bc
       -0.07256125 -0.05602735 -0.07081478 -0.019968389
000050 52 e8 a5 bd c8 44 63 bc 82 b3 19 3b 81 0b 8a bc
       -0.08100952 -0.013871379 0.0023452942 -0.016851189
000060 52 f7 85 3b 44 32 aa 3a 53 52 83 3c fc 52 1c 3d
       0.004088321 0.0012984951 0.016030466 0.038165078
000070 69 6c 36 3d 28 1f a2 3c 1e 8f e9 3c ec a4 0b ba
       0.04453698 0.019790247 0.028510626 -0.00053270045
000080 39 73 92 bd 6c 82 39 bd 60 17 0e bc 8b bb d4 3c
       -0.07150883 -0.045290396 -0.008672565 0.025968334
000090 e7 af ed 3c 19 16 ea bc aa 60 11 bd 22 61 9e bd
       0.02901454 -0.02857499 -0.035492577 -0.0773337
0000a0 c5 5e 12 3b 7f df 76 3d 1f 41 63 bc 8d bf e3 bc
       0.002233432 0.060271736 -0.013870507 -0.0278013
0000b0 f8 23 02 bd 56 d6 4f 3d bd 9b 8f bd b9 af 7f bc
       -0.031772584 0.050741516 -0.070121266 -0.01560586
0000c0 70 6c 98 3d 37 e2 9c 3d 24 68 4b bd 91 3b 10 bd
       0.07442558 0.076603346 -0.049659863 -0.035213057
0000d0 e2 5a 02 3d 37 4d fa 3c ea 25 f2 bc bc 07 20 bd
       0.031824954 0.030554397 -0.029559094 -0.039069876
0000e0 ef b3 77 bc 5c 5a 91 3d bb 49 11 bd 2b f5 6c bd
       -0.015118583 0.07097313 -0.035470705 -0.057850998
0000f0 99 24 b2 3c 83 aa 7d bd 64 57 24 3d be 19 57 3c
       0.021745967 -0.06193019 0.040122405 0.013128696
000100 5b 36 8a bb de 74 00 3d 63 7c 8a 3d be f2 56 bc
       -0.0042179055 0.031361453 0.06762006 -0.013119398
000110 7f ea e4 bc e8 da 81 3c 75 ea ad bd af ce d4 3c
       -0.027943848 0.015851453 -0.08491985 0.02597746
000120 8e b2 d2 3c 5c c3 d0 3b 6f 3f 30 3c 75 ec 70 bd
       0.025719907 0.006370945 0.010757311 -0.058819253
000130 f9 e5 97 3d 76 67 33 bc 3b 52 db 3b 37 6c a6 3c
       0.07416911 -0.01094996 0.0066931522 0.020315273
000140 b6 e2 85 3d 5e 27 68 bd 02 13 a4 bc 69 0b a3 bb
       0.06537382 -0.05667817 -0.020028595 -0.0049757254
000150 a0 a1 bd 3c f5 f8 6c 3d ca 2a d1 3b a1 f0 9e bd
       0.023148358 0.05785461 0.0063832747 -0.0776074
000160 69 b5 96 3d e4 21 87 bd 44 da 36 bc 06 16 96 bc
       0.0735882 -0.06598261 -0.011160437 -0.018321048
000170 55 1e b9 bd 88 c6 b1 bc df 3a 38 bd ab b3 81 3d
       -0.090389885 -0.021701112 -0.04497802 0.06333097
000180 1e 88 fe bc b0 15 16 bd e2 62 91 bd 24 9b 1d 3d
       -0.031070765 -0.036641777 -0.070989385 0.03847803
000190 e4 a5 92 bd 08 21 dc bb 8d 11 70 bd 18 9f 13 bc
       -0.071605474 -0.006717805 -0.058610488 -0.009010099
0001a0 1c 6e 65 bd 90 32 8c bd 53 88 6e bd 6a e2 cc 3c
       -0.05601321 -0.068455815 -0.058235478 0.025010306
0001b0 4a 35 d0 3c 59 3c 4c bd 74 77 7b 3d b9 0f 93 bd
       0.025416035 -0.04986224 0.061393216 -0.07180733
0001c0 49 68 9e 3d 2d c7 5a bc 6a 3c 2a 3c 8a 03 0b 3d
       0.077347346 -0.013353151 0.01039038 0.033938922
0001d0 de 1a 99 bb 62 09 82 bd 7d 29 68 3d 55 9b 8e 3d
       -0.0046723923 -0.06349446 0.05668019 0.06963221
0001e0 92 ba d8 3c d5 b7 5d 3d 45 7f 0b bd b7 82 8a bd
       0.026456151 0.054130394 -0.03405692 -0.06763213
0001f0 b4 0b 7f bd 45 6d 10 3c 13 56 c8 3c de ed 39 bd
       -0.06226702 0.008815114 0.024455106 -0.045392863
000200 b8 3e 7b 3d 08 c1 31 bd 4e c5 11 3d 0f ee ac bd
       0.06133911 -0.04339698 0.035588555 -0.084438436
000210 c8 05 30 3d bc 3a 97 bb c9 33 11 3c d8 9e 6c bd
       0.042974263 -0.004615156 0.008862444 -0.057768673
000220 49 b6 9e bd 12 20 d2 bc 6e a5 3c 3a 36 a4 a1 bd
       -0.07749612 -0.025650058 0.0007196282 -0.07892649
000230 40 4b 30 bc c4 17 46 3d 50 27 7d 3d ce ce 4c bd
       -0.0107601285 0.04836251 0.06180507 -0.05000191
000240 1e 49 8c 3d b0 f5 1e 3d b5 6c f0 3c 7f b8 ec bc
       0.068498835 0.038808525 0.02934871 -0.028896568
000250 67 5f f3 3c 46 d1 40 3c be 90 a4 3d ba 00 36 3e
       0.029708577 0.011768645 0.0803542 0.17773715
000260 27 44 6a 3d 7f da b5 3d 78 dc 32 3d a5 04 36 bc
       0.0571939 0.088795654 0.043667287 -0.011109506
000270 8f e6 6a 3e 46 ba 99 3d 7b fa 18 bd 3c 0b cd bb
       0.22939514 0.07506232 -0.03734825 -0.0062574428
000280 d2 8f d7 3d 89 a8 69 3e 32 5b 92 3d 8b 85 2d bd
       0.105254784 0.22818197 0.071463004 -0.042363685
000290 71 e0 f9 3c b0 b4 0b 3c 70 71 72 3e 89 50 3f 3d
       0.03050253 0.008526966 0.23676085 0.046707664
0002a0 16 e3 d5 3c 99 ec a7 bc af b3 5e 3d e2 85 ee 3d
       0.02610926 -0.02049856 0.05437058 0.1164663
0002b0 5c ef 09 bd ca 6b 0f be b9 d4 9e bd 1c ee fb bd
       -0.033675537 -0.14005962 -0.077554174 -0.12301275
0002c0 f1 85 21 be dd 69 dd bd 6e 6a 0b be 47 09 a0 bb
       -0.15773751 -0.108112074 -0.13614818 -0.0048839184
0002d0 de ab ae 3b fd c1 06 be f7 88 2f be d3 5c f7 bd
       0.0053305468 -0.13159938 -0.17142092 -0.12078252
0002e0 9c 8a f1 3c 6a 79 63 bd 5e ea 2d be 17 62 bf bc
       0.02948504 -0.05553571 -0.16983935 -0.023362203
0002f0 62 af 1c 3d d7 33 a2 bd f0 b0 62 3a 79 95 f6 bd
       0.038253196 -0.07920044 0.00086475816 -0.120402284
000300 ba 96 26 3e 7d 29 15 3e 39 a9 e5 3d 28 ad 7e 3d
       0.16268435 0.14566608 0.11213917 0.062176853
000310 6f 67 9c 3d 15 49 7b 3e dd 20 40 3e 23 02 2b 3e
       0.07636916 0.24539597 0.18762536 0.16700034
000320 99 4e 60 3d 69 82 e5 3d fb ac 35 3e c4 60 d2 3d
       0.054762457 0.112065144 0.17741768 0.10272363
000330 5e 71 d9 3d 20 ac 26 3e b5 17 e8 3d 5a 10 7f 3e
       0.10617326 0.16276598 0.11332647 0.24908581
000340 ca 6b 11 3e 12 28 3e 3d af 71 2a 3e 70 b5 ca 3d
       0.14201275 0.046424933 0.1664493 0.09897888
000350 db 9c 83 3e 71 d3 b7 3d e3 c8 22 3c 65 e4 3c 3d
       0.2570561 0.08975876 0.00993559 0.04611625
000360 15 38 da 3d 2a 41 09 3e 90 af 83 bc 12 c2 a9 3c
       0.10655228 0.13403764 -0.016074926 0.020722423
000370 2c 4b a4 3c a2 1c 82 bd 58 8d c3 bc d5 e0 cb bd
       0.020055376 -0.063531175 -0.023871109 -0.09954993
000380 f3 aa 89 3d af 36 15 3e f8 7b ef 3d 5b 28 8c 3d
       0.06722059 0.14571641 0.11693567 0.06843635
000390 9b a9 46 3d be 41 10 3e ec 15 bf 3d 60 0d 13 3d
       0.048501592 0.14087579 0.09330353 0.035901427
0003a0 f5 d6 d1 bc 49 fa 29 3e 11 52 b4 3d 3e 25 6f bc
       -0.025615195 0.16599382 0.088047154 -0.014596282
0003b0 14 5c 0b be 4c c9 cd bc 55 63 7c 3d 74 8b 9e bb
       -0.13609344 -0.0251204 0.061618168 -0.0048384015
0003c0 e9 2e 89 bc 93 4b df bd db 6f 28 be 64 6a 21 bd
       -0.016746001 -0.109030865 -0.1644892 -0.039408103
0003d0 5d 37 40 bc 6e b8 a0 3c 74 a6 16 be d9 fa 98 be
       -0.01173195 0.019619193 -0.14711934 -0.29878882
0003e0 d4 ca 38 be 12 c4 0f be fa 4d 6f 3c ee a4 81 bd
       -0.18046123 -0.14039639 0.014605993 -0.06330286
0003f0 9b fa a9 bc 41 ee 2d bd cb 04 6d bd 33 e9 a9 bd
       -0.02074938 -0.042463545 -0.0578659 -0.08296432

conv2.bias f4 [16]
000000 bc b1 64 bd 53 cd 25 3d dc a6 28 bd 70 58 b8 3d
       -0.055833563 0.040479016 -0.041174755 0.09001243
000010 97 49 21 3d 6e 7e 80 3d bc f0 63 3c f7 a8 a1 bc
       0.03937682 0.062741145 0.013912376 -0.019733889
000020 fe 65 2e bd 3e 65 ba 3d 89 72 2f 3d 4e 76 c3 3d
       -0.042577736 0.09101342 0.04283384 0.09544049
000030 93 65 3e 3d 53 e7 35 3d 28 52 73 3d 2f 6c 20 3d
       0.046483587 0.04441006 0.059404522 0.039165672

fc1.weight f4 [120, 256]
000000 3b ca e3 39 60 37 1e 3d fb c2 7f 3c a3 18 64 3d
       0.00043447487 0.03862703 0.015610452 0.055687558
000010 01 86 dd 3a 55 6d 57 3c 2c 07 59 3d ff 91 13 3c
       0.0016900898 0.013148625 0.052985355 0.009006976
000020 4f 47 79 3d 54 5c ef bc 01 98 50 3d a9 e2 cb 3c
       0.06085902 -0.02921883 0.050926212 0.024888353
000030 6f d1 b7 bb 28 3d b1 3c e4 d9 24 bd c5 33 0f 3d
       -0.005609683 0.021635607 -0.04024686 0.03496148
000040 cd 21 a4 bb 05 f5 2d bd 6d 4a 81 bd 96 0e 2d 3d
       -0.005008912 -0.042469997 -0.06313024 0.04225024
000050 30 5c 58 3d 45 56 2e 3d f2 2f 4a bb 2f 0c ff ba
       0.05282229 0.04256274 -0.0030851332 -0.0019458587
000060 6d c5 26 3d fe d7 a8 bc b8 1c 4a 3d 5f 39 f8 bc
       0.040715624 -0.020610806 0.049343795 -0.030300794
000070 cf 3f 59 3d 8d 7b 46 bd 14 69 68 3d d2 e5 9d bc
       0.05303937 -0.04845767 0.056740835 -0.019274626
000080 12 bd a5 bc 8b 25 13 bd 79 60 83 bc 38 12 07 bc
       -0.020231757 -0.035924476 -0.016037213 -0.00824409
000090 7e 8b 0a bd c5 df 08 bd a5 16 9a bb 8e 95 3e bd
       -0.033824436 -0.03341653 -0.0047024065 -0.046529345
0000a0 9d 80 40 3b 39 33 00 bd 44 7d 14 3d c5 d1 7b bd
       0.0029373534 -0.03129885 0.036252275 -0.06147935
0000b0 f5 1c 14 3d 62 6a 6f bd b3 8e 07 3d 74 de 43 3d
       0.036160428 -0.058451064 0.033095073 0.04781957
0000c0 bb e9 40 bd c6 d8 7d 3d f9 ef 94 3c 1b 92 8a bc
       -0.047097903 0.06197431 0.018180834 -0.016915372
0000d0 e5 27 1b bb 2e 3b 39 3c 60 17 42 bd fa 9e bf 3b
       -0.0023674902 0.011305613 -0.047385573 0.005847809
0000e0 6d 73 21 bd 1c 6f 02 bd 32 d5 92 bc a4 5a 6c 3d
       -0.03941672 -0.031844243 -0.017923925 0.05770363
0000f0 54 5d b2 3c 53 88 48 b8 d0 4d 15 3a 5e ec b5 3c
       0.021773018 -4.7810678e-05 0.0005695494 0.022207435
000100 a4 1d 1f bd 56 db af bc 4f d8 4f bd b2 a7 28 3d
       -0.038846627 -0.021466892 -0.050743397 0.04117555
000110 fd 66 bd 3b 88 6c 68 3d 0d 9c 8f bc 9d 8f 6f bd
       0.0057800994 0.05674413 -0.017530465 -0.05848657
000120 c5 24 3c 3d ba ee 14 3d d3 8d 4f bd 83 8e 54 3d
       0.045933504 0.03636048 -0.050672363 0.051893722
000130 ca 3a 07 bc 4f 91 24 3d d5 36 34 bd 92 0b 21 bd
       -0.0082537625 0.04017764 -0.043997604 -0.039317675
000140 2d 61 68 3d f0 be ae 3c 6c c7 59 bd b7 88 6f 3d
       0.0567333 0.02133128 -0.0531687 0.05847999
000150 e9 6e bc bb 8f f8 02 3d ab 17 ac bc 87 0f 4a 3c
       -0.005750526 0.031975325 -0.02100738 0.012332804
000160 4a fd 4d bd 5f 4e 94 bc 80 67 51 3c 3f 93 a2 3c
       -0.050290383 -0.018103776 0.012781024 0.019845603
000170 e7 de 5e bd ab 4e b7 ba 88 67 4a bd e5 27 f9 3c
       -0.054411795 -0.0013985237 -0.04941514 0.030414531
000180 27 bd 66 bd 06 08 5a bd a6 70 1f 3d 10 02 42 3d
       -0.056332733 -0.053230308 0.03892579 0.04736525
000190 3b 34 22 bc 1a f3 19 bd 27 01 5b 3d 3c 87 c9 bc
       -0.009900148 -0.037585355 0.053467896 -0.024600618
0001a0 b6 f4 25 bd 02 2d 80 3d e6 3c 0d 3d da 69 43 3d
       -0.040516578 0.062585846 0.034481905 0.04770837
0001b0 81 be 1b 3c ff 39 df 3c 41 1b 03 bd b3 3e 79 bd
       0.009505869 0.027249334 -0.032008413 -0.06085081
0001c0 1a 65 68 3d 40 f7 72 bc 1c 53 23 bd 2e db 58 bd
       0.056737043 -0.014829457 -0.03987418 -0.0529434
0001d0 89 c9 00 bb d1 f4 5b 3c b5 b3 8f bc b1 38 30 bd
       -0.0019651374 0.013425068 -0.017541746 -0.043022815
0001e0 5e 4e 56 bd 22 84 41 bc ec f0 92 bc 7c cf 0f bd
       -0.05232083 -0.011811288 -0.017937146 -0.035109982
0001f0 b7 76 55 bd ac 0a cd bb 40 9a 52 3c 6d a3 97 3b
       -0.05211517 -0.0062573757 0.012854159 0.004627636
000200 6e 0a 0c 3d a9 57 97 bc b3 4e fe 3c 48 d9 74 3d
       0.034189634 -0.018474417 0.031043386 0.059777528
000210 38 80 f0 ba 3b 90 eb 3b a1 48 a6 bc f1 bc f1 bc
       -0.0018348759 0.0071888245 -0.020298304 -0.02950904
000220 29 0e 96 3c dd 86 a9 bc 58 b7 36 3b a7 09 38 bd
       0.018317299 -0.02069419 0.0027880277 -0.04493108
000230 4b ad bd 3c ff e6 1e 3b 66 ed 2a 3d ec fc 1e bd
       0.023153922 0.002424657 0.041730307 -0.038815424
000240 e1 54 37 3d 09 80 84 bd 55 d5 21 3d 16 44 97 3c
       0.04475868 -0.06469733 0.03951009 0.018465083
000250 36 0b 17 bd c8 87 4a 3d f6 c0 ab 3c b3 3f 2b bd
       -0.036875926 0.049445897 0.020966034 -0.041808795
000260 0e 3a be 3c b5 d6 e2 bc 28 67 f2 bc 0e 3d 46 3c
       0.023221042 -0.02769027 -0.029590204 0.0120995175
000270 6c 09 6f bd cb 75 37 bd f2 1d e0 bc e5 37 82 3d
       -0.058358595 -0.04479007 -0.027358029 0.06358317
000280 ce 56 0d bd a3 1d 35 3d 8c 77 02 3d 8f 5a 2d bd
       -0.03450661 0.044217717 0.03185229 -0.04232269
000290 48 b4 a9 bc 2d 01 05 3d 2d 9b b7 3b e7 07 c5 3c
       -0.020715848 0.032471824 0.005603215 0.02405162
0002a0 cd e9 26 bc db c9 43 3d 1d 95 02 bd 90 77 ae bb
       -0.010187578 0.047799926 -0.031880487 -0.0053243116
0002b0 28 f2 90 bc ff 07 b1 3c e5 ba 10 bc 81 61 6a bd
       -0.017693594 0.021610258 -0.008833622 -0.057221893
0002c0 87 79 76 3d a7 c4 5f 3d 0c 7c 23 3d 9b 23 fe bc
       0.06017449 0.0546309 0.039913222 -0.031022837
0002d0 31 11 60 bd 08 4b 6c 3d 7d 58 6b bc 1e b6 31 bd
       -0.054703895 0.057688743 -0.014364359 -0.04338657
0002e0 a5 33 c0 3c e5 db 0a 3d 89 68 1c 3d fd 9b 06 bd
       0.023462126 0.033901114 0.03818563 -0.032863606
0002f0 5e db 92 3b 44 9b e4 bc 25 e3 e7 3c a4 37 72 3d
       0.004481717 -0.027906068 0.028306553 0.059135094
000300 a6 f4 35 3d 07 be 1f bc 91 78 23 bd 6c 3b a1 bc
       0.044422768 -0.009749896 -0.039909903 -0.019681655
000310 13 8a 56 3d 0d 8e 69 3c 59 b4 51 3d f8 20 2c bd
       0.05237777 0.014255059 0.051197384 -0.04202363
000320 ab 49 7b 3b 8a a2 2b bd 5d 71 32 3b c9 4b 27 bc
       0.003834347 -0.041903056 0.0027228214 -0.01021094
000330 2f b2 80 bd a1 39 14 bd b9 47 e1 bc e6 30 5d 3d
       -0.06283986 -0.03618777 -0.02750002 0.05400171
000340 3b ce f4 bb d3 a5 0b 3b 17 10 0e bd bd 4e 5c 3d
       -0.0074708737 0.0021308556 -0.034683313 0.05378603
000350 22 56 19 bd fa d8 36 3a 49 6b b9 3c 66 e5 ee bc
       -0.03743566 0.0006975081 0.022634165 -0.02916212
000360 1b 07 03 bd 19 84 40 bd fe 55 15 bc 83 d9 4b bd
       -0.0319892 -0.04700098 -0.00911474 -0.049767982
000370 87 e1 1b 3d 4a be 2e 3d 61 c4 3c 3a 23 df 62 3d
       0.038056877 0.042661943 0.00072008936 0.05538858
000380 f2 67 13 bd cb 56 eb 3c a5 2e 02 3c b5 40 d2 3c
       -0.0359878 0.02872791 0.007945691 0.02566562
000390 5d 89 08 3d 1f 67 d5 3b e3 a3 9a 3b 0d 86 5b bb
       0.033334125 0.006512537 0.004719244 -0.0033496649
0003a0 af 89 2c bd cb 82 e4 bc 03 a9 03 bd ff 6e ad 3c
       -0.042123493 -0.027894398 -0.032143604 0.021171091
0003b0 92 19 25 3c b7 85 5d 3d 18 f9 36 3d 33 6e 5f bd
       0.010076897 0.0540826 0.044671148 -0.054548454
0003c0 47 e7 47 bd b4 e4 81 3d 89 70 ff 3c 8c 02 5d 3d
       -0.048804548 0.0634245 0.03118159 0.053957507
0003d0 ce 87 56 bd a1 49 0d 3d 29 e2 99 bc 2d 67 38 3d
       -0.052375607 0.034494046 -0.0187846 0.04502027
0003e0 1a 61 ce 3c 49 f9 71 3c d4 76 19 3d 72 26 29 3d
       0.025192786 0.014768907 0.03746684 0.04129643
0003f0 c3 54 66 3d d6 a8 a6 3b 81 8f 8b 3c d7 d1 79 bd
       0.05623318 0.005086045 0.017036201 -0.060991134

fc1.bias f4 [120]
000000 91 17 cf bc 04 8e 63 3d aa a8 f1 3c 78 ba 90 3c
       -0.025279792 0.05555536 0.02949937 0.01766704
000010 c5 c2 20 bd f5 27 62 3d a1 c8 9f bc 14 22 be 3c
       -0.039248247 0.055213887 -0.019504847 0.02320961
000020 75 ac 64 bd 29 d6 29 3d c7 58 72 3d 40 ce 9a bc
       -0.05582853 0.041464005 0.059166696 -0.018897176
000030 7c 2f 44 bd 5a 58 90 3d b9 14 31 3b c9 ef e3 3c
       -0.047896847 0.07048102 0.0027020408 0.0278243
000040 a3 97 25 bd 85 59 6a bd 64 ca 34 3d 95 bc fa bc
       -0.040427815 -0.05721428 0.044138327 -0.030607501
000050 3e 9e ef bc 5f 43 16 3d 20 61 46 3d a7 2f 29 bd
       -0.02925026 0.036685344 0.04843247 -0.04130521
000060 24 20 f7 bc fe bd 3d 3d 0b 4c f9 bc 0b 77 eb 3c
       -0.030166693 0.04632377 -0.030431768 0.028743288
000070 db 2b c1 bc 8d d5 64 3d 7f 9a d4 3b 0c 31 5f 3d
       -0.023580482 0.05586772 0.006488144 0.054490134
000080 45 39 65 bb 21 11 e4 bc e0 84 ec bc 68 8d 80 bc
       -0.0034976762 -0.027840199 -0.028871953 -0.015692428
000090 fc 20 af 3c 68 75 01 bd c4 dc bf 3c 82 b4 fb 3b
       0.021378033 -0.031606108 0.023420699 0.0076814303
0000a0 9f 49 01 bd 2e 62 d5 bc 29 cf 88 3c 3f 47 1c 3a
       -0.03156435 -0.026047792 0.016700344 0.0005961544
0000b0 1c 98 a1 3d d1 69 a0 3c 8b 9c 90 bc cd 91 84 3d
       0.07890341 0.019581707 -0.01765277 0.06473122
0000c0 a7 b1 43 bd ee b0 8e 3b 36 58 98 3c 14 1a 74 bd
       -0.047776844 0.0043545878 0.01859675 -0.059595183
0000d0 ad 99 88 bc 39 f5 0a bd 0d c1 0f bd 32 4e 15 bd
       -0.01667484 -0.03392527 -0.035096217 -0.036451526
0000e0 f6 25 83 3d 4b ff 02 3d 43 17 88 3d 36 73 04 3d
       0.06403725 0.031981748 0.06645062 0.032336436
0000f0 4c 1e 86 3d 6b fa dd bc e7 9a 1e 3d 25 90 0f 3c
       0.065487474 -0.027096948 0.038721945 0.008762394
000100 44 e9 eb bc 8f 2e 41 3d 2c c6 42 bd 07 46 f6 bc
       -0.028797753 0.047163542 -0.047552273 -0.030062689
000110 ce 03 f3 bc fd 56 79 3b ba e8 01 bd 26 73 41 3d
       -0.0296649 0.0038046234 -0.031716086 0.047228955
000120 55 f2 71 3d 91 5b 2f 3c a7 6e 3a 3d 4d f1 b3 bc
       0.059068996 0.0107029835 0.045515683 -0.021965647
000130 c1 8b 65 3d b7 f3 2d 3d 31 7d 9e bb c9 a3 0a bd
       0.056041483 0.042468753 -0.0048367013 -0.033847604
000140 66 3f c1 bc ca 76 52 bd 9f 20 25 3a 79 76 23 bd
       -0.023589801 -0.051382817 0.00062991114 -0.039907906
000150 90 1f 4d 3d 44 f9 b0 bc e0 95 dd bc e9 99 23 bc
       0.05007893 -0.021603234 -0.027049005 -0.0099854255
000160 33 22 0e bc 8a 2d 81 3c 55 f9 3c bd ff 4d bf 3c
       -0.008675146 0.015768785 -0.04613622 0.023352621
000170 0a 2c 94 3c 04 f9 26 3d dd 93 94 3c 4d 02 09 bd
       0.018087406 0.040764824 0.018136913 -0.03344946
000180 f9 f0 33 3d b6 70 2c bd 00 c9 b6 3c a2 79 12 bd
       0.04393098 -0.042099677 0.022312641 -0.03576053
000190 2e ac bd bc 7b 7c 16 bd 69 f5 c2 3c 90 45 ac 3c
       -0.02315339 -0.036739808 0.023798661 0.021029264
0001a0 bb 51 7f 3d 1e 9d 3a bd 53 5f 6b 3d 19 dd 24 bd
       0.062333804 -0.045559995 0.057463955 -0.040249918
0001b0 6d 74 34 3a 17 7d 47 bd 99 5b b0 3c 27 79 3a bc
       0.0006883804 -0.04870328 0.021528052 -0.011381424
0001c0 24 dc 22 bd 49 ab be bc 25 d2 07 3b cf 64 cd bc
       -0.039760724 -0.023275035 0.002072462 -0.025072483
0001d0 5a 2f 68 bc 91 85 db bb a9 d7 02 3d a7 ed 4f bd
       -0.014171446 -0.006699272 0.03194395 -0.050763752

fc2.weight f4 [84, 120]
000000 10 f9 9c 3d 6e cf 16 bd 99 cc e9 3c 93 85 05 bc
       0.076646924 -0.036818914 0.028539943 -0.008149522
000010 bd da f6 bc 73 76 fc 3c cf 06 30 bd aa ca 82 3c
       -0.0301336 0.0308182 -0.042975243 0.015965778
000020 79 17 bf bd 3c 80 09 bd 20 0a 9a bc ae 34 8e 3d
       -0.09330649 -0.03356956 -0.018803656 0.069436416
000030 b7 97 e5 3d ef 06 54 bd 3a 7b cb 3d de 5f 9d bd
       0.11210578 -0.051764425 0.09935613 -0.07684301
000040 78 8d e3 bc 60 71 55 bd 79 da 0b bc a5 c3 e7 3d
       -0.027777418 -0.052110076 -0.008535975 0.11316613
000050 cd e2 aa bd a8 3f 09 3d 31 b0 61 3d bb e4 95 bc
       -0.0834404 0.033507973 0.05509967 -0.018297544
000060 28 1c 8b bd a6 5b 55 3d 54 86 80 3a ce c0 d9 bd
       -0.0679248 0.052089356 0.0009805658 -0.10632478
000070 c9 14 90 3c dc 71 55 bd 67 75 95 bd 1b 78 cb bd
       0.017588036 -0.052110538 -0.07297783 -0.09935018
000080 42 d1 d4 bd 43 cf 8a 3d 62 91 93 3c 58 1b 99 bd
       -0.10391475 0.06777813 0.01801366 -0.074759185
000090 40 1b 6c 3b 31 d8 97 3d bd 14 d8 bc f7 d8 2c 3a
       0.0036026984 0.07414282 -0.026377076 0.00065936096
0000a0 0f 97 9e 3d 77 cb 98 3d 76 3a cb 3d fc d5 a1 3c
       0.07743656 0.07460683 0.0992326 0.019755356
0000b0 c8 27 79 bd 99 da 16 bd 37 46 e7 3d fb 13 57 3d
       -0.060828954 -0.036829565 0.11292689 0.05250929
0000c0 ab 37 25 3d be a8 35 bd ca 94 b2 bd ff c7 9f 3d
       0.040336292 -0.04435038 -0.087197855 0.07801818
0000d0 dc 71 0b be 17 7a 7c bd 2e 12 68 3d a5 5d 1a bd
       -0.13617653 -0.06163987 0.056657963 -0.037686963
0000e0 20 ea 44 3d 29 d2 1c 3d fb 9d f3 bc 91 32 a3 3d
       0.04807484 0.03828636 -0.029738417 0.07968629
0000f0 bc 91 06 bd 16 cf 98 bb 8f 2c 93 3c 12 b5 0c bc
       -0.032853827 -0.0046633584 0.017965583 -0.008588092
000100 cc 66 59 bd 57 46 89 bd 22 68 9d 3d e4 4a ad 3c
       -0.05307655 -0.067028694 0.076858774 0.021153875
000110 b3 08 9d 3d 89 78 ec 3d b4 5e 6c 3d 27 56 95 3d
       0.07667675 0.11546428 0.057707503 0.07291823
000120 34 05 93 bc b0 fa 62 bb fd f4 88 3d da 06 de 3d
       -0.017946817 -0.0034634285 0.06687353 0.108411506
000130 e8 58 89 3d 6f 43 61 3c ee ee e8 bd 6f 12 66 3d
       0.06706411 0.013748988 -0.11373697 0.056169923
000140 4c f5 75 3d 74 2a 92 bd 8a 2b 75 3d 00 c3 88 bc
       0.060048386 -0.071370035 0.059855975 -0.016694546
000150 83 14 ae 3d 25 1c af bd 74 e9 b1 3d 20 08 25 bb
       0.08500006 -0.0855029 0.08687106 -0.0025181845
000160 6c 4a 3e 3d a7 4c 05 3d b7 55 94 bd 02 d0 25 3d
       0.046457693 0.032543804 -0.07242911 0.040481575
000170 7a 51 8e 3d d7 82 8c bd 9d 34 cb bd 73 51 08 bd
       0.06949134 -0.06860893 -0.099221446 -0.0332808
000180 8d 25 f2 bc 95 48 a6 3d 83 00 90 3d 67 c9 67 bd
       -0.029558921 0.08119313 0.070313476 -0.056588557
000190 3a dc 97 bd c4 e0 5a bd da a1 97 bd e1 af a9 3d
       -0.07415052 -0.05343701 -0.074039176 0.08285499
0001a0 36 ff 58 bd 2b 0d b2 bd df e7 2d 3d 58 95 58 3d
       -0.052977763 -0.08693918 0.042457458 0.0528768
0001b0 95 74 b3 3b ff 7f c5 3d fd 99 01 bd 22 a1 d5 bd
       0.005476544 0.09643554 -0.031640995 -0.10431124
0001c0 f4 ae 19 3d 63 b9 4c 3d 89 84 b0 3c 66 65 9a 37
       0.037520364 0.049981486 0.021547573 1.8405448e-05
0001d0 35 02 8d bb 41 64 8d 3d 53 9b c2 ba 6d ae 5e 3d
       -0.0043032416 0.069038875 -0.0014847316 0.054365564
0001e0 d5 91 95 bd 8b a9 c3 bc 93 1d 5a ba ef 17 cc bb
       -0.07303206 -0.023884555 -0.0008320447 -0.006228439
0001f0 1e e2 ba 3c f6 99 79 bd d1 7e 80 3d 80 3a 92 bd
       0.0228129 -0.060937844 0.06274188 -0.07140064
000200 1f a1 31 bc ac b2 1b bc 59 3f 9d 3d 08 6d 66 bd
       -0.010841637 -0.009503048 0.07678098 -0.056256324
000210 72 94 ac 3d c0 2d 23 3d 45 96 dc bc 6a a4 82 bd
       0.08426751 0.039838552 -0.026927123 -0.06379016
000220 43 f5 aa 3d 45 20 86 3d 98 31 e7 3d 9e c9 83 bd
       0.08347561 0.06549124 0.11288756 -0.0643494
000230 f5 2a a7 3d 6f da 9f bd 03 78 b4 bb a2 33 17 bd
       0.0816249 -0.07805335 -0.0055074706 -0.036914475
000240 cb e4 93 3d 2c c8 35 3d 17 6a 0b 3c f3 1b 15 bd
       0.07221373 0.044380352 0.0085091805 -0.036403608
000250 38 19 ac 3d de b1 83 3c 45 0c 93 3d 2d a5 78 3d
       0.084032476 0.016076025 0.071800746 0.0607044
000260 05 9f b2 3d 1e ae fe bc 8d 91 39 bd 48 ea 8a bd
       0.08721737 -0.031088885 -0.045304824 -0.06782967
000270 9c 89 31 bd c7 a9 bb bc d4 75 69 bd f0 e3 6c bd
       -0.043344125 -0.022908105 -0.056997135 -0.057834566
000280 47 29 02 3d 26 fb 51 bd 56 24 57 3c d5 f6 a2 bc
       0.031777646 -0.051264904 0.013131222 -0.01989309
000290 42 36 b3 bc c7 c1 40 bc 0c 58 a8 bd b9 ad 31 bb
       -0.021876458 -0.01176495 -0.082199186 -0.0027111603
0002a0 24 f8 82 3d 5a 1a b5 3d 36 bd 65 bc aa 62 a4 3d
       0.06394985 0.08842917 -0.014022162 0.08026631
0002b0 45 d5 ef 3c 6c 84 52 3d 72 8c f3 bb ce 8c 94 bd
       0.0292765 0.05139582 -0.007432514 -0.07253419
0002c0 69 85 5e 3d 49 f7 71 3d 87 cc a3 bd 4c bd bd bd
       0.05432645 0.05907372 -0.07997995 -0.09264621
0002d0 60 04 85 3d f3 46 84 bc b8 6a c7 bd 02 07 2d bd
       0.06494975 -0.016147112 -0.09737152 -0.04224301
0002e0 5e c9 95 3d 22 22 90 bd c6 e4 15 3d 14 59 0f 3d
       0.07313798 -0.0703776 0.03659513 0.03499706
0002f0 77 00 05 3b a5 87 d7 3d 0c 24 3d 3d 5f c4 35 3d
       0.0020294467 0.10523919 0.046176955 0.044376727
000300 d6 83 67 3d 8b 8f 82 bd 4e f7 a4 bd 4f 55 9a 3b
       0.056522213 -0.06375035 -0.08054982 0.0047098766
000310 79 fd 7e bd 0b 53 61 3c f2 77 1e bd 9f 19 1c 3d
       -0.06225345 0.013752709 -0.038688608 0.03811037
000320 f6 4e 67 3b 78 0f 27 bd e1 6b 7f 3d 10 4c 0c 3d
       0.0035294867 -0.040786237 0.06235874 0.034252226
000330 9c ea 46 bd b1 5e 9e bd 60 d7 86 3c 6a 0e 83 bd
       -0.048563585 -0.07732905 0.01646012 -0.06399234
000340 e6 29 7d bd 57 61 26 bd 62 ed 94 bd 8c cb b5 3d
       -0.061807536 -0.040620174 -0.0727184 0.08876714
000350 62 47 79 bd ad 9d de 3d 6a de 6a 3d 27 e9 95 bd
       -0.06085909 0.10869918 0.057341017 -0.07319861
000360 6f 60 48 3c 28 5a 94 bd bc 03 f2 bc fa fe 8f 3d
       0.012230023 -0.072437584 -0.029542796 0.07031055
000370 cc c7 a3 bd 41 9c 6d 3d fe 03 e5 bb 82 8c 8b bd
       -0.079970926 0.058010343 -0.0069890013 -0.06813909
000380 7a 75 15 3d 3d 68 98 3b e7 52 8e bd de 30 3d bd
       0.036488988 0.004651098 -0.06949406 -0.04618918
000390 5c e1 ee 3c bd a3 ba bc 51 d7 f5 bc fc 05 f7 bc
       0.029160194 -0.022783155 -0.030009897 -0.03015422
0003a0 b4 b1 33 3c 20 28 89 bd a7 20 ee 3c f2 75 e1 bb
       0.010967661 -0.06697106 0.029068304 -0.0068805153
0003b0 d9 ff 54 3d 7e 3e ab 3d 1e 8c 4f 3d 21 56 49 bd
       0.052001808 0.08361529 0.050670736 -0.049154405
0003c0 9a 50 46 bd 6c 16 b2 3d 85 e4 f6 bc 24 a2 47 bd
       -0.04841671 0.08695683 -0.030138263 -0.048738614
0003d0 16 77 d4 3d 6d df b0 3d 2f 7c b5 bd 61 5c c6 3d
       0.10374276 0.08636365 -0.08861577 0.09685589
0003e0 75 de f4 bc 19 9d 25 3d a0 5d d5 bd e7 cc 57 bd
       -0.029891232 0.040433023 -0.10418248 -0.052685644
0003f0 08 f4 9a 3d 0d fc 2c bd eb 0b ea 3d 5c 24 82 3d
       0.075660765 -0.04223256 0.114280544 0.06354591

fc2.bias f4 [84]
000000 0c 08 76 3c 86 24 47 bd 9b 30 a9 3d 21 96 8b 3d
       0.015016567 -0.048618816 0.08261224 0.06815744
000010 49 81 95 3d 19 e3 41 3b ad 09 9f 3c 62 ea 0d bd
       0.0730005 0.0029584824 0.019413793 -0.034647353
000020 d9 80 06 3d 8e f5 89 3d 42 b8 5b bd de 40 c0 3d
       0.032837722 0.06736289 -0.05364252 0.093873724
000030 6c 31 63 bd 72 b9 54 bb 66 01 a7 bc 36 17 85 bd
       -0.055467054 -0.0032459167 -0.020386409 -0.06498568
000040 64 c2 a3 3c 9c 03 38 bd 53 c3 b3 bd 82 d9 09 3c
       0.019990154 -0.044925317 -0.087774895 0.008413674
000050 03 18 85 bd f1 cd 16 bc 6e 63 3a 3d cf 9d 0a 3d
       -0.064987205 -0.009204374 0.04550498 0.033841904
000060 71 39 17 bd 46 52 05 3c 72 9e 9a bd 6d 3d b4 bc
       -0.036920015 0.008137291 -0.07549752 -0.022001946
000070 81 05 59 3d 7a 8a 62 bd ac c5 6a 3d fe 8b 2c 3c
       0.052983765 -0.055307843 0.05731742 0.010531424
000080 c4 35 d6 bb 13 b1 71 3d 48 3e fd 3c f2 2b 88 3d
       -0.006537171 0.05900676 0.030913487 0.06649007
000090 33 13 08 3d 9b 8a 49 bd 82 57 bc 3c d6 e5 8a 3b
       0.033221435 -0.04920445 0.022990946 0.0042388244
0000a0 e2 f3 c8 bc 3e 7f b0 bd ce 9d 72 3c ee 7a 0b 3d
       -0.024530355 -0.086180195 0.014808131 0.03405278
0000b0 5b c5 ab 3c e6 8c 32 3c 8d ba 38 bd fe 1c 38 bd
       0.02096813 0.010897851 -0.045099784 -0.044949524
0000c0 81 27 83 bb 0a fb a7 bd 10 dc f6 3d 7f 65 6e 3d
       -0.004002512 -0.08202179 0.12053692 0.058202263
0000d0 af 2b 8e 3d 03 16 a3 3d 76 ee fe 3c ef 62 9b bd
       0.06941926 0.07963183 0.031119566 -0.075872295
0000e0 66 db 22 bd 50 f8 a7 bd fd 57 7c bd 79 64 12 3d
       -0.039760016 -0.08201659 -0.06160735 0.03574035
0000f0 4b f0 56 3c 8f 8a 6a 3c 36 58 15 bd 13 ed ae 3b
       0.013118814 0.0143152615 -0.036461078 0.00533832
000100 45 30 db bc 8f 2b 0a 3d 12 90 72 3d e3 d3 d7 bb
       -0.026756415 0.033732947 0.059219427 -0.006586538
000110 4c 59 3f 3c fc d9 be bd 60 3a 6d 3d 48 25 bc 3d
       0.011679005 -0.09318921 0.057917 0.09186798
000120 14 72 46 3d 06 a9 a8 bd 74 aa 2b bd e7 39 41 3d
       0.048448637 -0.08235364 -0.041910604 0.04717436
000130 f4 43 b5 3c 50 54 9a bd b1 16 8d 3d 9d f0 86 3d
       0.02212713 -0.075356126 0.06889094 0.06588862
000140 03 b5 7a 3d e2 2f 6e bd 75 6e 75 bd 8c fa e1 bc
       0.061207782 -0.058151133 -0.059919793 -0.02758529

fc3.weight f4 [10, 84]
000000 e1 bf 69 3e cc 32 ff bd 9d b5 74 3d af b0 82 bd
       0.22827102 -0.124608606 0.059743512 -0.06381356
000010 71 4f 68 bc 32 37 f9 3d 20 ae b5 bd 28 20 38 bd
       -0.014179097 0.12168731 -0.08871102 -0.04495254
000020 a7 b6 b1 bd a8 20 c2 3d 88 19 2d be cd bb 08 be
       -0.08677416 0.09478885 -0.1690427 -0.1335289
000030 9d 3b dc bd 92 b2 e0 bd 6b 4f 29 bd 8a cd e2 bd
       -0.10753558 -0.109715596 -0.041335505 -0.1107436
000040 70 b0 47 be e3 b2 87 bc d3 59 ac bb 04 b1 be 3d
       -0.195009 -0.016564792 -0.0052597313 0.09311107
000050 06 f3 8e 3b 1e af 99 3d 9f 07 c2 bd 44 d2 15 bd
       0.0043624667 0.07504104 -0.0947411 -0.036577478
000060 f0 bc c8 3d a0 ab 03 3d e7 84 6a 3d d5 c4 a1 3c
       0.09801662 0.032146096 0.05725565 0.019747177
000070 83 54 c8 bd 09 a3 02 be 8c e7 af bd 53 e8 45 be
       -0.09781744 -0.12757505 -0.08589086 -0.19326906
000080 ba 82 73 3d 10 4c 93 ba c1 fc 00 be 19 63 e2 3d
       0.059450842 -0.0011237878 -0.12596418 0.11054058
000090 9d f8 0d 3e e5 0c 08 3e 0c b2 04 be b9 39 21 bd
       0.1386437 0.13286169 -0.12958544 -0.03936169
0000a0 2d 6c 53 bd 5e 44 d5 3d 1f 3c 55 3c 64 4a b4 3d
       -0.051616836 0.10413431 0.013014822 0.088032514
0000b0 99 48 8c 3d d2 bb 98 3e 8f d1 aa 3c 4c 08 00 be
       0.068497844 0.29830796 0.020851878 -0.12503165
0000c0 4c 28 9e bd 7e 5e 98 bd 89 73 68 3e 06 49 53 3e
       -0.0772253 -0.07439898 0.22700323 0.20633325
0000d0 d3 b7 18 3d 35 22 89 bd 15 a7 2e 3e 31 4a 76 bd
       0.037284683 -0.066959776 0.17055924 -0.06012935
0000e0 7a 11 46 3d 2f 2f c4 3d 30 73 a5 3c f9 45 26 be
       0.04835651 0.09579312 0.020196527 -0.1623763
0000f0 71 8a 17 3e a8 81 0d bb 71 05 83 bb 6e 90 f7 bc
       0.14798905 -0.0021592174 -0.0039984514 -0.030220237
000100 93 c4 1f 3d 54 f3 b6 3d e1 18 2a 3d a6 c1 b9 3d
       0.039005827 0.0893313 0.041527633 0.09070139
000110 52 98 04 be 0a 5e 8b bd f7 d1 59 be 11 67 41 be
       -0.1294873 -0.06805046 -0.21271501 -0.18886973
000120 20 58 05 3d 65 81 9e 3d 8a f9 26 be f9 51 90 bd
       0.032554746 0.07739524 -0.16306129 -0.07046885
000130 bb 2c c9 bd 44 47 84 bd 5f ec 18 bd 8a 4d c9 bd
       -0.09822985 -0.06458905 -0.037334796 -0.098292425
000140 9a 6b 38 be be d0 30 bc 1b 06 ef bc 9c 75 55 3e
       -0.18009797 -0.0107919555 -0.029177716 0.20845646
000150 3a 7d 1a be a1 5d ef 3c 9a 54 cc 3d 45 26 eb bd
       -0.15086833 0.02921945 0.09977074 -0.11481909
000160 3c 55 d1 3d 46 88 0a be cd e9 c8 bc 52 03 cb 3d
       0.10221335 -0.13528547 -0.024525547 0.09912743
000170 1a 72 27 3e 7c 69 33 3e 68 33 2e be e1 84 d4 3d
       0.1635212 0.17520708 -0.17011797 0.10376907
000180 f3 0a e0 bd da 06 90 bd ab a8 b9 3d 74 fd 11 be
       -0.109395884 -0.07032557 0.09065374 -0.14256841
000190 df 51 1f bd c5 a2 e6 bc 4e 27 c2 bc 66 78 4e 3d
       -0.038896438 -0.028153786 -0.023700383 0.05040779
0001a0 61 74 55 bc 78 e5 8f bd 69 70 f1 3b bc 57 80 bc
       -0.013028235 -0.070261896 0.0073681367 -0.015666835
0001b0 73 a8 45 3d 6c e8 1c 3e 7f b3 1c be 43 86 f9 3c
       0.04825635 0.15323037 -0.15302847 0.030459529
0001c0 e7 c5 62 bd 7c 4f 66 3e fe 71 6f 3e 8f b7 af bb
       -0.055364516 0.22491258 0.23383328 -0.005362458
0001d0 89 dd 80 3d 32 3e 7e 3e a0 2e 0d 3c d3 d2 07 be
       0.062922545 0.24828413 0.008617073 -0.13264017
0001e0 94 5f 36 bd 09 47 87 bc 70 f0 84 3e 50 2b 9c bd
       -0.044524744 -0.016513364 0.2596469 -0.07625449
0001f0 ef 0d f8 3d f8 02 a2 bd 51 33 a8 bc e7 e6 09 bc
       0.121120326 -0.079107225 -0.020532282 -0.008416868
000200 23 53 c7 bd 11 9c 20 be 5e f4 65 be 95 1b 13 3e
       -0.09732654 -0.15684535 -0.224565 0.1436599
000210 8d 0f d7 3d 42 80 0d be 5c 77 9b be e0 62 16 3d
       0.10501013 -0.13818458 -0.303645 0.03671539
000220 02 2b 46 be 32 f4 33 3c 32 b5 2b be c2 d0 0a bd
       -0.19352344 0.010983514 -0.1676834 -0.033890493
000230 51 68 19 bc bb 99 a0 bd e3 ef 35 bd e1 a1 21 3e
       -0.00936325 -0.07841822 -0.044418227 0.15784408
000240 f4 c0 84 3d 86 11 2f 3c 7e c0 e0 bd 22 5f 0a bc
       0.064821154 0.01068533 -0.10974215 -0.008445533
000250 f3 33 5e bd f0 11 92 bb cd f7 66 3e b9 6d 11 be
       -0.05424876 -0.0044577047 0.22555466 -0.14202012
000260 35 48 ea 3d f7 2c 1e 3c cf 81 7b bb 07 9d 35 3e
       0.11439554 0.009654275 -0.0038376932 0.17735682
000270 9b 3d e0 3d 7f 1c 19 3d 48 00 22 be ac 6d 44 3c
       0.1094925 0.03738069 -0.1582042 0.011989038
000280 90 16 48 be 1f b3 91 bd 8f 92 3f 3d 31 93 7d bc
       -0.19539857 -0.07114243 0.04677063 -0.015476988
000290 f5 61 ef bd 0a 74 50 3d 4d 09 01 bd 68 fc 06 be
       -0.11688606 0.050891913 -0.03150301 -0.13182223
0002a0 2a 13 5c be de 75 05 3d 24 01 20 3d ca c8 f6 3c
       -0.21491686 0.03258311 0.039063588 0.03012504
0002b0 11 64 00 be 1e 6b ce bd c5 5b b7 bd 03 00 93 3d
       -0.12538172 -0.10079025 -0.089530505 0.071777366
0002c0 ac 7b 1d bd 03 05 33 be cb 6f bd bd 5f d9 31 3e
       -0.03844802 -0.1748238 -0.092498384 0.17368077
0002d0 96 68 66 3d c4 ee f3 3d f3 e9 cb 3d 90 bb e7 bd
       0.056252085 0.11910775 0.09956732 -0.113150716
0002e0 2f 5b af bc 03 53 02 bd cd 2b 9e 3d c1 7f fd 3c
       -0.021405784 -0.031817447 0.07723198 0.030944707
0002f0 15 cc 0d be e7 32 1e 3e 1c 27 17 be d9 00 1b be
       -0.13847382 0.15449105 -0.14761013 -0.15137042
000300 a2 7d 8a bd ee 00 25 be 11 47 d3 3c b8 fe 41 3c
       -0.06762244 -0.16113636 0.025790723 0.011840515
000310 86 8d 87 3d 66 da 31 bd 00 1e 84 be 49 bb e8 3c
       0.0661879 -0.04342117 -0.25804138 0.028409617
000320 12 55 ee bd ee c1 a1 3d bb 71 2b 3e e7 8d d4 3d
       -0.116373196 0.07898317 0.16742603 0.10378628
000330 16 ee 73 3e 3b 27 f8 bc d5 a1 21 3e c5 62 bb 3d
       0.23821291 -0.030292144 0.1578439 0.09149698
000340 d8 85 78 3d d2 75 64 3d 4d 63 38 3d 8a eb e9 bc
       0.06067452 0.055776425 0.045016576 -0.028554697
000350 ea 0a cf 3d 45 40 dd bd 40 a9 25 3e ab 0b c2 3d
       0.101095036 -0.10803274 0.16177845 0.09474882
000360 3f 3b 8e 3e 33 df eb bc 95 87 41 3e d8 57 e6 bd
       0.27779576 -0.028792953 0.18899377 -0.112472236
000370 a6 6c 02 be 1f 2e 16 be 21 b5 13 3b e1 2f 16 3d
       -0.12736759 -0.14666031 0.002253838 0.036666755
000380 2c 63 17 3e 89 0c 7a bd fe a9 d3 bd a9 05 73 be
       0.14783925 -0.06104711 -0.10335158 -0.23732628
000390 e3 a3 92 3e 07 87 23 3e 63 c5 42 3b be 95 5a 3d
       0.2864066 0.15969478 0.0029719702 0.05336546
0003a0 f6 9c 63 be 7d ef 35 be 1c c1 3a 3e e1 5c 6d 3d
       -0.22227845 -0.17767139 0.18237728 0.057949904
0003b0 9c 5c 2a 3e 3d ff 3e bd c2 a5 c3 3d ff ee b3 3a
       0.1663689 -0.046630133 0.095531 0.0013727843
0003c0 5a 87 89 bd 79 b9 a1 bd 14 c1 d0 bd 45 1f a4 3d
       -0.067152694 -0.07896704 -0.10193077 0.08013777
0003d0 bf df d9 bd f6 82 a7 3c 6a 60 c0 bd 77 95 a5 3d
       -0.10638379 0.02044819 -0.093933895 0.08085149
0003e0 64 b0 4c bd 2a 47 f1 3d cf 49 c4 3d 99 0e 4a 3d
       -0.049972907 0.117811516 0.0958439 0.049330328
0003f0 8e 8f 8d bd 01 e2 51 bc 47 79 da bc 79 7e 00 3c
       -0.069121465 -0.012810231 -0.026669158 0.007842653

fc3.bias f4 [10]
000000 ab b2 58 3d 5a f3 8e ba 12 ac 8e 3d 2d 83 2f bd
       0.052904766 -0.0010906265 0.069664136 -0.04284971
000010 ca 61 21 3d 49 c6 c0 bd dd 15 e3 3d 75 7c ad bc
       0.0393999 -0.0941282 0.110881545 -0.02117751
000020 61 bb 16 3c 6c 19 2d bc
       0.009199948 -0.010565143
