Classifier/weights/HASY_weights (2).pth (torch, 204513 bytes, 10 tensors)

conv1.weight f4 [6, 1, 5, 5]
-0.0906835 -0.38902888 -0.29433838 -0.19677103 -0.30731893 -0.39458254 -0.12212517 -0.3527115
-0.29276633 -0.16139607 -0.36739817 -0.34817737 -0.23638453 -0.13648182 -0.17763959 -0.21977228
-0.09119776 -0.011532621 0.03658186 -0.05590133 -0.050808743 0.09641963 0.29624516 0.04182955
0.3532993 0.2470729 -0.07527566 0.26945835 -0.035722073 0.13525991 -0.073672526 0.1597323
-0.0213495 0.15688212 -0.10518224 0.11971415 -0.01352389 0.039306827 -0.2136984 0.043620117
-0.16260363 -0.15175498 0.08098996 -0.18001209 -0.201343 -0.081970274 0.15759337 -0.008583254
-0.09522075 -0.2835029 -0.264001 -0.08466573 -0.081182085 -0.1297254 0.3444678 -0.16107233
-0.31789508 -0.17966244 0.2715364 0.19511199 -0.2933044 -0.36297804 -0.17761126 0.25587958
0.31954277 -0.42284265 -0.081709445 0.13442884 0.30903605 0.07292182 -0.06454269 -0.30217707
0.19491085 0.15425922 0.2700584 0.25707874 0.19999428 0.04156464 -0.25508085 -0.3915235
0.12268509 -0.0036372158 -0.2914306 -0.28810963 -0.3489863 0.44354573 0.18124779 -0.22117925
-0.28085297 -0.462688 0.38189098 0.41895512 -0.1212062 0.019427009 -0.23998147 0.118148044
0.30587763 0.23991151 0.0040583597 -0.0012721103 -0.33045086 -0.5559604 -0.44113773 0.1445248
0.046382416 -0.53259623 -0.574732 -0.085703835 0.35487667 0.3484075 -0.40500563 -0.24828607
0.35780543 0.5134109 0.34092256 -0.20377699 0.13587488 0.2589199 0.29386374 0.18970904
0.01947605 0.08469645 0.20105727 -0.06686766 -0.07223965 -0.36711857 -0.128463 -0.3982702
-0.3186809 -0.21318011 -0.1608238 -0.19762374 -0.34983638 -0.39598116 -0.5189606 -0.00493798
-0.25091428 -0.329802 -0.35911915 -0.17302033 0.41835782 0.3266507 0.33263102 0.4683551
0.13437088 0.15216438 0.46858874 0.6126858 0.3332736 0.48356873
00000000: 45b8 b9bd cb2e c7be 85b3 96be 587e 49be
00000010: e858 9dbe b906 cabe c31c fabd 9a96 b4be
00000020: 78e5 95be 0345 25be 9d1b bcbe 4e44 b2be
00000030: c90e 72be e4c1 0bbe 27e7 35be fc0b 61be
00000040: e4c5 babd 52f3 3cbc dcd6 153d cbf8 64bd
00000050: d41c 50bd a877 c53d 72ad 973e 7655 2b3d
00000060: a5e3 b43e ae00 7d3e 202a 9abd 72f6 893e
00000070: 4f51 12bd 9381 0a3e 9fe1 96bd dd90 233e
00000080: 26e5 aebc b5a5 203e c969 d7bd b12c f53d
00000090: 4e93 5dbc 3200 213d c1d3 5abe 02ab 323d
000000a0: 9181 26be a865 1bbe 10de a53d 1755 38be
000000b0: dc2c 4ebe 08e0 a7bd 2860 213e c7a0 0cbc
000000c0: 1903 c3bd 4b27 91be 242b 87be 3a65 adbd
000000d0: cb42 a6bd bcd6 04be 155e b03e 25f0 24be
000000e0: 25c3 a2be 6ef9 37be d206 8b3e 70cb 473e
000000f0: ff2b 96be 42d8 b9be badf 35be a602 833e
00000100: 1c9b a33e d57e d8be 4857 a7bd b7a7 093e
00000110: f939 9e3e 0958 953d f52e 84bd f4b6 9abe
00000120: b696 473e 21f6 1d3e 1845 8a3e d39f 833e
00000130: 4dcb 4c3e af3f 2a3d f599 82be c575 c8be
00000140: 5242 fb3d 5b5e 6ebb 6436 95be 1b83 93be
00000150: 55ae b2be 6d18 e33e 0599 393e d07c 62be
00000160: f6cb 8fbe 71e5 ecbe 3787 c33e 4981 d63e
00000170: f53a f8bd 6425 9f3c b4bd 75be 9af7 f13d
00000180: fe9b 9c3e 5dab 753e fdfb 843b f0bc a6ba
00000190: db30 a9be 6c53 0ebf cedc e1be 4ffe 133e
000001a0: 7dfb 3d3d 3a58 08bf a321 13bf 7e85 afbd
000001b0: 65b2 b53e 7862 b23e e65c cfbe b43e 7ebe
000001c0: 4632 b73e e66e 033f 678d ae3e eaaa 50be
000001d0: c922 0b3e 2691 843e 4f75 963e 1643 423e
000001e0: 3d8c 9f3c 5575 ad3d f5e1 4d3e e9f1 88bd
000001f0: 62f2 93bd f7f6 bbbe ce8b 03be 12ea cbbe
00000200: 252a a3be e34b 5abe ffae 24be e15d 4abe
00000210: c11d b3be 0bbe cabe 9ada 04bf c7ce a1bb
00000220: d677 80be cfdb a8be 77de b7be 3e2c 31be
00000230: ff32 d63e c33e a73e 9d4e aa3e 3dcc ef3e
00000240: 8598 093e fbd0 1b3e ddea ef3e fad8 1c3f
00000250: d6a2 aa3e 5296 f73e

conv1.bias f4 [6]
0.29583687 0.09792714 0.17259566 0.16257523 0.22838874 0.42378312
00000000: ee77 973e 068e c83d ebbc 303e 1f7a 263e
00000010: bdde 693e 1afa d83e

conv2.weight f4 [16, 6, 5, 5]
-0.013263714 0.053006448 0.13292682 0.13503845 0.07130512 0.02420932 0.05507757 0.08558139
-0.012382724 -0.08676167 -0.121529214 -0.106962994 -0.27618307 -0.21358928 -0.10256536 0.01805014
-0.012741133 -0.03481589 -0.055428065 -0.044608843 0.13136117 0.124268 0.18861559 0.055613086
0.05854778 -0.039712902 0.07630878 -0.052803293 0.06991489 0.01599679 -0.11543287 -0.14551134
0.0013445824 -0.023652729 -0.06974116 0.019726017 0.08117304 -0.04568398 -0.081882 0.05695307
0.11457463 0.03786365 -0.017585836 0.03556606 0.089997485 0.031184006 0.02221322 -0.022000855
-0.012514907 0.018469194 0.035111867 -0.031244174 0.050744772 -0.05417414 0.028879244 0.033792287
-0.029715482 -0.10659515 -0.07934269 -0.12800156 -0.09442194 -0.13210957 -0.14560744 -0.10912748
-0.11656176 -0.08440794 -0.06385604 0.028176922 0.0032913412 0.053347636 -0.09481323 0.010916568
0.06837868 0.025695497 -0.04846383 0.045445558 0.14176525 0.11333316 0.08654513 -0.010646063
0.022405084 0.029823096 0.1338376 0.15008566 0.06157587 -0.03198438 -0.17310748 -0.036516692
-0.09925182 0.018637244 -0.029750409 -0.08177326 -0.0867513 -0.13190341 0.01560203 -0.0041711014
-0.06598225 -0.14096572 -0.06279386 -0.097295314 0.036769766 -0.046488598 -0.057486862 -0.009406912
0.012590449 0.039876748 0.10215916 0.1861937 0.08008402 0.07550374 0.05875779 0.088555455
-0.035899017 -0.048241246 -0.123949274 -0.06245119 -0.07179407 -0.025767604 -0.028647501 0.0066285045
-0.11026629 -0.020363618 0.00971029 0.13379842 0.11718388 0.1828803 0.21158265 0.28801367
0.15672313 0.15386839 0.21492404 0.35949513 0.4603981 0.42705914 0.24975698 0.0525513
0.10897346 0.02807027 0.01727765 0.055343524 -0.012823803 0.019244367 -0.02851236 -0.03072634
-0.07872901 0.07032637 0.105056666 0.029973807 -0.034814727 -0.053191356 0.039087974 0.034313105
0.051469274 -0.023564816 -0.14623159 -0.03819232 -0.055544134 -0.15503353 -0.020827219 -0.04679093
0.030382847 -0.082385264 0.0076808794 0.08487203 0.022943087 -0.024484329 0.11958303 0.019750413
0.07919737 0.067516156 0.07974846 0.06708475 -0.0019991568 0.10546339 0.101057686 0.006197618
0.045928154 -0.046639115 -0.07651641 0.007257697 0.04991225 0.05789446 0.04932337 0.05033368
0.110799626 0.032311965 0.09769383 0.09058674 -0.032344844 -0.0049419096 -0.05367891 0.053573478
0.04733507 -0.029002516 0.00438771 0.08320813 0.08543194 -0.06537406 0.04894714 -0.037704796
0.02899323 0.108610004 -0.0016592159 -0.033090364 0.012820574 0.09348927 -0.046434578 -0.0130362995
-0.041321103 -0.0070408722 -0.039744616 -0.024362274 0.011611433 0.047479287 -0.07613413 -0.04163149
-0.016555075 -0.052649695 0.009029762 -0.02843209 0.072447054 0.013274329 -0.07878426 0.016077815
-0.084505424 -0.054277845 0.05371376 -0.019273253 -0.008312028 0.035677105 -0.074246146 0.04375461
0.009536491 0.04466279 0.0041307216 0.06630315 -0.022713248 -0.06727419 -0.083972484 -0.020907743
0.04784762 0.007861388 -0.015209157 0.009708172 0.041381896 0.0998723 -0.040408216 -0.05606582
0.052120063 -0.048752666 0.15073924 0.24007423 0.22728682 0.12232478 0.07996024 0.16799165
00000000: 0c50 59bc 4a1d 593d f81d 083e 8547 0a3e
00000010: 6b08 923d a052 c63c 0599 613d 4c45 af3d
00000020: e9e0 4abc 1ab0 b1bd 4fe4 f8bd 6a0f dbbd
00000030: de67 8dbe 26b7 5abe ca0d d2bd e3dd 933c
00000040: 2fc0 50bc 1b9b 0ebd 8a08 63bd c3b7 36bd
00000050: 8b83 063e 3980 fe3d 7224 413e 8cca 633d
00000060: cccf 6f3d ffa9 22bd c747 9c3d 4448 58bd
00000070: 8a2f 8f3d b30b 833c 1268 ecbd ed00 15be
00000080: b33c b03a 5ec3 c1bc 74d4 8ebd 7598 a13c
00000090: 0d3e a63d 201f 3bbd c0b1 a7bd 9f47 693d
000000a0: 1ba6 ea3d ea16 1b3d 2c10 90bc b8ad 113d
000000b0: 9a50 b83d 9a75 ff3c 80f8 b53c 233b b4bc
000000c0: 530b 4dbc b54c 973c 76d1 0f3d c8f3 ffbc
000000d0: c0d9 4f3d b4e5 5dbd 2a94 ec3c c869 0a3d
000000e0: e26d f3bc 8f4e dabd 6c7e a2bd d712 03be
000000f0: 4a60 c1bd bb47 07be 1e1a 15be 3a7e dfbd
00000100: efb7 eebd 12de acbd f5c6 82bd 4ad3 e63c
00000110: 8bb3 573b 0d83 5a3d 702d c2bd 68db 323c
00000120: 1f0a 8c3d 5d7f d23c 0282 46bd 1f25 3a3d
00000130: e92a 113e 371b e83d 933e b13d d36c 2ebc
00000140: de8a b73c 914f f43c b90c 093e 0eb0 193e
00000150: fb36 7c3d 0e02 03bd 1643 31be 8792 15bd
00000160: 8a44 cbbd 22ad 983c 21b7 f3bc bd78 a7bd
00000170: aaaa b1bd b011 07be a89f 7f3c bcad 88bb
00000180: b421 87bd 5159 10be 119a 80bd c442 c7bd
00000190: e59b 163d d46a 3ebd 5877 6bbd 731f 1abc
000001a0: 2c48 4e3c cd55 233d d238 d13d 90a9 3e3e
000001b0: 1703 a43d b4a1 9a3d 02ac 703d 905c b53d
000001c0: d90a 13bd 9d98 45bd 1ed9 fdbd d2cc 7fbd
000001d0: c508 93bd 9516 d3bc 2aae eabc ed33 d93b
000001e0: 4bd3 e1bd 9ad1 a6bc e817 1f3c 7402 093e
000001f0: 1afe ef3d f944 3b3e 1fa9 583e 8776 933e
00000200: 077c 203e ad8f 1d3e 0c15 5c3e bf0f b83e
00000210: 4db9 eb3e 7fa7 da3e 4bc0 7f3e 0840 573d
00000220: 7a2d df3d 9ff3 e53c dc89 8d3c e4af 623d
00000230: ee1a 52bc 5da6 9d3c c192 e9bc ceb5 fbbc
00000240: ad3c a1bd 4607 903d f327 d73d a18b f53c
00000250: e399 0ebd 2edf 59bd b61a 203d e68b 0c3d
00000260: 72d1 523d 000b c1bc bcbd 15be 8d6f 1cbd
00000270: 3f82 63bd 1cc1 1ebe d89d aabc d9a7 3fbd
00000280: 73e5 f83c 9bb9 a8bd e3af fb3b 63d1 ad3d
00000290: 24f3 bb3c 5c93 c8bc f3e7 f43d 9ecb a13c
000002a0: 3b32 a23d e945 8a3d 2953 a33d bb63 893d
000002b0: 4904 03bb 31fd d73d 55f7 ce3d 6315 cb3b
000002c0: 291f 3c3d a808 3fbd a3b4 9cbd fad1 ed3b
000002d0: ca70 4c3d be22 6d3d 4d07 4a3d b02a 4e3d
000002e0: eaea e23d 8d59 043d b413 c83d 8a85 b93d
000002f0: 077c 04bd beef a1bb 6bde 5bbd dd6f 5b3d
00000300: 6be2 413d af96 edbc c7c6 8f3b 0669 aa3d
00000310: f1f6 ae3d d6e2 85bd cc7c 483d 5870 1abd
00000320: 3683 ed3c ec6e de3d 0c7a d9ba c389 07bd
00000330: 630d 523c 4d77 bf3d 2f32 3ebd 3496 55bc
00000340: 5140 29bd 1eb7 e6bb 40cb 22bd 6493 c7bc
00000350: e13d 3e3c a479 423d 36ec 9bbd c885 2abd
00000360: 829e 87bc 35a7 57bd 91f1 133c 6aea e8bc
00000370: 1f5f 943d 927c 593c a459 a1bd 9fb5 833c
00000380: 2e11 adbd 7252 5ebd f602 5c3d f1e2 9dbc
00000390: 2c2f 08bc 2822 123d 5d0e 98bd 0938 333d
000003a0: f13e 1c3c 54f0 363d 015b 873b f2c9 873d
000003b0: 2211 babc 0dc7 89bd c4f9 abbd b746 abbc
000003c0: defb 433d 0dcd 003c d42f 79bc 060f 1f3c
000003d0: 1080 293d d989 cc3d 1683 25bd 46a5 65bd
000003e0: d97b 553d e0b0 47bd 635b 1a3e 05d6 753e
000003f0: e0bd 683e 6a85 fa3d 32c2 a33d 0106 2c3e

conv2.bias f4 [16]
-0.05591773 -0.010579314 0.06953145 -0.07053357 0.035601065 0.07188712 -0.028047886 0.0698749
0.02724597 -0.018393908 0.04523272 -0.006721465 -0.019533103 0.09120889 0.02192654 -0.05209505
00000000: fd09 65bd dc54 2dbc 8166 8e3d e873 90bd
00000010: 6cd2 113d 8e39 933d aec4 e5bc 921a 8f3d
00000020: f132 df3c d2ae 96bc f245 393d bc3f dcbb
00000030: e303 a0bc bacb ba3d 4a9f b33c 9f61 55bd

fc1.weight f4 [120, 256]
-0.0321052 0.038111255 -0.03428848 -0.019832917 -0.04843487 -0.060270187 0.043085575 0.007643871
0.011849142 0.011937047 -0.023952477 -0.033200882 -0.021889135 -0.044516124 -0.031074304 -0.010484067
0.057938736 -0.045936905 -0.02402356 0.030024905 -0.0061871638 -0.04650707 0.049484324 -0.0014137139
0.014975897 0.0005469979 0.031365316 -0.045608286 0.018019896 0.021174215 -0.035854127 0.06633739
-0.05690938 0.045178007 -0.037981994 0.06866653 -0.06508115 -0.054688543 -0.034396544 0.022313789
-0.020638352 0.004388915 0.063154444 0.023876503 -0.054828305 0.05753552 0.006061876 -0.004337384
-0.021825433 0.021485446 -0.027978078 -0.01583633 -0.043893937 0.003195829 -0.008808479 -0.0065701543
-0.00014753548 0.020943088 0.014208958 0.04242726 -0.05011164 -0.022285981 -0.02450828 -0.055904895
0.029174672 0.026194358 -0.041397206 -0.05280543 -0.04309465 -0.026784698 0.022499414 -0.04347027
-0.038631454 0.024494873 0.00043650033 -0.007943462 0.05396248 -0.054871593 0.032403268 0.034558963
0.05437008 0.033012066 -0.0037525133 -0.0376579 0.026164724 -0.046712633 -0.058937337 -0.056464177
0.032720704 0.031111218 -0.036782596 -0.050088618 -0.012218841 0.04278046 0.040777486 0.055353764
-0.038469933 0.04061938 -0.0061100777 -0.004289509 0.03188914 -0.023871645 0.048321072 0.06329819
-0.0572765 -0.05616892 0.045093145 0.022311414 0.054441158 -0.008380238 -0.026730755 0.05694504
-0.033973 -0.05359625 0.048412815 -0.04830606 0.034927186 0.04522148 0.045160215 0.049172353
0.011689453 0.0239796 0.03668754 0.057744313 -0.028837929 0.008205332 -0.056382567 0.058887105
0.05934164 -0.05674177 0.024499716 0.06886383 0.0059400834 -0.007930928 -0.024541382 0.06531882
-0.033864766 0.027760113 0.028697323 0.063953154 -0.032317936 0.026748039 0.030715216 0.008269229
0.012399226 0.050688222 -0.040600553 -0.034292933 0.030162279 0.051577207 0.0345162 0.045004934
-0.002291311 -0.044782445 0.047893584 -0.041759036 -0.06238241 -0.044123236 -0.047851115 -0.040382173
0.04768142 -0.035546087 -0.03506264 -0.022646127 0.043349173 -0.015783865 0.047807187 0.010825712
0.0339594 -0.02131812 -0.0532588 0.04538205 -0.032258954 -0.033207763 -0.028124213 -0.036810182
0.03782875 0.05503246 -0.031483643 -0.03701948 0.044098917 -0.051664952 0.060157776 0.04238264
0.057034265 -0.03124094 -0.040854577 0.0062716873 -0.042496298 -0.019032499 0.027373081 0.05887604
-0.0011565097 -0.010808557 0.0143146 0.0068617673 0.01649369 -0.04135312 -0.025415124 0.06890788
0.029379288 -0.031441126 0.055501662 0.014691406 0.0013756643 -0.056722123 0.04360422 -0.018906428
0.06352699 -0.006903778 -0.026380528 -0.007959802 -0.044516288 -0.018241683 -0.009402227 0.018800233
-0.061929207 0.05073264 -0.053637438 -0.008048983 0.01714964 0.015010598 0.0159536 -0.02214918
0.02967914 -0.053404156 -0.04780958 0.06798002 -0.021944769 0.00959627 -0.03736941 0.00033045167
0.009070271 0.056377683 0.055112183 0.0042690174 -0.07269604 -0.051782537 0.009991754 0.054313816
-0.051030844 0.053739265 -0.048058003 0.038617667 -0.05539701 0.0065935925 0.007699277 0.04025238
-0.030110342 -0.0118169645 0.008707254 0.045913257 0.011924804 0.03322491 0.031392585 -0.051409744
00000000: be80 03bd 8c1a 1c3d 1472 0cbd a478 a2bc
00000010: a463 46bd dfdd 76bd 807a 303d 7079 fa3b
00000020: e722 423c 9b93 433c fc37 c4bc a6fd 07bd
00000030: d850 b3bc 8a56 36bd 8a8f febc 5dc5 2bbc
00000040: 2b51 6d3d 5628 3cbd 0fcd c4bc caf6 f53c
00000050: b1bd cabb 337e 3ebd 13b0 4a3d 5e4c b9ba
00000060: 775d 753c 6864 0f3a eb78 003d c1cf 3abd
00000070: 769e 933c 8c75 ad3c c7db 12bd e6db 873d
00000080: cf19 69bd 930c 393d 0293 1bbd 0aa1 8c3d
00000090: 4449 85bd 1801 60bd 64e3 0cbd 68cb b63c
000000a0: c311 a9bc e3d0 8f3b 1e57 813d a898 c33c
000000b0: a593 60bd 5eaa 6b3d b4a2 c63b 9d20 8ebb
000000c0: 40cb b2bc 3f02 b03c 4832 e5bc 31bb 81bc
000000d0: 21ca 33bd 1d71 513b 7051 10bc 734a d7bb
000000e0: c1b3 1ab9 d790 ab3c b0cc 683c 35c8 2d3d
000000f0: dd41 4dbd 1791 b6bc 97c5 c8bc 88fc 64bd
00000100: b9ff ee3c 8d95 d63c 1e90 29bd 824a 58bd
00000110: 0484 30bd 956b dbbc b150 b83c e20d 32bd
00000120: 043c 1ebd 79a9 c83c 15da e439 4b25 02bc
00000130: c307 5d3d 09c1 60bd 4ab9 043d b38d 0d3d
00000140: 29b3 5e3d a937 073d baec 75bb 2c3f 1abd
00000150: 6757 d63c bf55 3fbd 4768 71bd fb46 67bd
00000160: 2506 063d f4dc fe3c 59a9 16bd b929 4dbd
00000170: 8931 48bc 903a 2f3d 4b06 273d a1ba 623d
00000180: a692 1dbd 8260 263d 0c37 c8bb 028f 8cbb
00000190: 309e 023d 788e c3bc 51ec 453d 7ba2 813d
000001a0: c39a 6abd 6211 66bd 97b3 383d 6dc6 b63c
000001b0: b1fd 5e3d 444d 09bc 75fa dabc 343f 693d
000001c0: 4627 0bbd be87 5bbd 844c 463d 93dc 45bd
000001d0: cf0f 0f3d 293a 393d ebf9 383d f368 493d
000001e0: 1f85 3f3c de70 c43c ad45 163d 4d85 6c3d
000001f0: 853d ecbc a86f 063c 68f1 66bd 9b33 713d
00000200: 3810 733d 0f6a 68bd a1b3 c83c 7b08 8d3d
00000210: 08a5 c23b b9f0 01bc 020b c9bc e0c5 853d
00000220: c8b5 0abd 2d69 e33c a616 eb3c dff9 823d
00000230: d05f 04bd b41e db3c 7a9e fb3c a97b 073c
00000240: 2026 4b3c 749e 4f3d c44c 26bd bf76 0cbd
00000250: e216 f73c 9f42 533d dc60 0d3d 1857 383d
00000260: d229 16bb cc6d 37bd 102c 443d 860b 2bbd
00000270: b384 7fbd 91ba 34bd 88ff 43bd c767 25bd
00000280: 984d 433d c698 11bd d89d 0fbd 5f84 b9bc
00000290: e78e 313d 2a4d 81bc 78d1 433d 545e 313c
000002a0: 0319 0b3d 57a3 aebc e625 5abd 87e2 393d
000002b0: f721 04bd dd04 08bd c064 e6bc 46c6 16bd
000002c0: 52f2 1a3d b769 613d fef4 00bd bda1 17bd
000002d0: 11a1 343d a19e 53bd 0068 763d 6b99 2d3d
000002e0: c39c 693d 00ed ffbc 2157 27bd ba82 cd3b
000002f0: 9910 2ebd 0bea 9bbc 833d e03c 0128 713d
00000300: 0796 97ba 6016 31bc c987 6a3c add8 e03b
00000310: c61d 873c e461 29bd 6133 d0bc 931f 8d3d
00000320: d5ac f03c 69c8 00bd b655 633d 39b4 703c
00000330: a24f b43a 7555 68bd 579a 323d a7e1 9abc
00000340: 701a 823d 1639 e2bb fa1b d8bc d469 02bc
00000350: b656 36bd 956f 95bc cc0b 1abc f202 9a3c
00000360: 7ba9 7dbd 07cd 4f3d eeb2 5bbd e2df 03bc
00000370: 677d 8c3c 03ef 753c 20b1 823c 3272 b5bc
00000380: ab21 f33c 51be 5abd fad3 43bd 1c39 8b3d
00000390: 84c5 b3bc ac39 1d3c ab10 19bd 7940 ad39
000003a0: 799b 143c 49ec 663d 50bd 613d 1de3 8b3b
000003b0: a9e1 94bd ed19 54bd 74b4 233c 2a78 5e3d
000003c0: b805 51bd b41d 5c3d 78d8 44bd 8f2d 1e3d
000003d0: fae7 62bd 100f d83b 374a fc3b aedf 243d
000003e0: f7a9 f6bc f19b 41bc dfa8 0e3c 8a0f 3c3d
000003f0: 4160 433c d816 083d 8395 003d 0693 52bd

fc1.bias f4 [120]
0.021937247 0.03161293 0.035273217 -0.014958786 0.0049703494 -0.051438987 -0.0360791 0.058440477
0.014726231 -0.008677096 -0.048430443 -0.028879574 -0.037756618 -0.0033605394 -0.002459707 -0.02057435
0.018597478 -0.023329182 0.01909831 -0.043492984 0.009851816 0.016668923 0.015126706 0.055063598
-0.0037753836 -0.051167704 0.02201025 -0.051636588 -0.026559012 0.058766667 -0.03677383 -0.05242219
0.039560802 -0.004410463 0.029414145 0.05445663 -0.015276111 0.008752303 0.00077042216 -0.020150363
0.0130497 0.030016534 0.05501937 -0.05120102 -0.05860561 -0.013352886 -0.026201922 0.051403392
-0.04949038 0.034726903 -0.015709301 0.047930818 0.033594422 -0.044167746 -0.034607477 0.024285201
-0.06000796 0.048315518 -0.017867517 0.01725598 -0.00894341 0.018422108 0.012249497 -0.011093546
0.042866047 0.04788975 -0.0428061 -0.053133454 0.060421217 -0.061120074 -0.023078756 0.05921913
0.03587445 0.021814048 -0.05715325 0.052783933 -0.054055188 -0.013817253 0.036618277 0.027197473
-0.022672882 -0.016874772 0.019899081 0.0034038683 0.04895869 0.047218893 -0.013425723 0.058590505
0.046811104 0.003788578 0.014262734 0.011927312 0.022491625 0.0010330684 0.07199319 0.042203087
0.03604072 0.029210951 0.05740466 0.0508826 0.030389795 0.01792548 -0.0010221126 -0.018518468
0.031193312 0.017557634 -0.05348429 -0.05177085 0.048568286 -0.048843123 0.024057684 0.05628247
-0.03313866 -0.024382744 -0.014413943 -0.053519186 0.05379095 -0.030608958 0.042643692 -0.018474296
00000000: beb5 b33c 8f7c 013d a67a 103d b215 75bc
00000010: 50de a23b b0b1 52bd aec7 13bd 485f 6f3d
00000020: 4a46 713c 612a 0ebc 005f 46bd db94 ecbc
00000030: afa6 1abd 7f3c 5cbb 0933 21bb 8a8b a8bc
00000040: bd59 983c d71c bfbc 0f74 9c3c b325 32bd
00000050: 8369 213c 448d 883c 01d6 773c 5e8a 613d
00000060: 6d6c 77bb 3a95 51bd d74e b43c e380 53bd
00000070: 4992 d9bc 51b5 703d 28a0 16bd a6b8 56bd
00000080: 820a 223d a585 90bb eff5 f03c ea0d 5f3d
00000090: a748 7abc d265 0f3c 28f6 493a 6012 a5bc
000000a0: 69ce 553c 3ce5 f53c fe5b 613d 29b8 51bd
000000b0: 700c 70bd 10c6 5abc 6aa5 d6bc 5d8c 523d
000000c0: 6db6 4abd cc3d 0e3d cbb0 80bc 1b53 443d
000000d0: 4e9a 093d 3de9 34bd 92c0 0dbd c2f1 c63c
000000e0: e8ca 75bd 7ee6 453d e65e 92bc 6a5c 8d3c
000000f0: 6187 12bc f6e9 963c 1db2 483c b4c1 35bc
00000100: 4f94 2f3d 0b28 443d 7355 2fbd 77a2 59bd
00000110: 3d7c 773d 0b59 7abd a90f bdbc c28f 723d
00000120: 16f1 123d 60b3 b23c 8719 6abd f733 583d
00000130: f968 5dbd c261 62bc 0cfd 153d 3ccd de3c
00000140: 7bbc b9bc f63c 8abc 6603 a33c 6f13 5f3b
00000150: e888 483d 9968 413d 90f7 5bbc 99fc 6f3d
00000160: 00bd 3f3d cb49 783b 3eae 693c c66a 433c
00000170: 5b40 b83c 0668 873a 2a71 933d 25dd 2c3d
00000180: 6f9f 133d ce4b ef3c 2621 6b3d 466a 503d
00000190: 05f4 f83c 75d8 923c 68f8 85ba 0bb4 97bc
000001a0: 1e89 ff3c 07d5 8f3c 5812 5bbd ac0d 54bd
000001b0: 8aef 463d ba0f 48bd 9f14 c53c 7288 663d
000001c0: 67bc 07bd 52be c7bc 7528 6cbc ef36 5bbd
000001d0: e653 5c3d a3bf fabc 27ab 2e3d 6857 97bc

fc2.weight f4 [84, 120]
-0.02034664 -0.023497382 0.067395106 0.008323956 0.04668358 -0.036252916 0.0010502468 -0.07870883
-0.04074609 0.036897413 -0.041051656 0.013642108 0.04391478 0.048967957 -0.0752265 -0.022814935
-0.07697407 0.06462 -0.004113545 -0.058416408 0.07235709 -0.07580868 -0.019541051 -0.05491123
-0.05993705 -0.05695414 -0.022810204 0.032192476 -0.06695615 -0.023926426 -0.02424694 -0.060653266
0.011329944 0.02548465 -0.023257026 -0.012652488 -0.0039174394 0.07666084 -0.02719569 -0.05882752
0.061057903 -0.038851682 -0.08211603 0.009112181 -0.042484008 0.0069895596 -0.040574297 0.047852833
0.033156395 0.06893247 -0.0065179165 -0.020883638 -0.028197898 -0.045973282 0.09012726 0.07972529
-0.07762159 -0.011047161 -0.07109453 -0.00071304373 0.012564635 0.044131376 -0.020696945 0.0014640479
-0.03347513 0.0064620767 0.025953911 -0.0028328062 -0.058474626 0.0064967135 -0.01902431 -0.004115184
0.019660106 0.065816656 -0.0867087 0.07185537 0.067700885 0.035187367 0.040447466 0.0071463985
0.02474484 0.03149236 -0.025958264 -0.0799752 -0.059355445 0.06749803 0.05189637 -0.06343932
-0.06033048 -0.045235794 -0.071654886 0.029865658 -0.07846231 -0.05833432 0.03624161 -0.019174185
-0.0028942975 0.0858184 0.045998517 0.01814014 0.07178183 0.030907834 -0.084803715 0.047021817
-0.045655664 -0.06133647 -0.06637328 -0.077477165 0.012690569 0.06437538 0.03386892 -0.039690718
-0.0391536 -0.01691704 -0.016516456 0.08508517 -0.07616319 0.007018261 0.05224938 -0.089795396
-0.04477387 -0.05411887 0.06532238 -0.014014519 0.022877173 0.08862126 0.07509868 0.030285647
-0.025037471 0.093806885 -0.0065295254 -0.08554545 0.058549207 -0.03290463 0.02350562 0.0679171
-0.076002136 -0.058022227 -0.05338748 -0.074643895 -0.009629676 0.019966705 -0.030234292 0.061486244
-0.012833792 0.08455849 0.08928419 0.07937566 -0.076443136 -0.014454169 -0.07749504 0.08313282
-0.0710907 -0.020469772 -0.06525973 0.00051647896 -0.06477456 -0.035451785 0.08148586 -0.019788612
0.0075884433 -0.058343202 -0.056267217 -0.06877752 -0.031273544 -0.022102758 -0.030231982 0.034332998
0.068547696 -0.055651005 -0.036386102 -0.080765285 -0.044419095 -0.0822632 0.018689804 -0.0010306897
0.033494726 -0.03172498 0.05839311 -0.029377202 -0.0073940726 -0.040551204 -0.0735578 -0.044421837
-0.037781823 0.07044482 -0.028380018 0.039467324 -0.0736011 -0.06911146 -0.08561005 -0.0071468307
-0.01691712 -0.0037517368 0.071916044 0.043859944 0.07985859 -0.014366568 0.074875966 0.018014202
0.0496512 0.059261292 -0.034146696 -0.03829178 0.064803354 0.082502894 0.065395854 0.042781286
-0.009059284 0.031091735 0.032085683 0.0073959227 -0.038772028 0.0411563 -0.04910074 -0.06917348
0.04804953 -0.030622657 0.0254511 -0.007950811 0.1051535 -0.02240785 -0.044510238 -0.030997995
-0.07586609 0.035510805 -0.05744636 0.05851399 0.03544979 0.02371751 0.07750265 0.009747056
0.0799935 0.058237765 0.019783413 0.091686904 -0.039093778 0.08799793 0.05942357 0.09648566
-0.08024015 -0.058886457 -0.039125193 0.04332266 -0.019853203 0.07908481 -0.08315275 0.06769994
0.017575983 -0.067908294 0.048165698 -0.040351573 0.042007335 -0.044415735 -0.031835895 0.08095854
00000000: ffad a6bc 957d c0bc 7206 8a3d 3461 083c
00000010: 4837 3f3d f07d 14bd 6fa8 893a 1832 a1bd
00000020: 5fe5 26bd be21 173d c825 28bd 2683 5f3c
00000030: fcdf 333d a092 483d 5a10 9abd 63e6 babc
00000040: 95a4 9dbd 7e57 843d ebca 86bb 0b46 6fbd
00000050: f42f 943d 9541 9bbd 8e14 a0bc 99ea 60bd
00000060: 8d80 75bd bf48 69bd 77dc babc 42dc 033d
00000070: 4e20 89bd 5a01 c4bc 85a1 c6bc 8f6f 78bd
00000080: 3ba1 393c 2fc5 d03c 8585 bebc 624c 4fbc
00000090: dd5d 80bb 5c00 9d3d 7fc9 debc 20f5 70bd
000000a0: da17 7a3d f122 1fbd 732c a8bd 424b 153c
000000b0: b603 2ebd ad08 e53b 3c31 26bd 5501 443d
000000c0: 00cf 073d 782c 8d3d 3f94 d5bb 2a14 abbc
000000d0: 47ff e6bc 7b4e 3cbd a494 b83d 0347 a33d
000000e0: 11f8 9ebd 27ff 34bc 029a 91bd 8eeb 3aba
000000f0: e6db 4d3c 1ac3 343d a48c a9bc 4ce5 bf3a
00000100: 381d 09bd d4bf d33b 4c9d d43c 9aa6 39bb
00000110: 1783 6fbd 62e2 d43b dfd8 9bbc aad8 86bb
00000120: 3b0e a13c e2ca 863d 5594 b1bd e928 933d
00000130: c3a6 8a3d a120 103d 3eac 253d 562c ea3b
00000140: b1b5 ca3c 22fe 003d 6da6 d4bc 0aca a3bd
00000150: b21e 73bd 683c 8a3d 4a91 543d 79ec 81bd
00000160: 181d 77bd 2b49 39bd ccbf 92bd d3a8 f43c
00000170: d9b0 a0bd f8ef 6ebd 1572 143d 2e13 9dbc
00000180: 41ae 3dbb 8fc1 af3d f168 3c3d a29a 943c
00000190: 5a02 933d 6d32 fd3c 92ad adbd f399 403d
000001a0: 6f01 3bbd f33b 7bbd b7ee 87bd 59ac 9ebd
000001b0: 1bec 4f3c 3dd7 833d 23ba 0a3d bc92 22bd
000001c0: 865f 20bd 9b95 8abc 854d 87bc 2241 ae3d
000001d0: 72fb 9bbd 71f9 e53b 7203 563d a6e6 b7bd
000001e0: ce64 37bd c0ab 5dbd bdc7 853d 279d 65bc
000001f0: e968 bb3c 107f b53d 56cd 993d 9b19 f83c
00000200: 621b cdbc d31d c03d a1f5 d5bb 7432 afbd
00000210: 4bd1 6f3d 01c7 06bd dc8e c03c 1f18 8b3d
00000220: 02a7 9bbd b7a8 6dbd d5ac 5abd e6de 98bd
00000230: cac5 1dbc 3791 a33c e8ad f7bc 00d9 7b3d
00000240: d344 52bc 002d ad3d a1da b63d b58f a23d
00000250: 388e 9cbd 2ed1 6cbc b8b5 9ebd 8a41 aa3d
00000260: 0098 91bd 39b0 a7bc e5a6 85bd 5164 073a
00000270: 86a8 84bd e435 11bd 0fe2 a63d ba1b a2bc
00000280: 7aa8 f83b 48f9 6ebd 7478 66bd 3adb 8cbd
00000290: b018 00bd d810 b5bc 10a9 f7bc c2a0 0c3d
000002a0: bc62 8c3d 4ff2 63bd 9809 15bd 4568 a5bd
000002b0: ccf0 35bd 9c79 a8bd 5c1b 993c 3518 87ba
000002c0: c431 093d 0df2 01bd 9d2d 6f3d 75a8 f0bc
000002d0: fa49 f2bb 0519 26bd 79a5 96bd acf3 35bd
000002e0: 1dc1 1abd 6045 903d 367d e8bc 7da8 213d
000002f0: 2cbc 96bd 4f8a 8dbd 5254 afbd f62f eabb
00000300: c695 8abc b3df 75bb b848 933d 7ca6 333d
00000310: e78c a33d c161 6bbc 9258 993d 8592 933c
00000320: 0f5f 4b3d f8bb 723d 68dd 0bbd d7d7 1cbd
00000330: 9fb7 843d 47f7 a83d 43ee 853d 6e3b 2f3d
00000340: 646d 14bc 18b4 fe3c 476c 033d 7f59 f23b
00000350: 6bcf 1ebd 8293 283d dc1d 49bd d3aa 8dbd
00000360: 95cf 443d 5edc fabc d37e d03c 1e44 02bc
00000370: b85a d73d ab90 b7bc 5e50 36bd 82ef fdbc
00000380: ae5f 9bbd c773 113d e04c 6bbd 5eac 6f3d
00000390: cd33 113d 394b c23c b6b9 9e3d 1eb2 1f3c
000003a0: a2d3 a33d b98a 6e3d d310 a23c 58c6 bb3d
000003b0: cc20 20bd 4238 b43d 2166 733d 469a c53d
000003c0: f354 a4bd ed32 71bd bd41 20bd 1a73 313d
000003d0: 2fa3 a2bc 38f7 a13d fd4b aabd 44a6 8a3d
000003e0: 82fb 8f3c 8113 8bbd 6549 453d b147 25bd
000003f0: e20f 2c3d 46ed 35bd 5b66 02bd 97cd a53d

fc2.bias f4 [84]
-0.046859674 0.036702365 -0.07152146 -0.0387828 0.039979 0.06870231 0.014470394 -0.07730361
0.043547392 -0.04713196 0.10844259 -0.037614617 -0.015846752 -0.0421081 0.018305084 -0.06568982
0.108078815 -0.018327167 0.022634247 0.0043337177 0.015988514 0.019673046 0.00028382693 -0.021191986
0.046418622 0.08302319 0.0410239 0.057018492 -0.012032675 0.056320474 0.05603656 0.027957583
0.07567169 -0.08294477 -0.06828608 0.0991598 0.028711397 -0.0011408094 -0.021675946 -0.08927204
0.05879604 0.02178747 -0.0035709564 0.08531094 -0.0027166356 -0.0385802 -0.017144212 -0.066925675
0.07362626 -0.06963221 -0.02049804 0.022677504 0.10388358 -0.005169631 0.08420663 -0.04321252
-0.012535416 -0.0338856 -0.03608744 0.011638438 -0.07377552 0.014430993 -0.089377835 -0.07517633
-0.0062749507 0.067927085 -0.010330625 -0.019182717 0.038130865 -0.09294708 0.08820053 0.019548979
-0.007312625 0.03647298 0.10395528 0.016308038 -0.093550704 -0.037017565 -0.033505946 0.115332425
0.058614176 0.08662969 -0.022239557 -0.014612106
00000000: eeef 3fbd 3855 163d d879 92bd b7da 1ebd
00000010: 05c1 233d ccb3 8c3d 3b15 6d3c 5b51 9ebd
00000020: c05e 323d 710d 41bd 2617 de3d c911 1abd
00000030: 0cd1 81bc 8b79 2cbd 8bf4 953c 6288 86bd
00000040: 6d58 dd3d db22 96bc 756b b93c dc01 8e3b
00000050: 58fa 823c 5e29 a13c 9bce 9439 d19a adbc
00000060: 7421 3e3d 1008 aa3d ad08 283d 398c 693d
00000070: b224 45bc 4cb0 663d 9886 653d 4d07 e53c
00000080: c2f9 9a3d f3de a9bd 93d9 8bbd 4b14 cb3d
00000090: 2a34 eb3c 3687 95ba c191 b1bc 42d4 b6bd
000000a0: 1ed4 703d a37b b23c b506 6abb 81b7 ae3d
000000b0: 9509 32bb 4606 1ebd 0572 8cbc 5410 89bd
000000c0: 5dc9 963d 559b 8ebd 81eb a7bc 2cc6 b93c
000000d0: eac0 d43d 0266 a9bb 8774 ac3d 9dff 30bd
000000e0: 5861 4dbc a0cb 0abd 6cd0 13bd 26af 3e3c
000000f0: 9f17 97bd f96f 6c3c ba0b b7bd 0cf6 99bd
00000100: 1a9e cdbb 5b1d 8b3d c841 29bc 1325 9dbc
00000110: 1c2f 1c3d 0a5b bebd 7ba2 b43d 2e25 a03c
00000120: bf9e efbb b164 153d 81e6 d43d 6f98 853c
00000130: 8397 bfbd bb9f 17bd 883d 09bd 6833 ec3d
00000140: 6b15 703d e86a b13d bb2f b6bc 9d67 6fbc

fc3.weight f4 [13, 84]
-0.049935877 0.006977026 -0.07805777 0.062256664 -0.09677025 0.10856621 -0.18345639 0.102642134
-0.016674811 0.09434155 0.16953562 -0.08805398 -0.03222967 -0.068100944 0.0048579844 -0.07007213
0.073153056 0.067671075 -0.09494547 -0.15956943 0.107188046 -0.029318701 0.037372526 0.067199975
0.0332473 -0.105957806 -0.20873888 -0.053044464 -0.022385813 -0.02707866 0.048494305 0.07768963
-0.022349326 -0.07961255 0.046509888 -0.0735002 0.08779114 -0.015641337 0.10673425 0.04334181
0.04778076 -0.23457338 -0.21943137 -0.009690381 0.027913777 -0.048150767 0.06295655 -0.14245702
0.061550412 -0.08290221 0.070095584 0.09803027 0.11526279 -0.13490435 0.15879178 -0.009137322
-0.111099325 0.07245669 0.06269718 2.6768944e-06 -0.0040384047 -0.07274677 -0.02452016 0.19524047
0.10367412 -0.010775472 0.032656014 0.026072636 -0.015546131 -0.049282175 0.004651267 0.057836343
-0.008102154 -0.087853745 -0.10180592 0.016776886 0.056437954 -0.101395 0.16127498 -0.119268715
0.023878694 -0.10810517 -0.032470167 -0.07271972 0.0029182206 0.005864411 -0.08004265 -0.18229248
0.021549458 -0.03137487 0.036441512 0.08413095 -0.05554363 -0.06186112 0.04410908 0.09669207
0.0932123 0.06649421 -0.09978607 -0.009066408 0.13772994 0.03454384 0.006526199 0.09288421
-0.02585944 0.05384906 -0.057249226 -0.003584809 -0.1814036 -0.009723403 -0.12937258 0.07598162
-0.044388384 -0.07513776 -0.057265673 -0.088782474 -0.062523775 0.12265937 0.047512133 0.07872732
0.05255828 -0.13569736 -0.083292454 -0.086951435 0.02526418 -0.13394569 -0.103418894 -0.14818476
0.13996617 -0.111239985 0.07785858 0.16428307 0.18456128 -0.09229847 -0.028701704 -0.018508434
0.073468536 0.0627225 0.052004058 0.09537758 0.049307983 0.02688499 -9.150676e-05 -0.15072243
-0.0324316 -0.046731595 -0.0010592446 -0.03495188 0.01414288 0.009102752 0.05108775 0.08156389
0.015819777 -0.03877358 0.08927423 0.07402165 0.06568576 0.00081377046 -0.1134609 0.05006296
-0.15065333 0.13311937 -0.019682333 0.10139798 -0.12805218 0.071763985 0.031123672 -0.05992415
0.060476594 0.040922638 0.07237139 0.14798851 0.032897703 -0.056412864 -0.018892108 -0.1012855
-0.08554326 0.13257384 0.0072803297 -0.009192876 -0.0729528 -0.005520136 -0.07842793 0.018107664
0.1542352 -0.015657235 0.07695334 -0.1592703 0.0609874 -0.06774878 0.122139394 0.027790857
0.020039849 0.06450051 0.00084669323 -0.059813503 -0.039817814 -0.014168439 0.09415128 -0.065409295
0.0021838942 -0.0054621245 0.10546554 -0.0021280965 0.06914684 -0.14568456 0.055807274 0.051554788
-0.02401681 0.0681478 -0.122138366 0.045691635 0.031108279 0.04762718 -0.047482733 -0.12315466
0.08694754 -0.053112738 0.0624432 0.15606256 0.1296695 0.0772759 0.073660985 0.1198724
-0.1358528 -0.113228686 -0.15330903 0.106919825 0.006028924 -0.071743414 0.018159568 -0.027984038
-0.21965317 0.022334794 -0.033696163 0.031888835 0.22315092 0.071454465 -0.061640114 -0.034787167
0.16049841 -0.06548413 0.12947126 -0.10934168 -0.0696531 -0.17503196 -0.026889412 -0.085317254
0.06267807 0.09566748 0.00691287 0.064509645 0.030680927 -0.091506235 0.19114983 -0.031376366
00000000: 9089 4cbd 899f e43b c1dc 9fbd d800 7f3d
00000010: 7b2f c6bd f657 de3d fedb 3bbe 0a36 d23d
00000020: 9d99 88bc 2436 c13d bf9a 2d3e a555 b4bd
00000030: 4203 04bd 8278 8bbd ba2f 9f3b fa81 8fbd
00000040: 45d1 953d 2297 8a3d c572 c2bd 2b66 23be
00000050: 6885 db3d c62d f0bc ef13 193d 24a0 893d
00000060: 522e 083d 6800 d9bd a5bf 55be 2745 59bd
00000070: 7462 b7bc 11d4 ddbc f7a1 463d be1b 9f3d
00000080: ef15 b7bc e80b a3bd 2781 3e3d 4687 96bd
00000090: d7cb b33d 4322 80bc 7d97 da3d 2f87 313d
000000a0: c2b5 433d 0134 70be 9eb2 60be 67c4 1ebc
000000b0: 6fab e43c bd39 45bd 5def 803d 41e0 11be
000000c0: 491c 7c3d a2c8 a9bd 468e 8f3d 18c4 c83d
000000d0: e60e ec3d 5e24 0abe 509a 223e b5b4 15bc
000000e0: 0b88 e3bd 2c64 943d 6167 803d b2a4 3336
000000f0: 9854 84bb 42fc 94bd 81de c8bc 1eed 473e
00000100: 1953 d43d 9b8b 30bc 50c2 053d 4896 d53c
00000110: 33b5 7ebc 1bdc 49bd a869 983b cde5 6c3d
00000120: e6be 04bc aaec b3bd 9f7f d0bd ae6f 893c
00000130: 7c2b 673d 2fa8 cfbd 4525 253e 2843 f4bd
00000140: 409d c33c 3e66 ddbd 70ff 04bd 14ee 94bd
00000150: 9e3f 3f3b 3f2a c03b 67ed a3bd e1aa 3abe
00000160: 7d88 b03c f082 00bd b243 153d d94c ac3d
00000170: b881 63bd 1662 7dbd b9ab 343d 7e06 c63d
00000180: 17e6 be3d 1e2e 883d a45c ccbd 458b 14bc
00000190: 1409 0d3e d77d 0d3d bad9 d53b 143a be3d
000001a0: 2dd7 d3bc d590 5c3d 2a7e 6abd 1def 6abb
000001b0: dec1 39be e84e 1fbc 3f7a 04be 409c 9b3d
000001c0: 98d0 35bd d3e1 99bd 698f 6abd 96d3 b5bd
000001d0: 770c 80bd d634 fb3d 159c 423d ca3b a13d
000001e0: 5a47 573d 40f4 0abe 3c95 aabd 9813 b2bd
000001f0: d3f6 ce3c 0f29 09be 49cd d3bd bfbd 17be
00000200: 4b53 0f3e cad1 e3bd 5274 9f3d d239 283e
00000210: a2fd 3c3e fb06 bdbd d61f ebbc 009f 97bc
00000220: ac76 963d a774 803d 3502 553d 5255 c33d
00000230: 2bf7 493d e93d dc3c 51e7 bfb8 fb56 1abe
00000240: ffd6 04bd a169 3fbd 5ad6 8aba b429 0fbd
00000250: 8ab7 673c b623 153c 6341 513d f80a a73d
00000260: 7a98 813c 0cd1 1ebd 68d5 b63d aa98 973d
00000270: 4186 863d 3653 553a 305e e8bd d10e 4d3d
00000280: de44 1abe 7250 083e d83c a1bc bea9 cf3d
00000290: 1c20 03be fff8 923d 12f7 fe3c 0773 75bd
000002a0: 4eb6 773d 7f9e 273d 7437 943d 4d8a 173e
000002b0: bebf 063d 2d11 67bd 9fc3 9abc c66e cfbd
000002c0: 4e31 afbd 70c1 073e d58f ee3b b79d 16bc
000002d0: 4768 95bd 42e2 b4bb d39e a0bd 8656 943c
000002e0: d5ef 1d3e 9a43 80bc b699 9d3d c117 23be
000002f0: edcd 793d dfbf 8abd 3824 fa3d a7a9 e33c
00000300: 9c2a a43c d818 843d 9ff4 5d3a 01ff 74bd
00000310: 0118 23bd be22 68bc 63d2 c03d 4ff5 85bd
00000320: aa1f 0f3b 9ffb b2bb 51fe d73d 8977 0bbb
00000330: dc9c 8d3d 552e 15be 2b96 643d 1d2b 533d
00000340: e7be c4bc 1391 8b3d ae23 fabd 2727 3b3d
00000350: cad6 fe3c b814 433d 417d 42bd 8338 fcbd
00000360: 8d11 b23d be8c 59bd 71c4 7f3d ddce 1f3e
00000370: 15c8 043e d442 9e3d 92db 963d a97f f53d
00000380: ff1c 0bbe 71e4 e7bd 0bfd 1cbe c8f8 da3d
00000390: 488e c53b 36ee 92bd 60c3 943c c83e e5bc
000003a0: c3ec 60be 75f7 b63c fd04 0abd de9d 023d
000003b0: ad81 643e b856 923d 587a 7cbd fd7c 0ebd
000003c0: b259 243e 8b1c 86bd 1d94 043e 88ee dfbd
000003d0: 49a6 8ebd 943b 33be 2f47 dcbc d0ba aebd
000003e0: 5c5d 803d 50ed c33d 5b85 e23b a21d 843d
000003f0: 9156 fb3c 9f67 bbbd c8bc 433e 8184 00bd

fc3.bias f4 [13]
0.08176399 0.09651166 0.08836584 0.09423259 0.077172235 -0.014647915 -0.034759253 0.008506603
-0.11145367 0.07490619 0.09969008 -0.013718333 0.07203314
00000000: e173 a73d e8a7 c53d 26f9 b43d 04fd c03d
00000010: 7a0c 9e3d cffd 6fbc b85f 0ebd 475f 0b3c
00000020: d241 e4bd 6b68 993d 502a cc3d dcc2 60bc
00000030: 1c86 933d
