Classifier/weights/HASY_weights.pth (torch, 224033 bytes, 10 tensors)

conv1.weight f4 [6, 1, 5, 5]
00000000: 2158 ac3d 3d0d 233d 2a3b 413e df29 c73e
00000010: 7fa3 893e 58e7 013e 051e e53e 3a2a df3e
00000020: 0e78 b43e b572 e93d 2ed2 1e3e 3b82 b33e
00000030: 5c3f 7a3d e0b2 83be 8ada 91be 0e14 713e
00000040: 1af0 32be eba8 58be a1be 13be ca28 bdbe
00000050: dd8f 0ebd 7ae3 b2be 809f e3be 3f83 d9be
00000060: 5697 10be 2301 60be 18dc 98be 5ef8 98bc
00000070: 8204 a13e 5e54 573e 890f 98bc c309 a8be
00000080: 86cc 42be ea0c 1c3e 875a bb3e dbaf c4be
00000090: db9f a9be 006e 143c 6c2d 9f3e ab94 063f
000000a0: de8c 93be e74c 4ebd 1e8d 31bd 4706 b53e
000000b0: 487b 683e bd2b 71be d7f4 eabd 8c6c 8a3e
000000c0: 33c1 043f 3f08 3d3d 3f1a 8f3e f6ef 903e
000000d0: 2d1b c8bb f698 2fbe cfdf 6dbe 14d9 3e3e
000000e0: e7d7 ba3e ac29 ab3d 4e87 bfbe 34f2 83be
000000f0: 8d45 043f ca25 db3d f1bc 69be 1278 ccbe
00000100: b138 93be 7c6a e63e 05ca a93e 9253 35be
00000110: d568 9bbe 4f10 6b3d 6f2c 8b3e 3f45 0c3e
00000120: 8620 6b3e 1779 40bc 8c52 2b3e aab7 64be
00000130: c507 86be 6ae0 efbd 59bb 0e3e 68ad c03d
00000140: bf37 91be f0d1 e2bd a9ff 17be 1efa 173e
00000150: 4de2 48bc 748e 63be e24c 40bd 9ff3 933d
00000160: 349e e13e 908f f53c 38db c13d b9eb 923d
00000170: 1e2f 083f 0197 7a3c c54b 6ebd 2dde 823e
00000180: 72e8 d73d 02db 923e 4f54 72be cf47 ae3d
00000190: 777f aabe 79f5 b4be e5f5 aebe e267 debe
000001a0: d598 f7bd 2621 09bd 582d 99be 6107 cfbe
000001b0: ed53 89be a916 69be fabd 5d3e 6d84 143e
000001c0: 1478 0ebc 218b a53d 71e7 353c 31fc 8e3e
000001d0: f76a 1a3e 8d14 d1b8 98fd d43e 36fa ab3e
000001e0: b504 343b 2a88 ab3e 7a41 883e 98e3 c23e
000001f0: d3e2 893e 8aff 8b3e 7fe9 df3e 73e1 8c3e
00000200: de71 5cbe 0338 b7be dab7 6d3c 8f5d 3a3e
00000210: 1b87 043f 1446 aa3e 54fc 94be 343e 30be
00000220: 9d50 493e 0482 833e 97a7 913e eb5d 673e
00000230: 8bbe febe 1b39 9dbe 36f9 253e 9c96 b93e
00000240: a4d8 a03e 210d d2be ecc1 32be d1dd 84be
00000250: 1803 6abe 806a 8f3c
0.08415247 0.039807547 0.18870226 0.38899133 0.2688255 0.12685907 0.44749466 0.43586904
0.35247844 0.11398832 0.15509865 0.35060295 0.06109558 -0.25722408 -0.28487045 0.23542807
-0.17474404 -0.21158187 -0.14428188 -0.36945182 -0.034805167 -0.34939176 -0.44457626 -0.42482945
-0.1412023 -0.21875434 -0.29855418 -0.018673118 0.31448752 0.21028277 -0.018562095 -0.32819948
-0.19023332 0.15239301 0.36592504 -0.38415417 -0.33129773 0.009059429 0.31089342 0.525706
-0.2881841 -0.05036631 -0.04334747 0.35356352 0.22703278 -0.23551841 -0.11472481 0.2703594
0.518573 0.046150442 0.27949712 0.28308076 -0.006106755 -0.17148194 -0.23229907 0.18637496
0.36492845 0.08357558 -0.37407917 -0.25770724 0.51668626 0.10700567 -0.22825982 -0.39935356
-0.2875419 0.45003116 0.3316194 -0.17707661 -0.30353418 0.0573886 0.27182338 0.1369829
0.22961625 -0.01174762 0.16730708 -0.22335687 -0.26177803 -0.117127255 0.13938655 0.094080746
-0.28362843 -0.11075199 -0.1484362 0.14841506 -0.012260986 -0.2222231 -0.04694832 0.072242014
0.44066012 0.029975682 0.09465641 0.07173867 0.53196895 0.015294791 -0.05817773 0.25560132
0.10542382 0.28682715 -0.23664974 0.0850979 -0.33300373 -0.3534353 -0.34171978 -0.4343863
-0.12089697 -0.03347888 -0.29917407 -0.40435317 -0.26821843 -0.2276255 0.21654502 0.14503641
-0.008695621 0.08083177 0.011102543 0.27926782 0.15079866 -9.9697245e-05 0.41599727 0.33589333
0.0027468626 0.33502322 0.26612455 0.38064265 0.26930866 0.27343398 0.4373283 0.27515754
-0.21527812 -0.3578492 0.014509166 0.18199752 0.51768655 0.3325659 -0.2909876 -0.17211229
0.19659658 0.25685132 0.28448173 0.2259442 -0.49754748 -0.3070763 0.16208348 0.36247718
0.31415284 -0.41025642 -0.17456788 -0.25950482 -0.22852743 0.017506838

conv1.bias f4 [6]
00000000: 17bf 983e a520 00be a3d1 5c3e 2fac b63d
00000010: 599d c73d d9e8 b23e
0.2983329 -0.12512453 0.21564345 0.0891956 0.097468086 0.34943274

conv2.weight f4 [16, 6, 5, 5]
00000000: 8856 88bc 95be 3fbd 4798 98bd 7117 49bd
00000010: 5c49 4abd 031e 1f3d 9c9b dfbd ea08 2cbe
00000020: dda5 75bd fe84 f83c c88f 0c3d c737 0dbe
00000030: 5f9c 14be 274d 0fbd f8a0 31be f495 76bc
00000040: 4a20 07bb 12de 4c3d 8132 3abd 6802 943c
00000050: d369 323d e6d0 ea3d cfc2 d33d 22b4 5a3d
00000060: 5933 173e 8119 e2bc dc06 52bd cd8a 0e3e
00000070: d33e b63c 1caf a4bc 8da5 5abd 60a8 f8bd
00000080: 1652 873d 3bbc d3bd 407a 83bd dfdb 10be
00000090: 9e76 4a3a f42d 613d 5ccf 953c d211 edbd
000000a0: a901 eebd 9cc8 713c 8243 e33c dad7 5c3d
000000b0: bc82 b4bd 3f63 053c dde3 e4bd 7240 43bd
000000c0: ec04 f4bc b772 33bd 4576 f6bc c78e 27bd
000000d0: 1f13 743d 00a1 cc3d 2dc8 35bd b192 c03d
000000e0: b38e 0fbd 92e0 323d 027c be39 8383 943d
000000f0: 42bb 4f3e 6caa 913d 2709 19bd 540f 9a3d
00000100: 36eb 38bd 449e d43d 203a 9d3d 8ab2 8c3d
00000110: c899 c83d 1b59 52bd 9e12 a6bc 5be0 59bd
00000120: 47b0 24bd 6d35 d83c 58f1 9cbd 8e25 8c3d
00000130: 80de 22bd 61c5 b4bd 5204 39bd 3092 babc
00000140: 4dd1 8a3d 97e7 e4bc d354 d1bd 6e98 bcbd
00000150: 32fb 03be 0acc 7ebd 2c43 2abd 32d4 e8bc
00000160: e9c7 9ebb 1973 413d d9a3 b33c e8c1 32bc
00000170: 409e e63d f4a3 043e 5198 e23d b23f bc3c
00000180: 335e 29bd 47b9 eebc 0d73 50bd 59ea 833d
00000190: 1265 e9bc b96d a2bd de16 e9bd 1910 25be
000001a0: a60f 28be 7653 9b3c 2ad7 49bd b24f 99bd
000001b0: 0b5e c1bd 483f 933c c668 a03d 1a94 4f3d
000001c0: 7031 963d ff8e fd3d 1c2b d53d 167c 0a3e
000001d0: 8c4f 1e3e b797 a13d e03e 323e 7452 5a3e
000001e0: 3f68 4f3d e174 933d 32b0 043d 5c43 693d
000001f0: 1316 afbc 1b7c a6bd 5815 c2bd 709d 073c
00000200: 43f4 a93d b56c b1bb d2dc c03c db36 7ebd
00000210: 5860 d03c a8a5 c23d 4d5e 73bc 335b 38bd
00000220: e811 b03c 5bdb e3bd ce40 1a3d cda5 983c
00000230: 1b0a 223e 0a30 0cbd 7882 7bbd 2949 07be
00000240: bc5b 9fbd 8ea8 553e 8c88 c83d 93de 143d
00000250: 5cae e33c 20d0 a13d 7227 aabd 3133 983d
00000260: 5a09 ac3d cba0 62bd 9b8a 5c3c c8cd f3bc
00000270: cec3 c7bd 3e9e 37bd 448a 403e 262e 2b3e
00000280: 4cae 15be 8b9c 85bd f32f 543e 2124 973e
00000290: ea09 303e 461a 0239 33ee 403e 252a 383e
000002a0: bc12 50bd 954b d03c ef75 52bb 5a2d ac3d
000002b0: fe07 9ebb c45d f3bd 6d73 a1bb aece c93c
000002c0: 565b 28bd a7cd c4bc 4720 553a 28c3 f63d
000002d0: 9679 08bd e869 6c3c b628 0f3e e3ea cd3d
000002e0: c3a0 debc 7783 1f3d 82e8 9c3d 5b69 ae3c
000002f0: 9b91 efbd 9cad 35be a156 34bd ad19 1ebd
00000300: c239 42be 189b afbd bd59 d7bd b050 acbd
00000310: 91c1 07be 2ffd 32bd 371a eabc 9fae 0bbe
00000320: 6585 4abd fba2 3f3c b7b7 60bd 2dba a03b
00000330: dfbb 923d ef0b cc3b 9750 123b 88f4 98bd
00000340: 5a74 fdbd 4f3d 8dbb e482 483d 7849 19be
00000350: 0f22 3dbd 64bf 2c3d 83bd dcbb 2bd8 c1bd
00000360: f528 1cbd 3766 993c 446b 08be 0bbc a0bd
00000370: aacd bbbc bc25 24bd 6d42 ffbd 2b07 74bd
00000380: fa69 0e3d ea44 ad3d 1b35 25bd 50a1 853d
00000390: ba33 0d3d ba3c 05bc 6bbe 8cbd d5d3 b5bd
000003a0: ee99 233c 3e6c 2b3e cd74 e63b 6a6a 9cbd
000003b0: 85f8 b53d 4443 f83d 5ad0 09bd 9258 61bd
000003c0: 953c 383d 2c13 8b3d c3de a5bd d373 bebd
000003d0: ef43 263d e9a9 13bd 17f7 d5bd dd9b db3c
000003e0: 007a b03d 5ac3 573d d3eb 4b3c c24e 00be
000003f0: 9e0a 26bd 626b 493d 4d3b b93c 25bf f2bd
-0.016642824 -0.046812613 -0.074509196 -0.04909462 -0.049386367 0.03884698 -0.10918352 -0.16800275
-0.059972633 0.030336853 0.034316808 -0.13790809 -0.14512776 -0.034985688 -0.17346561 -0.0150504
-0.002061861 0.05001647 -0.04545832 0.018067554 0.043557953 0.114656255 0.10339891 0.053394444
0.14765681 -0.027600052 -0.051276073 0.13920136 0.022246754 -0.02010303 -0.053380538 -0.1214149
0.066074535 -0.103386365 -0.06419802 -0.14146374 0.0007723364 0.054975465 0.018287353 -0.115756646
-0.116214104 0.014757302 0.027742151 0.05391679 -0.08813998 0.008141338 -0.11176274 -0.04766888
-0.029787503 -0.043810572 -0.030085692 -0.040907647 0.059588548 0.09991646 -0.044380356 0.09402979
-0.035048198 0.0436712 0.00036332017 0.07251646 0.20286277 0.071125835 -0.037362244 0.07522455
-0.04514619 0.10381749 0.07677102 0.06869991 0.097949564 -0.05135451 -0.02027255 -0.053192478
-0.040207174 0.026392663 -0.0766322 0.068431005 -0.039762974 -0.088267095 -0.045170136 -0.022774786
0.06778202 -0.027942462 -0.10221257 -0.09208761 -0.12888792 -0.062206306 -0.041567966 -0.028421495
-0.0048456085 0.047228906 0.021928715 -0.010910489 0.112606525 0.12953168 0.11064208 0.022979591
-0.0413496 -0.029141081 -0.05089097 0.06441183 -0.028490577 -0.07931084 -0.11381315 -0.16119422
-0.1641222 0.018960696 -0.049277462 -0.07485904 -0.094417654 0.01797451 0.07832484 0.05067835
0.07333648 0.1238079 0.10408613 0.13523898 0.15460032 0.078902654 0.17406797 0.21320516
0.050636526 0.07200027 0.032394595 0.056949005 -0.02137283 -0.0812914 -0.09476727 0.008277282
0.08298542 -0.00541457 0.023542795 -0.062064033 0.025436565 0.09504253 -0.014854026 -0.04500885
0.021492913 -0.11125823 0.03765946 0.018633747 0.15824167 -0.0342255 -0.06140372 -0.13211502
-0.07781169 0.2086508 0.09791669 0.036345076 0.027793102 0.07901025 -0.08308305 0.07431639
0.08400221 -0.055329125 0.0134607805 -0.02976121 -0.09754144 -0.044828646 0.18802744 0.16716823
-0.1461727 -0.06523999 0.20721416 0.29519752 0.17191282 0.00012407554 0.18840866 0.17984827
-0.050799116 0.025426665 -0.003211375 0.084070876 -0.00482273 -0.11883119 -0.00492709 0.024634685
-0.04110273 -0.024023844 0.0008130115 0.12048942 -0.03331908 0.014429547 0.13980374 0.10054567
-0.027176267 0.038943734 0.07661535 0.021290472 -0.11697694 -0.17742008 -0.04402793 -0.038598705
-0.18967345 -0.08574504 -0.10515163 -0.084138274 -0.13257433 -0.043698486 -0.028576953 -0.13640831
-0.04944362 0.011696572 -0.054862704 0.0049050064 0.0716474 0.0062270085 0.0022325867 -0.07468516
-0.12375708 -0.004310287 0.048952952 -0.14969432 -0.04617506 0.04217471 -0.0067364587 -0.09465059
-0.038124997 0.018725498 -0.13322169 -0.07848366 -0.022925217 -0.04007505 -0.124638416 -0.05957715
0.034769036 0.0846041 -0.04033385 0.065249085 0.03447316 -0.008132154 -0.06872257 -0.088782944
0.00998543 0.1674051 0.0070329667 -0.07637484 0.08885292 0.12122205 -0.033645965 -0.055016108
0.04497965 0.06790766 -0.08099129 -0.092994355 0.04059213 -0.03605071 -0.10447519 0.02680772
0.0861702 0.052676536 0.012446362 -0.12530044 -0.04053747 0.049174674 0.022611285 -0.11852864

conv2.bias f4 [16]
00000000: c2cd 68ba ea7a 20bd b390 aa3c 540d f0bc
00000010: c556 103d 20ae 6f3d 1f05 8dbb bc1b d63d
00000020: ada8 2f3d d86b 3ebd 9c6f 51bc c440 77bd
00000030: 7886 6b3d 7455 8f3d 89ff b43d 7a2d e4bb
-0.0008880758 -0.03917972 0.020820951 -0.02930323 0.035239 0.058515668 -0.004303589 0.10454509
0.04288547 -0.046489567 -0.012782957 -0.0603645 0.057501286 0.06998721 0.08837802 -0.006963429

fc1.weight f4 [120, 256]
00000000: 329f a7bd f598 1fbd 1862 fabb 56b5 17bd
00000010: 7fb2 60bd 095b 833d bd8f 043d 2f0a 45bd
00000020: 5f5c 1abd 7b58 933d 9e0b 3cbc c013 d6bc
00000030: 2569 143d 63f7 9e3d 18ef 4d3d 6392 833c
00000040: 32dc 9abc 1372 593d 2390 27bd fec8 f53c
00000050: 97ae 58bd c04d 25bd 47a1 97bc b2ce 0538
00000060: e59d 8ebd b707 45bc 5aae 5abd d79c 1c3c
00000070: 2366 483d 342c 243b 0a1f 03bc de53 4e3b
00000080: aac0 123d f45a 88bd 4ada 13ba a7d8 99bc
00000090: e09c cc3c b2fa 0cbd 8177 55bd 9355 45bd
000000a0: 2e46 11bd e5ee 623b 5704 38bd 9cf0 963d
000000b0: 3825 36bd 2130 133d a89c 843d b150 e5bc
000000c0: d37a 6abd 0f1d d43c 6207 083d 1ac9 a1bc
000000d0: 3624 a3bc 0342 3e3c b0b7 bcbc 25cd cd3c
000000e0: 0c23 13bc e76a 133d 0e23 93bd a935 a3bd
000000f0: 598d 06bd bfb4 7dbd d5f6 953d a8bc b9bd
00000100: cf9d 043c f843 3a3c 3c39 87bc 416a 3e3d
00000110: 2edf 12bd 4c68 583d 299b 06bd 1c0e 1cbd
00000120: 8212 573d 7246 a33c 1868 d2bd 1e7b 473c
00000130: 4e08 74bc 46d6 14bd 5128 013d 2980 85bd
00000140: dfe2 c13c 8400 8c3c 80bb 3e3d 064a 6d3d
00000150: be09 00bd 28a4 e4bc a013 0fbc 1291 5bbd
00000160: 202c 1aba 9e0e 4c3d dd0d 91bc c221 af3c
00000170: ccaa 3d3d 1c4d febc fc4a 9e3d acd8 943d
00000180: d277 e23c ba94 8f3d 15a1 f43c 4b3b 5f3d
00000190: 511d 843d ed8a 11bd f613 4dbd aad8 98bd
000001a0: b342 b1bc ea0a a73c c787 d43c ea82 6bbd
000001b0: ae8f 133d 5c20 32bd 5050 65bc 0a93 a0bd
000001c0: 6760 44bc 63ce 2ebd 2b7f febb 423f 0c3e
000001d0: 34d7 30bd 8b3d cabd dc47 793d 607a 933d
000001e0: ad1d 31bc 5d6c c9bc cfbd 803c 5a91 21bd
000001f0: f40d 6abd ec7d 6fbd 4419 523d 4918 6cbc
00000200: d858 fb3c 4d99 c43c 1d96 40bd 60e6 68bd
00000210: 9fcf b23c 63cf 87bc 55ac 9e3d 0f9d febc
00000220: 2bfd 85bc 5dff ed3c 777f 863c 8c3f 59bc
00000230: a6c3 61bd 8b3d bcbc 1539 8cbd aac3 d13c
00000240: 94e0 aa3d 8f90 7e3d aea2 f53c fd90 82bd
00000250: 7cae 993d c605 e33c bafc 93bb 7c3d 95bd
00000260: 461e 5c3d b2a7 d8bc e700 593d a71e 5abd
00000270: afaa ca3b 265f 0a3a ab88 f03a 057f 36bd
00000280: 2f93 863c 83d3 16bc 22cc 873d d049 463d
00000290: c394 703c 3fbf 733c e5cd 1f3d 518c b13d
000002a0: 034a c93b d9f7 2c3d 2ad8 21bd a566 58bd
000002b0: 2609 debb c41b 183d 9a46 1fbd 0677 7cbd
000002c0: 644c cd3d 0ef7 0e3d d86d 9fbc 0015 b1bc
000002d0: e84f 0e3d b39e 803d f715 b83c 71d6 0cbd
000002e0: dff6 5abc c9ff 7dbd 1a38 1abd 9180 fe3b
000002f0: a6a2 9c3c b686 863b 9c40 5f3c 81ca 563d
00000300: 6ceb c53c b225 5f3d 34e5 403c 84fc 0e3d
00000310: f0ae b23d f367 833c b3f5 633c 3df6 f6bc
00000320: 2d76 4a3b e349 c63c f095 383d 3b3d e9bc
00000330: 9d45 b93c e74e 523d d564 373d 278e 38bd
00000340: 8efc 8f3a 7cea b53c 32f1 d1bd 9b91 bcbd
00000350: 2b7b d13d e06c c23d c766 973c 2f89 28bd
00000360: 9b1c fc3d 9a10 953b 02c3 eb3d f0e0 083d
00000370: bedc c63c 7c39 1f3a 776c 973d 4187 603d
00000380: 7ac9 153a 1b3f 1a3d 5f19 823d 750b 353d
00000390: 2e5b 9dbb 1992 d53c d800 3c3d e3d4 623d
000003a0: 35ad 67bb 9d01 86bd 2aee a1bd 930a 5dbd
000003b0: 13c3 a839 7e0d 603d 0cf3 c13c 4339 3fbc
000003c0: 651e bf3d 81a9 7cbb b13a 55bc 861d c5bd
000003d0: ce04 a4bd 62cb 8e3d e24c 9dbb 4756 17be
000003e0: f02f b8bc 4431 703d 1efe bfbd ae30 ffbd
000003f0: 6d05 f33c 3240 633d 975a 923d b2b3 0a3d
-0.08184661 -0.03896423 -0.007641088 -0.03703817 -0.054857727 0.06413848 0.032363642 -0.048105415
-0.03768575 0.07194611 -0.011477379 -0.026132464 0.036233086 0.07762029 0.050276846 0.016061014
-0.018903825 0.053087305 -0.040908944 0.030003067 -0.052900877 -0.04035735 -0.01850952 3.190217e-05
-0.0696371 -0.012025765 -0.05338893 0.009558878 0.04892553 0.0025050761 -0.008003006 0.0031483094
0.03582827 -0.06657973 -0.00056401326 -0.018780066 0.024977148 -0.03441877 -0.05211592 -0.048177313
-0.03546732 0.0034627256 -0.044926014 0.07370111 -0.04446909 0.03593457 0.06475192 -0.027992578
-0.05724604 0.025892762 0.033210166 -0.019749213 -0.019914728 0.011612418 -0.023036808 0.025122235
-0.008980524 0.035990622 -0.071844205 -0.07969219 -0.032849643 -0.06193995 0.0732247 -0.090691864
0.008094265 0.011368744 -0.016506784 0.04648805 -0.035857372 0.05283384 -0.032862816 -0.038099393
0.052507885 0.019931052 -0.102737606 0.0121753495 -0.014894558 -0.03633716 0.03153259 -0.06518585
0.02366775 0.01709009 0.046565533 0.057931922 -0.03125929 -0.027910307 -0.008732706 -0.053605147
-0.0005881209 0.049818628 -0.017706806 0.021378402 0.046305463 -0.031042628 0.07729146 0.072678894
0.027645025 0.07010789 0.029861966 0.054499906 0.06450904 -0.03553288 -0.050067864 -0.074632004
-0.02163825 0.020390946 0.02594365 -0.057497896 0.036025696 -0.04348789 -0.013996199 -0.078405455
-0.011985875 -0.042677294 -0.0077666244 0.13696006 -0.043173984 -0.0987502 0.060859546 0.072010756
-0.010810298 -0.024587804 0.015715508 -0.03944526 -0.057142213 -0.058469698 0.051293626 -0.014410087
0.030682012 0.02399888 -0.04701816 -0.056860328 0.021827517 -0.016578382 0.077477135 -0.03108075
-0.016356071 0.02905243 0.016418202 -0.01325978 -0.055118226 -0.022978565 -0.06846825 0.025605995
0.08343616 0.06214958 0.029984798 -0.063753106 0.075039834 0.027712714 -0.0045162113 -0.07287118
0.05373981 -0.02644715 0.052979376 -0.05325189 0.006184898 0.00052784604 0.0018351277 -0.04455473
0.016427604 -0.009205702 0.06630732 0.048410237 0.014683905 0.01487714 0.039014716 0.08669341
0.006142856 0.042228553 -0.03951279 -0.052832264 -0.006775993 0.037135854 -0.03888569 -0.061636947
0.10024336 0.03490358 -0.019461557 -0.021616459 0.034744173 0.062802695 0.022471411 -0.034384195
-0.013364523 -0.062011514 -0.03765116 0.007766791 0.019120526 0.0041054143 0.013626244 0.052439217
0.02416011 0.05447931 0.011773396 0.034908786 0.08724773 0.016040778 0.01391356 -0.030146712
0.0030893192 0.024205154 0.045064867 -0.02847158 0.022616202 0.05134478 0.044773895 -0.045057442
0.0010985301 0.022206537 -0.102510825 -0.092074595 0.102285706 0.094934225 0.018481625 -0.041146453
0.123101436 0.004549098 0.11511804 0.033417642 0.02427518 0.00060739345 0.07393735 0.05481649
0.0005713921 0.03765784 0.063524954 0.04420038 -0.004802129 0.026070641 0.045899242 0.055378806
-0.0035351042 -0.065432765 -0.07906754 -0.053965162 0.000321888 0.054700367 0.023675464 -0.011671367
0.09331969 -0.003855318 -0.013014481 -0.09624772 -0.08008729 0.06972386 -0.004800425 -0.14779006
-0.022483796 0.058640733 -0.09374641 -0.12460457 0.029665673 0.055481143 0.07146185 0.033862777

fc1.bias f4 [120]
00000000: 802a 393d f7ba ebbc d946 e5bc e447 2a3c
00000010: 05fd be3b 5ab0 b9bc 3c88 233d 4c8c 4d3d
00000020: faf6 d63c 91cd 893c d628 5d3d edd6 50bd
00000030: 92d8 35bc ed40 33bd a6b3 48bd fcbc f5bc
00000040: ab8b 8dbc 557b 813c 98b7 f0bc 01a0 57bd
00000050: 6e9b 633d f558 fb3c 3ce8 9cbc 52c2 f83c
00000060: 9b5e 3cbd 660f 81bd 1fda 3f3c b14c 55bd
00000070: 8d97 30bd 5543 463d e187 8a3c ac8e 23bd
00000080: 7a4a 5d3d b69d 453c ca0d 4ebd fbea 5abd
00000090: ae44 d1ba 2ec4 17bd 9d4d 18bd 97a8 583d
000000a0: a964 093b f217 7abd 744c 56bd ebb3 13bd
000000b0: cc89 13bd d3aa 073d 69fb 393d 497f afbc
000000c0: 0ce8 6c3d dcd9 753d 176d 04bd 1a90 8cbc
000000d0: 8ae0 923d 7954 4abd 4a8c e93b 9990 6f3d
000000e0: 1030 04bd 3cc8 b8bc c4ad 8ebc 83d9 cebc
000000f0: 5f85 3abc 8b5d 81bc 86cf 263d 36a8 9f3c
00000100: 6af8 5d3d e9ec 6a3b 07c2 13bd 5269 8a3a
00000110: 8790 623d a7c3 c1bc 75c6 b73c 09bf a53d
00000120: 3812 023d 7cc0 c4bc 72b6 3b3d aa0f 573d
00000130: a83c 81bb e105 1b3d f5ab 613d 1e1c 8dbb
00000140: 93a0 1abd 75ee 9d3c afe7 223d c4b0 c63c
00000150: 1b33 8cbc d51a 64bd 0011 2bbd 1538 23bd
00000160: 437c 46bd bb19 3a3d 3013 b93a 72de 6d3c
00000170: 446e 53bc ccf9 fa3c 59c4 a73b d8d3 d1bb
00000180: 1616 923c 0bfd abbc 8e1f 1ebd 7594 0d3d
00000190: 89e2 083d 54b4 ad3c ba58 f03b fa70 64bd
000001a0: 51f9 81bc 8983 053d 304e f6bc 452b 13bd
000001b0: 16ca 37bd e424 593d ad29 f2bc ddce 763d
000001c0: 54fc 46bc 39ca 87bc 8bbb 4d3d 36e7 d93b
000001d0: 8a75 ff3c a5a0 8abc 0969 643d c540 363d
0.045206547 -0.028775675 -0.027987884 0.010393117 0.005828502 -0.022667099 0.039924845 0.050182626
0.026240814 0.016821655 0.053994022 -0.05098622 -0.011098998 -0.04376309 -0.04899945 -0.029997341
-0.017278513 0.01580588 -0.02938442 -0.052642826 0.05556815 0.030682066 -0.019153707 0.030366097
-0.04598866 -0.06301765 0.011709719 -0.05207509 -0.04311328 0.048404057 0.016910495 -0.039930984
0.054026105 0.012061527 -0.05030612 -0.05344675 -0.0015965903 -0.037052326 -0.037183393 0.052895155
0.002096454 -0.061057992 -0.052319005 -0.036060255 -0.036020085 0.033121895 0.04540578 -0.021422999
0.057838485 0.06002222 -0.0323306 -0.017158557 0.07171734 -0.049396966 0.0071273195 0.05848751
-0.0322724 -0.022556417 -0.017416842 -0.025250202 -0.011384337 -0.015791675 0.040725254 0.019489389
0.054191984 0.0035846776 -0.03607371 0.0010559952 0.055313613 -0.023652865 0.022433499 0.08093078
0.031755656 -0.024017565 0.04582829 0.052505173 -0.0039439984 0.037847403 0.05509563 -0.0043063303
-0.03775079 0.019278744 0.039771732 0.02425421 -0.017114213 -0.05568965 -0.04176426 -0.039848406
-0.04845835 0.045434695 0.0014120098 0.014518367 -0.012904707 0.03063669 0.005119842 -0.0064034276
0.017832797 -0.020994684 -0.03860431 0.034565408 0.033419166 0.021204151 0.007334796 -0.055771805
-0.015865954 0.032596145 -0.03006658 -0.035929937 -0.04487046 0.053013697 -0.029560888 0.060255874
-0.012145121 -0.01657592 0.050227683 0.006649877 0.031183977 -0.016922304 0.05576423 0.044495363

fc2.weight f4 [84, 120]
00000000: c1fd 8f3b c410 4ebd 9221 fa3c eee3 873d
00000010: da2a 69bd 7697 023d 61ac 82bc 4003 3e3d
00000020: c76e 0bbd ade3 9ebd 9411 c0bd 9b2e 8cbd
00000030: c950 d53b 9c1f bd3c c746 93bd 6588 e6bc
00000040: c893 6dbd 9c59 953d 5301 1f3d 5740 8c3c
00000050: c772 bfbd cb71 bb3c 5944 bc3d 9df9 cd3c
00000060: 5624 c23c 9b79 323d 7861 78bc 1c0b 7b3d
00000070: d907 34bc 5883 ecbc 0cf1 95bd d3ff 863c
00000080: 15d5 1fbd b9d1 873d 2291 8bbd 3f7c 91bd
00000090: 24c3 c33b 9689 1abd ad69 e13d 8870 ab3d
000000a0: 2461 1fbd 0e89 973d eedb c33d 1441 e0bc
000000b0: 4e47 42bd 65a4 8c3d e109 ba3d 00e8 19bc
000000c0: 89c9 bebc cb78 dbbd 9a0e 21bd 0e9a 18bb
000000d0: 8e18 f3bb 0fed a3bb 03d8 823d 9636 d6bc
000000e0: 7b26 9b3d 3345 d6bb f935 a53d 929a d63c
000000f0: f553 92bd 294d c4bd ac11 3ebd c380 0b3e
00000100: cc90 abbd 15d1 a93d 06a6 9b3d 7e60 bebd
00000110: fd27 38bd fff8 163d e2c9 103b 430d debc
00000120: 5eb5 c83c f794 b3bd 5e73 603d 6d9c 733d
00000130: 4854 063e dc57 84ba ec1a c0bc 04d2 74bc
00000140: 1c6f 6a3c a367 c2bd b230 9dbd dc4c 943d
00000150: 27de b33d 42cc f13c 0a7c 9dbc f923 c6bb
00000160: a63c 7c3c ffa6 3abd b3d7 c9bc bc51 ff3c
00000170: 3463 e9bd 6154 0c3c 393b fcbb fcd3 d83d
00000180: 889f 4d3d cc51 29bd c10b 483c 7f9c b33d
00000190: ca6e 333b d242 e6bd 4fbc 993d 37dc ccbc
000001a0: 0d47 bc3c fd5e 62bd bd17 76bb 657f 0e3c
000001b0: f4e8 403d 5ac5 46bb f6ce 5f3d f609 6ebc
000001c0: 98f9 ab3d a52f 793d 626e a8bd 468e 3abd
000001d0: a80e d7bd 014c ab3d 509d ab3d 3e6c 6a3d
000001e0: 1993 bd3d 084e 413d 8fbc 8eba f8fc 12be
000001f0: b094 d6bc 4910 813d acc9 653d 4e88 babd
00000200: f792 933d ccdd b13d 58f2 59bd 787e 893d
00000210: 2137 013e 3c68 87bc e30b 153d 01ae a63d
00000220: 8273 9abd bcb7 a93d 3ec7 99bd 6361 953d
00000230: d31f d83d 1767 0cbd e844 2f3d 49ec 133d
00000240: ca37 3f3d 066a 8b3d cd03 b7bc ff8b 403d
00000250: 0e2e 57ba 38b2 213d 2a10 ec3d 5264 aa3c
00000260: 0cde 82b6 8c7a 2e3d 300d b33d 3a8c c43c
00000270: 5558 353d 55e6 52bc 898d 0f3d 3d1b 513d
00000280: 29a8 e5bb d0d8 923d b45b 2d3d ae76 c3bd
00000290: fa92 cb3c e9e2 c3bd 8be7 82bd 06b0 e0bd
000002a0: bdc7 bcbd 812c ccbd 4042 99bd c312 01bd
000002b0: ae6a 0abd 4dc2 2c39 168c 863d 3501 1abd
000002c0: b196 8b3d 0c8e 51bd feb4 aebc d07d e3bc
000002d0: 17e3 bbbd 14fa 8bbd fafb e63c 0878 02bd
000002e0: 1b84 59bc 6b86 5dbd da9e 963d 92ea 36bc
000002f0: dad9 fa3d 4f18 6a3d 3545 403d 3bbc 16bb
00000300: a127 ffbb 07cf 2ebd cc07 853d 9bc8 95bd
00000310: 90e3 b7bd af13 d73c 8b72 ca3b f0a1 ccbd
00000320: 9212 4e3d d98b eebd 3d72 74bd 4eef 89bd
00000330: 9415 2dbd 0ced 22bd 0cbb 51bd 0364 a4bd
00000340: 0eb9 9fbd b989 4ebd 182c 323d 2439 4fbd
00000350: 9931 ae3d 13f2 b0bd e3ac 003d 3585 d1bd
00000360: 538e 943d 6f7e 17bd e88d 773d d750 4fbd
00000370: ee99 323c 148f 0f3e 3057 6cbd b68f bd3c
00000380: ca01 61bd 725b 13bc ecd0 0abd bf41 8fbd
00000390: 8809 54bd 5874 a53d 5ec0 463d b9ab 273e
000003a0: 1600 063d e713 9c3d 9f09 a83c 0036 d736
000003b0: bb07 2fbd 7efa 613c 32dc 823c 945a e5bd
000003c0: 439c ef39 f0da 21be d549 1cbe 981a fc3d
000003d0: 2542 9c3d 7b33 ec3d 7ef0 a83c 8074 963d
000003e0: 463f 873d 8734 063d 294d 34bd b89b ee3c
000003f0: 8cca de3d e32f bd3d 73c3 cd3d b6f7 ad3d
0.0043942635 -0.050308958 0.030533586 0.06635271 -0.056925632 0.031882726 -0.015951337 0.04638982
-0.034041192 -0.077582695 -0.09378353 -0.06844827 0.0065098745 0.023086362 -0.07191234 -0.02814121
-0.058002263 0.07292482 0.038819622 0.017120523 -0.09348064 0.02288141 0.09192724 0.025143439
0.023698967 0.043573003 -0.015159957 0.06128989 -0.010988199 -0.028871223 -0.07321367 0.016479408
-0.03902157 0.06631798 -0.06814791 -0.07103776 0.0059741903 -0.03772887 0.11006484 0.08371073
-0.038911 0.07399188 0.09563433 -0.027374782 -0.047431283 0.06867293 0.090839155 -0.009393692
-0.023289459 -0.10716399 -0.039320566 -0.0023285183 -0.0074186986 -0.005002625 0.06388857 -0.026149075
0.07575699 -0.006539011 0.08066935 0.026196752 -0.0714492 -0.0958503 -0.046403572 0.13623337
-0.08377227 0.08291832 0.07600026 -0.09295748 -0.04496001 0.036858555 0.0022092988 -0.027105933
0.024500545 -0.08768647 0.054797523 0.05947535 0.13118088 -0.0010096985 -0.023450337 -0.01494265
0.014308717 -0.094924234 -0.076753035 0.07241222 0.087826066 0.029516343 -0.019224185 -0.0060467687
0.015395319 -0.045569416 -0.024638986 0.031166904 -0.113958746 0.008565039 -0.0076974896 0.10587308
0.05020097 -0.041337773 0.012209834 0.08770084 0.0027379268 -0.11243214 0.0750662 -0.02500735
0.022983098 -0.05526637 -0.003755077 0.008697365 0.04709716 -0.0030330033 0.054640733 -0.014528742
0.083972156 0.060836453 -0.08224179 -0.04554584 -0.10500842 0.08364106 0.08379614 0.057232134
0.09256572 0.047193557 -0.0010889935 -0.14354312 -0.026193947 0.06301934 0.056100532 -0.09108029
0.07205766 0.086848825 -0.053209633 0.06713575 0.12618686 -0.016529195 0.03638829 0.08138657
-0.075415626 0.08286998 -0.075087056 0.07293966 0.10552945 -0.034278 0.042790323 0.03611401
0.046684064 0.06807332 -0.02234068 0.04700851 -0.0008208462 0.039476603 0.115265206 0.02079979
-3.9001516e-06 0.04259734 0.0874275 0.023992646 0.044273693 -0.012872298 0.035047088 0.051051367
-0.0070085716 0.0717026 0.042323783 -0.09544121 0.024850357 -0.09564764 -0.063918196 -0.10971074
-0.092177846 -0.09969426 -0.07483339 -0.031512033 -0.033793144 0.00016475581 0.06569688 -0.037598807
0.068158515 -0.051160857 -0.021326538 -0.027769953 -0.09174173 -0.06834808 0.028196324 -0.031852752
-0.013276125 -0.05408327 0.07354517 -0.011164324 0.12248583 0.05715209 0.046941 -0.0023000378
-0.0077867066 -0.042677905 0.06495628 -0.07313653 -0.08978951 0.026254503 0.0061782054 -0.099918246
0.05031068 -0.116477676 -0.05967926 -0.06735097 -0.042256907 -0.039776847 -0.051203772 -0.08026888
-0.07798968 -0.05042431 0.043499082 -0.050591603 0.08505554 -0.08639922 0.031414878 -0.10230485
0.07253709 -0.03698581 0.060438067 -0.050614204 0.0109009575 0.14019424 -0.057700336 0.023139816
-0.054933347 -0.00899397 -0.03389065 -0.06994962 -0.051766902 0.080788314 0.0485233 0.163741
0.032714926 0.076209836 0.0205124 6.4137857e-06 -0.04273198 0.013792632 0.015974138 -0.11198917
0.00045702056 -0.15806174 -0.1526254 0.1230976 0.076298036 0.115332566 0.020622488 0.07346439
0.06603865 0.032764938 -0.0440189 0.029126987 0.108784765 0.09237649 0.100470446 0.08494513

fc2.bias f4 [84]
00000000: 93ba 993b eb46 3cbd f041 8e3c b053 a9bc
00000010: 3769 343d a2b7 b5bd 9c76 6c3d 7339 a5bd
00000020: fb4d b93c 5bd3 a1bd 9a73 413d 1bdd 3dbd
00000030: 2dc8 9eba c217 71bd 6809 8b3c b42c 73bd
00000040: d0cc a0bd 6a61 91bd 8a22 ac3d 3d37 15bd
00000050: 836f 77bd 0624 253c d533 27bd 7492 a33d
00000060: d728 873d 31b1 ecbc 670e c73d cd03 54bd
00000070: 05c4 96bd 5e9a c2bd 085a 4fbc 4325 52bd
00000080: d425 b6bd 5cc5 cf3c 17c2 283d a703 fe39
00000090: 470d 13bd 9219 3abd 19b9 923c e30d ed3d
000000a0: 3bd4 3f3d 7631 6e3d 2436 63bd 620c c2bc
000000b0: e432 4cbc b96b e13b 10cd ca3d fb3c cc3c
000000c0: 1e39 32bd 7ddc 863c 4757 aabd 72e7 b2bd
000000d0: 41f1 953c ae67 e03d ff4f 8b3d 876b e83d
000000e0: 36a6 523d d054 8a3d 89e5 853d f552 803d
000000f0: d116 8dbd 2201 023e 77ce 61bc ee0f a4bd
00000100: e6b6 863c 5c74 b83d c478 963d 326b 25bd
00000110: 6d4a 8abd 27c3 05bd 7e21 ae3d 079c 99bd
00000120: b1ca 4abd f291 4abd 9cb3 74bd 7093 d5bc
00000130: 9090 2d3c daaa 883c 8130 b3bc 6230 833d
00000140: ea60 933d 50fa ca3c 843f 143e af24 6e3d
0.004691431 -0.04596607 0.017365426 -0.020669788 0.044045653 -0.08872916 0.057730302 -0.08067598
0.022620192 -0.07901641 0.047229387 -0.04635344 -0.00121141 -0.058860548 0.016972259 -0.059368804
-0.07851565 -0.070986584 0.08405025 -0.036429632 -0.06040908 0.010079389 -0.040820915 0.07986918
0.065995865 -0.028893085 0.09719544 -0.051761437 -0.073616065 -0.095020995 -0.0126557425 -0.051305067
-0.08893934 0.025362663 0.041200723 0.00048449376 -0.035901334 -0.045434542 0.017910527 0.11574914
0.046833258 0.05815264 -0.055471554 -0.023687545 -0.012463305 0.0068792966 0.09902394 0.024931422
-0.043511502 0.016462559 -0.08317428 -0.08735551 0.018303515 0.10957275 0.068023674 0.11348634
0.051428042 0.06754458 0.06537921 0.06265823 -0.068891175 0.12695745 -0.013782135 -0.08010851
0.016444635 0.09006569 0.07347253 -0.040385433 -0.06752477 -0.032656815 0.08502482 -0.07500463
-0.049509708 -0.04945559 -0.0597416 -0.02607128 0.010593548 0.01668303 -0.021873714 0.06405713
0.07196219 0.024777561 0.14477354 0.058140453

fc3.weight f4 [10, 84]
00000000: 2c73 e43d c7ce 063e 756c c53d 493d 143c
00000010: b914 b1bd d58b 81bc dde4 6f3e 4f7b e23b
00000020: 23fc ffbc 7dde 263d b0df 4d3e e8f3 a3bd
00000030: d3a0 36bd d8bc bebd cc10 bbbd 0422 c43c
00000040: 4e0f 2fbd c8cf c2bd b096 cd3c 8921 9d3e
00000050: 6dea f2bd 1084 8f3e 9a78 263e 0b60 c3bc
00000060: 842d 14be 22b9 73bd 3b6b 813e 2cd9 f23c
00000070: e941 eabd 23f2 1abd 5323 493d 0cd5 aabc
00000080: e681 5dbd faa4 fbbd 0023 b73d 19fb b53c
00000090: 2d5c f33d 8984 88bc 11fd 5abe 5c64 14be
000000a0: 5b18 033e 5c93 a93d de61 353d 41bd cbbd
000000b0: 66b3 1bbe 62d5 abbd 23d3 883d 03c1 1bbe
000000c0: efd6 0ebd 5691 b7bd 62f1 c3bc 73bc a5bd
000000d0: 27f1 0cbe b3ca 5dbe 5dcc c93c 36d1 4f3c
000000e0: 9160 6c3e 540a 293e 39b0 49bd 0553 31be
000000f0: 2bcb ce3d 7c2a 2bbe f068 163e 6f3f 17be
00000100: 2ad7 063e 67df 8e3e caf6 643d b0c9 093e
00000110: 16c0 dbbd 864d 2cbe cfd1 0abe 2ed3 2f3c
00000120: ee3e a9bc 8fa9 87bd 03ea 13bd 9be7 9c3c
00000130: a828 97bc 98fb ab3d c973 d93d a98d 093e
00000140: 7a89 dabd 4900 b1bd a595 30be 1365 06be
00000150: 602c 3fbc cded 74be b81e 4dbe 0f08 ccba
00000160: fe8b 073e 2c43 8cbd dda5 4a3c db18 ce3d
00000170: af30 ff3d 1ea0 fcbc 9b12 c43c a310 063d
00000180: 7673 efbd 7d84 3c3c 0055 873d 4fd4 a23d
00000190: d891 00bd f9f4 acbd 2957 68be 5459 20be
000001a0: b5b2 443d 616a 00be 1a5a 7e3d 56b5 f03d
000001b0: 2415 c33e 37d9 fcbc f61f c2bd 21f9 4b3d
000001c0: 3792 ce3d 6a92 2ebd c10a dbbd 6649 e2bd
000001d0: 1d3d 95bd 1fc0 92bd 9ed8 ae3c 2a33 0ebe
000001e0: 7ee0 3bbc 5771 9fbd 38e3 8dbe d4ef 1d3d
000001f0: 414b d7bd ac63 8ebd 18ef 823d db27 073d
00000200: c001 0cbd 072f adbe a3f5 133b c541 833d
00000210: 56f2 55bd 8deb 483e 9d7e c8bd 9cca c63d
00000220: 06d7 273d 001d bb3e bcb9 033e 2fe9 a43e
00000230: d6bb 6ebe f757 8b3e aaec 65bd 7e0a 2abd
00000240: d75c df3d 1886 563e ff9c a03d 31db fc3c
00000250: dffd 2fbe b7ce 65be 45ee fb3c 1ed6 063e
00000260: fd35 a5bc 98cd 9d3d e143 a23d b58e f93b
00000270: e5f8 3ebd 7ff2 a43e 26a7 053e 20a6 da3d
00000280: 8597 4abd 7966 9ebe 6cac 3fbe ed92 3fbd
00000290: 8715 41be 1403 c83d 0ebc 8f3e f638 6ebc
000002a0: fa99 f6bd 161b 5ebd 7483 35bc 829f e0bd
000002b0: e706 48be b2a0 1bbe fa1c 4ebc 5596 e9bd
000002c0: 36bb ba3e 564d 88bd d73b 1c3d de35 e1bd
000002d0: 3793 e2bd 440b d4bc 7e03 b33d d3b3 ca3d
000002e0: 38c8 193e f14e 84bd cc9f 073e 5a4c 483e
000002f0: 0cee b7bd d84e 273d d91a 90bd b3f8 5bbe
00000300: a504 b83d 95b0 dcbd b548 5a3c 05fb 84bd
00000310: 04e8 8d3d 4926 c7bd fb38 94bd 808e 0ebe
00000320: 2793 bfba ca43 123d 9baf 633c c30b 2fbd
00000330: b4de c1bd a904 653e a7f8 263e ef47 ab3d
00000340: 6afc c43b 5677 8fbe 8a86 d7bd 4696 703e
00000350: d61a abbe 115e 843e 01f2 56be bb3a c1bd
00000360: 3f57 2dbd a543 403e 4ed8 08bd 682b 163c
00000370: 60cb c23d c90b 16be 2927 3e3e 3a46 0bbc
00000380: 985a 41bd aa09 bf3d 49b9 9bbd 183f 813d
00000390: aebd b2bd 375a 6cbe dae3 a23d 06a4 92bc
000003a0: 64a7 83bd 0ff3 0cbe ea8e 02bd 4803 943b
000003b0: 55a5 ea3b 526a 96be 4389 503d 0722 033e
000003c0: 7072 42bd 0856 b93d c98f d3bd b33b 273d
000003d0: 91db 893d e0a9 7bbe 6b4a f13d 7d61 a43c
000003e0: c5d9 4c3e 0e73 d03a 2832 813e e531 363e
000003f0: d84e 3cbc 3909 a1bd cc4a 853d 4eeb 133d
0.1115478 0.13164817 0.09639827 0.009047815 -0.08646531 -0.015813747 0.23427148 0.006911672
-0.031248158 0.040739525 0.20104861 -0.08005506 -0.044586968 -0.09313363 -0.09134063 0.023942001
-0.042739205 -0.095122874 0.025096267 0.30689648 -0.118611194 0.28030443 0.16256943 -0.023849508
-0.14470488 -0.05950273 0.25277123 0.029644571 -0.114383526 -0.037828576 0.049105953 -0.020853542
-0.05407896 -0.12287326 0.089422226 0.02221446 0.118828155 -0.01666476 -0.213856 -0.14491409
0.1280226 0.0828006 0.044282787 -0.09948207 -0.15205154 -0.08390309 0.06680896 -0.15210347
-0.034872945 -0.089632675 -0.023918811 -0.080925845 -0.13763867 -0.21659355 0.02463358 0.012684157
0.23083712 0.16507846 -0.049240325 -0.17316826 0.10097345 -0.16715425 0.14688468 -0.14770292
0.13168016 0.27904817 0.05589942 0.13455844 -0.10729997 -0.16826448 -0.13556598 0.0107315015
-0.02065989 -0.066241376 -0.036111843 0.019153407 -0.018452004 0.08397597 0.106177874 0.13432945
-0.10670753 -0.086426325 -0.17244585 -0.13124494 -0.011668295 -0.23918839 -0.2003125 -0.0015566366
0.13236997 -0.068487495 0.012368646 0.100633346 0.124604575 -0.030838069 0.023934653 0.03273071
-0.11691944 0.011506197 0.06608009 0.07950651 -0.031389087 -0.08445162 -0.22689499 -0.15659076
0.04802199 -0.1254058 0.062097646 0.11753337 0.38102067 -0.030865295 -0.09478752 0.049798135
0.10086482 -0.0426201 -0.106954105 -0.11049156 -0.07287047 -0.071655504 0.021343525 -0.13886705
-0.011467097 -0.0778529 -0.27712417 0.038558796 -0.105124004 -0.06952605 0.0639326 0.032996994
-0.034181356 -0.33824942 0.002257683 0.06409029 -0.052233063 0.19621105 -0.097897746 0.097066134
0.040976547 0.36545563 0.12863821 0.32209155 -0.23313841 0.2721555 -0.056133904 -0.041513912
0.1090638 0.2094959 0.07842445 0.030866237 -0.17186688 -0.22442137 0.030753264 0.13167617
-0.020167345 0.077052295 0.07923103 0.007615889 -0.046624083 0.3221626 0.13052043 0.10676217
-0.049460907 -0.30937555 -0.18718117 -0.04677098 -0.18855868 0.09766212 0.28073162 -0.014539948
-0.120410874 -0.05422505 -0.011078704 -0.10967924 -0.19533883 -0.15198019 -0.012580151 -0.11405627
0.36470956 -0.06655376 0.038143005 -0.109966025 -0.11063235 -0.025884278 0.087409005 0.0989758
0.15017784 -0.064603694 0.13244551 0.19560376 -0.08980951 0.040846676 -0.07036371 -0.2148159
0.08985261 -0.10775868 0.013322999 -0.06493191 0.06929019 -0.09724099 -0.07237431 -0.13921547
-0.0014615998 0.03570918 0.013896848 -0.042735826 -0.094663054 0.22365059 0.16305791 0.083633296
0.0060115354 -0.28020734 -0.10523708 0.23494825 -0.33418912 0.25853017 -0.20990755 -0.0943503
-0.042319532 0.18775804 -0.03340941 0.009165622 0.09511447 -0.14652933 0.18569626 -0.00850063
-0.047205538 0.09328015 -0.076037 0.06310862 -0.08727585 -0.23081289 0.079536155 -0.017900478
-0.064284116 -0.13764594 -0.031874575 0.0045169927 0.0071608224 -0.2937799 0.050912153 0.12805949
-0.047472417 0.09049612 -0.10330159 0.040828418 0.06731332 -0.24576521 0.11781772 0.020066017
0.20004947 0.001590343 0.2523358 0.17792471 -0.011493407 -0.07863087 0.06508407 0.036113076

fc3.bias f4 [10]
00000000: db84 36be 73f7 f53c cc3b 0cbd 9b7f 2d3d
00000010: ee8a 9b3c f5ed 963d d077 9f3d 4d5d a2bd
00000020: ff23 92bd b16f 2e3c
-0.17824118 0.03002522 -0.034236714 0.042358022 0.018987145 0.073696055 0.07786524 -0.07927952
-0.07135772 0.0106467465
