Classifier/weights/HASY_weights.pth (torch, 186657 bytes, 10 tensors)

conv1.weight f4 [6, 1, 5, 5]
00000000: 897d 303e 9c66 143e 9392 973e 97c4 f83e
00000010: 9b39 b43e 5a7b 643e 7275 0b3f d9a1 063f
00000020: bc9d da3e 5dd2 003e 8cce 553e cdf0 d13e
00000030: 63d4 de3d 1a53 88be 8c81 c4be 62b9 6d3e
00000040: 1993 51be 1665 98be 6af8 9cbe d67c 0cbf
00000050: 7429 32bd e7d9 e5be 33cc 1bbf 6359 18bf
00000060: 5d12 81be 824b d8be 76f1 d1be 6713 083d
00000070: f562 cd3e e746 a13e 808b 76be 13a4 eebe
00000080: 8763 fcbd 858d 8d3e b4a7 fb3e 71b1 1bbf
00000090: e76b febe b0d8 183d 1a3c ce3e 033a 1c3f
000000a0: ca25 fbbe 04d9 6fbe 1155 74bd fc3b cf3e
000000b0: 66b1 953e cd04 d2be d883 98be 277a 573e
000000c0: fae0 073f 9e4f d13d 2185 ca3e 7364 b63e
000000d0: 31e2 1d3d 964a 36be 7c48 8cbe 35b5 9f3e
000000e0: 74e1 e93e ab38 0c3e 4db2 c2be bf16 99be
000000f0: 87d7 233f 3181 633e 03e4 11be 2c1e c1be
00000100: 64c9 a2be 78c0 013f 7796 b83e 5f29 38be
00000110: 835d b6be 35b2 99bb 40d9 b33e d5f3 253e
00000120: 10ac 583e 84ef 28bd 08ad fa3d 5cbc 6cbe
00000130: e3b0 79be 5dc3 b3bd e2e3 273e db3c 003e
00000140: 2b76 8fbe 584e a6bd 5510 d4bd ce73 3c3e
00000150: fa40 263d b49b 58be 2658 57bb 0bf9 0b3e
00000160: 4cf4 ff3e ed3f dc3d 1775 e53d fa38 f63d
00000170: 1871 173f 3a9f b03d 2f8d 263c daf3 923e
00000180: e366 1d3e b8e2 b53e c7f0 23be 8e9b 1d3e
00000190: 3d53 fabe 1a97 05bf 1e23 f8be dd56 0bbf
000001a0: a17d 55be fc41 adbd b9b6 c6be d4f1 00bf
000001b0: d6b1 bebe 03fe aebe 5185 873e 8bc4 483e
000001c0: 6fee 3f3d 080b db3d a394 2d3c 06d7 b13e
000001d0: 638d 683e 68f3 bf3d ce1f f93e 84c6 c43e
000001e0: 89ed 6d3d fcfc cd3e f6ac b43e b9f1 e53e
000001f0: b8fc 9e3e 1fa0 833e c85e e13e 3745 893e
00000200: 3dbc 4bbe 7289 9bbe d191 eebc eb2e 4f3e
00000210: 9319 0a3f 4b66 be3e 9b0b 5cbe 80b6 96be
00000220: 7994 3c3e 7e52 8a3e ca6c 9b3e 76a8 893e
00000230: abcf 40bf 9f23 e4be ef1f c13d 068b a63e
00000240: 85b8 9b3e c607 2ebf 6131 cdbe 5ae7 cfbe
00000250: d11f a4be 4fcd 45bd
0.17235388 0.14492267 0.29604015 0.48587486 0.352002 0.2231268 0.5447608 0.5259071
0.42698467 0.12580247 0.20879573 0.4100403 0.10880353 -0.266259 -0.38380086 0.23215249
-0.2046627 -0.29764622 -0.30658275 -0.54877985 -0.043496564 -0.4489281 -0.6085846 -0.59511393
-0.25209323 -0.42245108 -0.41004533 0.03322163 0.4011456 0.31499407 -0.24076653 -0.46609554
-0.12323671 0.27647033 0.49151385 -0.6081763 -0.49691698 0.037316024 0.4028023 0.6102602
-0.49052268 -0.23422629 -0.05965144 0.40475452 0.29236907 -0.41019288 -0.2978809 0.21042691
0.5307766 0.10220264 0.39554694 0.35623512 0.03854579 -0.1780189 -0.2739905 0.31192937
0.4567982 0.13693492 -0.38026658 -0.29900166 0.64000744 0.22217251 -0.14247136 -0.37718332
-0.31794274 0.5068431 0.36052296 -0.17984532 -0.3561822 -0.0046904334 0.35126686 0.16206296
0.21159387 -0.041244045 0.12240034 -0.23118728 -0.24383883 -0.08777497 0.16395524 0.12523215
-0.28019843 -0.08120412 -0.103546776 0.18403551 0.04058931 -0.21153146 -0.0032858937 0.13669221
0.4999107 0.107543804 0.11203974 0.12022586 0.5915694 0.0862412 0.010165497 0.2870167
0.1537128 0.35524535 -0.16009818 0.1539137 -0.4889163 -0.5218369 -0.48464292 -0.5442942
-0.20848705 -0.08459851 -0.3881128 -0.50369 -0.37245053 -0.3417817 0.264689 0.19606225
0.046858247 0.106954634 0.01059452 0.34734362 0.22710185 0.09372598 0.48657078 0.38432705
0.05808786 0.40232074 0.3528821 0.44910982 0.31052184 0.257081 0.44017625 0.2681062
-0.19896026 -0.303783 -0.029122265 0.20232742 0.53945273 0.37187418 -0.21488802 -0.2943611
0.18416013 0.27016062 0.30356437 0.26886338 -0.75316876 -0.44558427 0.09429919 0.3252794
0.30414215 -0.6798061 -0.40076736 -0.40606195 -0.32055524 -0.0482915

conv1.bias f4 [6]
00000000: 0cdb b33e 2901 9dbd 747d 683e 2fa8 da3d
00000010: 4829 3e3e 8c0b c73e
0.35128057 -0.07666237 0.22704107 0.1067661 0.18570435 0.38875997

conv2.weight f4 [16, 6, 5, 5]
00000000: 7740 8e3d b74c 073d 25ea 02bd fa36 48bd
00000010: ee82 47bd af78 713d 6b79 cdbd 0a3b 18be
00000020: 640f c4bc 960b a43d beed 1a3a 5c42 21be
00000030: fd13 24be 3412 41bd ad37 33be 4b71 5b3c
00000040: 63d1 023c 6bad 283d ba97 5abd cc31 253d
00000050: 96e4 a73d fb4d 163e f1ca 143e 25c2 d93d
00000060: 52fe 623e 0036 13bd 98de eebc c67e 333e
00000070: 5077 793d 8a46 08bd 1e60 3dbd 66f1 cbbd
00000080: b0cd bd3d 0805 b2bd 916d b0bd 0e74 12be
00000090: abf3 423c 935c 803d 6340 a73c c3db 09be
000000a0: 5b9f 07be 0591 e53c 67de 273d 22c6 543d
000000b0: ca34 ddbd 68bc d4bb 404e b3bd 03cd 9fbc
000000c0: 743a 2fbd df58 99bd 702d 16bd ac50 36bd
000000d0: f3f7 1d3d 1216 bb3c 9e2e dcbd f535 943d
000000e0: c8ea 2bbd 907e 6c3c 7abb 8fbd 1426 94bb
000000f0: 9aab 4c3e 814c 923d 8af6 58bd 6765 003d
00000100: d0e6 debd 1989 0c3e 71ea a13d 240f 7d3d
00000110: 4221 8a3d c3b2 d0bd 1522 cf3c eba8 69bd
00000120: c2ff 80bd 32c6 ef3a 4f41 d5bd e904 e53c
00000130: 1c5c 74bd 77ee cfbd a8e5 16bd 98f1 8fbc
00000140: 4f11 3d3d 5398 03bd c454 e0bd 6361 cbbd
00000150: a4fd 0cbe 3516 39bd e61e 05bd decc d1bc
00000160: aab8 04bb 727b 4e3d c998 123c 7fa6 7bbc
00000170: 0c76 ef3d 9622 0f3e 1897 fb3d 98e9 fdbb
00000180: a6b0 64bd 8e82 19bd 6a0e 79bd 45a1 143d
00000190: 1acd 1fbd e7f6 9dbd f35a cbbd 1d1f 16be
000001a0: 2f46 23be 04c2 6b3d a4a2 13bc 7029 42bd
000001b0: a97a bcbd ddee 163a 3165 353e 896a 073e
000001c0: 267e 113e b486 383e 6c43 1a3e 1869 303e
000001d0: 84af 433e 1c9f 023e ed61 643e 4fbb 7a3e
000001e0: 1f80 963c 2aef 593d bfd6 093d 4af0 563d
000001f0: 2875 0ebd a21a 87bc f24f 0bbd 4eb2 853d
00000200: d5c2 153e 9134 8d3d 984a 3e3d 9939 1abd
00000210: 27b5 1a3d f7b3 093e 710a 583d 2586 a3bd
00000220: 455b 2e3c e5bb efbd da28 053d e62e da3c
00000230: 4159 273e d18e 38bc 22c7 16bd 48e2 f8bd
00000240: e8a2 72bd b0cc 613e 81ac e63d 7ec0 bc3d
00000250: 3c68 6b3d bb84 dd3d beb0 02bd dcf6 ed3d
00000260: 6026 cd3d 1aff 05bd d696 e73d 9ea0 253c
00000270: 82f9 c8bd 365c c3bc 5bbb 903e f811 a93e
00000280: 0727 efbd 737d 22bd 66f0 a03e 9ca9 e83e
00000290: 4731 983e 9119 8d3c 192c 873e 1a00 9b3e
000002a0: d910 453d f9db 1f3d e660 4a3d f66d 2c3e
000002b0: d6e1 613d ae8d b4bd 0651 19bb 3469 5f3b
000002c0: ba4e 49bd adc5 4bbc cc2e d33c b82f ff3d
000002d0: da09 3bbd a564 053d 767c 1c3e f8f6 d63d
000002e0: 10b5 04bd 89b5 ef3c 5d18 ce3d d650 5e3c
000002f0: 8d35 14be 0572 24be 57e0 5ebd 8bf7 05bd
00000300: d136 66be 2cdd d6bd f2ab 56bd d214 fabd
00000310: 2310 0ebe d1db 54bd b24a b4bc 7aab cebd
00000320: 56b3 c9bc 0e58 183d 952a 0fbd ee83 063c
00000330: 70e2 cd3d 7eab 023d a9dc 6f3c fca7 8cbd
00000340: 388a d6bd f613 673d d109 af3d d36f 2bbe
00000350: b3c9 0abd 36dc c83d d237 5a3d fd97 b4bd
00000360: b9e6 41bd a676 6b3d ac28 a4bd c308 b0bd
00000370: 888c 52bc f254 f4bc 4f45 e2bd 867c 98bd
00000380: 8a75 acbb dd68 8d3d d9f7 69bd 6f20 833d
00000390: 7697 493d bceb cd3b 152f 8abd 347a 9cbd
000003a0: 5cd8 1a3d 8c71 433e 22de 2a3c 617f abbd
000003b0: 96c4 dd3d a179 113e 9b83 01bd 206e 3ebd
000003c0: 7173 603d 41e6 ac3d 944e 94bd 531a 9cbd
000003d0: a677 f23d 4457 01bd b163 d2bd 6053 573d
000003e0: ee7a 0e3e b948 073e 5898 3dbc f44d f8bd
000003f0: 4dd6 9abc 70d6 9d3d 1783 103d 6756 cebd
0.069458894 0.033032145 -0.03196158 -0.048880555 -0.04870885 0.058952983 -0.10032924 -0.14866272
-0.02393312 0.08010022 0.000591006 -0.1574797 -0.1602325 -0.0471365 -0.17501707 0.01339371
0.007984492 0.04118101 -0.053367354 0.040330693 0.08197896 0.14678185 0.14530541 0.10632733
0.22167328 -0.03594017 -0.029158875 0.17528829 0.0609048 -0.033270396 -0.046234243 -0.099581525
0.092677474 -0.08692366 -0.08614648 -0.14302084 0.011898915 0.06267657 0.020416444 -0.13462739
-0.13244383 0.028023252 0.040983584 0.051946767 -0.10801084 -0.0064921863 -0.087551594 -0.019506937
-0.042780355 -0.07487654 -0.036664426 -0.04451053 0.03856654 0.022837672 -0.10751079 0.07236854
-0.04197195 0.014434472 -0.0701818 -0.004521141 0.19987336 0.07143498 -0.052969493 0.031346705
-0.10883868 0.13724174 0.07906044 0.061782017 0.06744625 -0.10190346 0.025284806 -0.05704586
-0.06298782 0.001829332 -0.10412847 0.027956443 -0.059658155 -0.101529054 -0.03684011 -0.017571256
0.046159085 -0.03212769 -0.10953668 -0.099306844 -0.13768631 -0.045187194 -0.03250017 -0.025610384
-0.002025167 0.050410695 0.00894756 -0.01535952 0.116924375 0.13978037 0.12284678 -0.007748794
-0.055832528 -0.037478022 -0.060804762 0.03628661 -0.03901396 -0.077131085 -0.099294566 -0.14660306
-0.15944742 0.057558075 -0.0090109445 -0.0474028 -0.09203083 0.00057576393 0.17714383 0.13224234
0.14208278 0.18020135 0.15064782 0.1722759 0.19109923 0.12756008 0.2230298 0.24485515
0.01837164 0.0532066 0.033652063 0.05247525 -0.034779698 -0.016492192 -0.03401179 0.065281495
0.14625104 0.06894792 0.046457857 -0.037652586 0.037770417 0.13447557 0.052744333 -0.079845704
0.010641878 -0.1170576 0.032509662 0.026633691 0.16342641 -0.011264519 -0.036811 -0.12152535
-0.05923739 0.22050738 0.11263371 0.092164025 0.057472453 0.10816332 -0.031906836 0.1161935
0.10017085 -0.032713987 0.113080665 0.010109095 -0.09813215 -0.02384768 0.2826794 0.33021522
-0.11677366 -0.03967042 0.3143341 0.45441902 0.29725096 0.017224105 0.2640083 0.30273515
0.04811177 0.03902814 0.049408816 0.16838822 0.055147015 -0.08816086 -0.002339424 0.0034089806
-0.049147345 -0.012437266 0.02577915 0.124602735 -0.045663692 0.032566685 0.15281853 0.10496324
-0.032399237 0.029261367 0.10063241 0.0135690775 -0.14473553 -0.1605912 -0.054413166 -0.03270678
-0.22481848 -0.10491404 -0.052410074 -0.122110024 -0.13873343 -0.051967446 -0.022008274 -0.100913
-0.024621647 0.03719335 -0.03495272 0.008210165 0.10052955 0.03190183 0.014640012 -0.06867978
-0.10475582 0.05641552 0.08546794 -0.16741876 -0.03388376 0.09807627 0.05327589 -0.08818052
-0.047339175 0.0574862 -0.0801557 -0.08595421 -0.012850888 -0.029825661 -0.11048376 -0.07445626
-0.005263035 0.06904767 -0.05712113 0.064026706 0.04921671 0.0062842052 -0.067472614 -0.07640496
0.037803993 0.19086283 0.010428937 -0.08373905 0.108285114 0.14206554 -0.03161965 -0.046491742
0.054797594 0.08442355 -0.0724155 -0.076222084 0.118392274 -0.031577364 -0.10272921 0.052569747
0.13914081 0.13211335 -0.011571966 -0.121242434 -0.018901015 0.07706916 0.035281267 -0.10075074

conv2.bias f4 [16]
00000000: 140f 3a3b 4507 f3bc 4354 e43c ebde 59bc
00000010: 76d5 e13c ae2d 763d 1209 09bb 602f 013e
00000020: 75b6 373d 5b48 30bd cd0b 7ebb ef1d 60bd
00000030: 84ec 903d 07d4 9c3d 53c5 e43d 26b4 e3ba
0.0028390335 -0.029666552 0.02787221 -0.013297777 0.027567606 0.060102157 -0.0020909947 0.12615728
0.04485174 -0.043037754 -0.0038764358 -0.054716047 0.07076362 0.076576285 0.11170449 -0.0017372414

fc1.weight f4 [120, 256]
00000000: bbf9 cabd e7a3 79bd 43b0 80bc a936 64bd
00000010: ce93 2ebd 39a5 343d b27f b33a 7310 96bd
00000020: 27f3 c8bc a3c0 6e3d 01ab 17bd f624 39bd
00000030: 4a17 373d 51bf a43d 96cf 1f3d 313b fd3c
00000040: 3ac8 9a3c d960 983d 578f eabc 45c3 8a3d
00000050: 66f1 b1bb ec2f 00bd c193 2ebd 4b06 a63a
00000060: e518 3bbd f859 103c 19ad 1cbd 71ed 8f3d
00000070: 495b f13d 1787 7f3b d7a7 2f3b 4e63 a33d
00000080: 3b8b ad3d 6ba2 74bd 13d7 06bb 1e57 b9bc
00000090: d751 2d3d 87fa fcbc c4ff 64bd 481a 9bbc
000000a0: 5400 23bc c97a 883c 8e34 3bbd 35b0 043e
000000b0: 4d51 41bd 7e0a 0c3d b52c a43d 1049 c3bb
000000c0: c7d9 7ebd 33e0 213d ee95 1f3d 8d4d 02bd
000000d0: 4c32 0f3c 1aa7 de3c 19d0 f4bc b00f 743c
000000e0: 4fd4 f63c 0e38 0e3d acb2 cfbd 32fe c3bd
000000f0: d98a 65bc 59a3 76bd 497a 903d 2ba5 9dbd
00000100: 61a9 c43b 94d3 2f3c 1478 7cbc b097 4d3d
00000110: 4fbc 08bd d70c 6a3d 66ab f6bc c4bd f1bc
00000120: 0a33 663d c8fb db3c ca41 cfbd 2340 883c
00000130: 202d 42bc 6006 0bbd 1e8c 033d 1138 83bd
00000140: 4985 a13c 0e44 cd3b 0758 223d 4203 553d
00000150: fd27 0cbd 3901 19bd 7e73 a5bc eb73 59bd
00000160: 8a80 1ebb 2416 1d3d 9728 ecbc 34a4 893c
00000170: 98c3 383d 2cc8 12bd 2c4a ba3d 628b 803d
00000180: cf2d 063d 712c 8f3d f475 cb3c 7f3f 8c3d
00000190: 3a81 943d 9f4a dabc 4afc 42bd c047 89bd
000001a0: 810f 93bc e6c1 c73c 0864 f43c 2f0b 51bd
000001b0: ecac 2d3d 38d2 42bd 6c52 73bc 5a04 8bbd
000001c0: eb44 78bd 1b45 87bd 1778 22bd 0329 d93d
000001d0: 332b 2fbd a87f bbbd 00ef 413d 6baf 613d
000001e0: d90a 6c3c 2b63 01bd c365 17bc ee8b a9bd
000001f0: 0503 88bd 9c43 99bd 4f93 383d 14b9 3cbd
00000200: f126 483c bba0 8c3c 464a 60bd d889 78bd
00000210: 77d4 e83c 941f 09bc 6007 983d 6ef3 1ebd
00000220: a7bf 30bc 5625 9d3c 1db3 c2bb 108b 35bd
00000230: e2cd 81bd 0ff6 a2bc c783 7bbd fe69 c93c
00000240: 6938 8e3d 322a 3e3d e458 223b 7dc1 8bbd
00000250: 225c 923d 6ab3 dbba 1cfa 0dba fd47 55bd
00000260: b7c4 993d f2bc 75bd a6b2 a23d d456 f0bc
00000270: 3787 d73c 7147 56bc 1bc0 c53c 2d8b 32bd
00000280: a923 bd3c 1c00 0fbd 77dd 793d 0574 183d
00000290: b203 f73c f962 ff3c 3522 043d 6584 8b3d
000002a0: 9f00 323b f76e 253d 1b6e 6fbc b6dd d6bc
000002b0: 316e b63c de74 363d dc9d cabc 249b 2fbd
000002c0: c8da cd3d 9229 303d a0e3 88bc c8f6 9bbc
000002d0: 09cf fb3c 4cad 4d3d c584 1d3d eeb5 5fbc
000002e0: 5d84 3dbb 340e 67bd 5152 4bbc 0b23 343d
000002f0: 4d85 193d b3ff 19ba 2164 643c e5d5 913d
00000300: c324 a43d 0c2f ad3d cf5c 8bbc 7a27 a7bc
00000310: 1e70 f93d efcd 98bb a689 bdbc 6f47 35bd
00000320: 6034 bc3c c9a7 7b3a aa7e 3c3d 3e0a 853a
00000330: 5f13 d03b 9f9d 543d 6601 c13d 49f5 12bd
00000340: 3a01 7a3d 29f3 e13d 2dae acbd ad5f 51bd
00000350: 2dc5 0a3e ad89 093e 6277 033d 7169 9dbc
00000360: c7be 543e e105 f0bc bf8e 0a3e 2c72 b83d
00000370: 000d d13d b3a4 1bbd b775 fb3d 0454 963d
00000380: b155 ef3b b347 733d 5e73 b63d 22c4 503d
00000390: 4f28 0a3d 83fd 4d3d 26c4 0c3d 3162 963c
000003a0: c40c 343d bc0f 60bd 953c dabd d852 53bd
000003b0: 468a 823d 4d1f 8a3d 655b 243b afb8 7bbb
000003c0: 5b5b fe3d 9441 423c 1ab8 0ebd f8d1 c7bd
000003d0: aced a2bd ee0c 6e3d ee8f 533b 653e 11be
000003e0: 4cd1 aebc 8747 743d 48e6 46bd e077 e8bd
000003f0: 2822 933b 708f 8e3d c0a1 ca3d 854a 873c
-0.099109136 -0.060947325 -0.015709048 -0.05571619 -0.042621426 0.04410288 0.0013694672 -0.07327356
-0.024530007 0.05828918 -0.037028316 -0.045201264 0.044699945 0.08044303 0.03901633 0.030912014
0.018894304 0.07440347 -0.028632803 0.06775526 -0.0054303883 -0.0312957 -0.042621378 0.001266667
-0.04567804 0.008810513 -0.038251016 0.0702771 0.117849894 0.0038990432 0.0026802921 0.07977925
0.08473822 -0.059725206 -0.0020574972 -0.022624549 0.042314377 -0.03088118 -0.05590798 -0.01893343
-0.009948809 0.016660111 -0.045704417 0.12957843 -0.047196675 0.034189694 0.0801634 -0.0059596375
-0.062219407 0.039520454 0.038961343 -0.03181224 0.008740019 0.02717929 -0.029884385 0.014896318
0.030130534 0.034721427 -0.10141501 -0.09569968 -0.014010155 -0.060214374 0.07054574 -0.07697519
0.006001637 0.0107315965 -0.015409488 0.05019349 -0.03338271 0.05714115 -0.030111026 -0.029509433
0.05620102 0.026853457 -0.1011997 0.016632145 -0.011851579 -0.033941627 0.032116048 -0.06407178
0.019716876 0.0062642163 0.03963473 0.05200506 -0.034217823 -0.03735468 -0.020196673 -0.053089064
-0.0024185502 0.038351193 -0.028827948 0.016801931 0.045108408 -0.03583543 0.090961784 0.06276585
0.03275853 0.069908984 0.024836518 0.068480484 0.072512105 -0.02664691 -0.047603883 -0.06703138
-0.017951729 0.02438445 0.029832855 -0.051036056 0.04240124 -0.04756376 -0.014851194 -0.06787939
-0.0606126 -0.06604978 -0.039665308 0.106035255 -0.042765807 -0.09155208 0.04734707 0.055098932
0.014406883 -0.031588715 -0.0092405705 -0.082786426 -0.06641201 -0.074835986 0.04506236 -0.04607494
0.012216316 0.017166486 -0.054758333 -0.060678333 0.028421624 -0.008369345 0.07423282 -0.03880637
-0.010787881 0.019182842 -0.005941762 -0.044322073 -0.06338097 -0.01989272 -0.06140497 0.024586674
0.06944353 0.04642696 0.0024772221 -0.06824014 0.07146479 -0.0016761844 -0.00054159923 -0.052070606
0.075082235 -0.059994645 0.07944231 -0.029338278 0.026309593 -0.013078556 0.024139455 -0.04358976
0.023088293 -0.034912214 0.06100222 0.03722002 0.03015313 0.031175124 0.032259185 0.06812362
0.0027161015 0.040389027 -0.0146136535 -0.026228767 0.02226934 0.044545047 -0.024733476 -0.042872563
0.10051495 0.043008395 -0.016710103 -0.019038573 0.03073837 0.050214097 0.038456697 -0.013654215
-0.0028918006 -0.05641003 -0.0124097625 0.043978732 0.03748064 -0.0005874589 0.013939888 0.07120875
0.08014824 0.08456239 -0.017012028 -0.020404566 0.12179588 -0.004663221 -0.023136925 -0.044257578
0.022974193 0.0009599892 0.046019234 0.0010150147 0.0063499655 0.05190813 0.09424095 -0.035878453
0.061036326 0.11032707 -0.08431659 -0.051116634 0.13551779 0.13431425 0.032096274 -0.019215317
0.20775901 -0.029299678 0.13531016 0.090061516 0.10207558 -0.037998866 0.12278312 0.073402435
0.0073039164 0.05939455 0.08908723 0.050968297 0.033729848 0.050290596 0.03436675 0.018357368
0.043957487 -0.054702505 -0.10656086 -0.051592678 0.0637403 0.067442514 0.002507889 -0.003840964
0.124197684 0.011856455 -0.03484354 -0.09756845 -0.079554886 0.0581178 0.0032281834 -0.14183958
-0.021340035 0.059638526 -0.048559457 -0.11350989 0.0044901557 0.06960952 0.098941326 0.016515026

fc1.bias f4 [120]
00000000: b402 3f3d 7b9a f9bc d156 a6bc b7d2 6d3c
00000010: 2374 9e3b cd2e 8bbc 2082 1a3d 0fd3 5c3d
00000020: 3624 d63c 7d4a 9d3c ca41 723d 5063 4cbd
00000030: c70b 0cbc 5dd3 32bd 8071 49bd 2355 f4bc
00000040: c24c 8bbc 45ee 973c fd38 d7bc 697a 48bd
00000050: e88b 5f3d 720b 113d 4cfb 9abc 26a3 f93c
00000060: 803d 2dbd cceb 72bd 63a4 453c 92f6 5dbd
00000070: df12 29bd eddb 2d3d 188b 8d3c 3ef4 25bd
00000080: d3f9 513d 7196 2f3c d56d 3dbd 60b7 5bbd
00000090: 7243 03bb 8d86 0ebd 1545 28bd 12c6 583d
000000a0: 53b7 333b ca76 7abd 7f3f 3cbd 72a1 11bd
000000b0: fe1d 15bd a923 143d 6a32 3b3d ab06 abbc
000000c0: ce7c 653d d36f 853d c421 ebbc 249a 7fbc
000000d0: 72b9 913d 6247 44bd c33b 083c 812a 803d
000000e0: 5b4d f1bc 2425 a5bc cba2 6ebc 2342 d0bc
000000f0: 3ae6 32bc dc03 2bbc 2305 173d 85e3 a43c
00000100: cad0 5e3d 03e2 c23b ea4f 0cbd 935c b83b
00000110: a944 623d f5fb 8ebc 6b88 b03c 7aaf 9f3d
00000120: 199c 003d 75e8 c5bc 3ef1 3b3d 90a7 433d
00000130: 1841 82bb 72f0 2a3d a269 523d 12fe 84bb
00000140: 0433 f0bc 4123 9c3c af63 2a3d db85 c63c
00000150: 0808 7bbc 6af8 6bbd cd0d 2ebd 0c4c 2cbd
00000160: 5516 39bd d7de 243d 01fe cf3b f0da 833c
00000170: 9f18 abbc 1776 ff3c e352 9d3b f45e aaba
00000180: 1385 823c e72a c5bc bfa7 08bd 220f 0a3d
00000190: f5e9 093d 8dbd e23c 0a8a c53b 5181 64bd
000001a0: 2bb6 75bc 4584 fe3c 3c89 e2bc 1a83 0fbd
000001b0: 546d 3abd 7e39 783d 75b8 cabc f75c 873d
000001c0: 0682 ddbb 20c1 86bc 92de 613d 917c fe3b
000001d0: 6afc 1c3d 27d1 74bc b2db 5b3d 9582 443d
0.046633437 -0.03046917 -0.02030507 0.01451557 0.004835622 -0.01699009 0.037721753 0.05391222
0.026140314 0.019200558 0.059144773 -0.0498994 -0.00854773 -0.043658603 -0.049180508 -0.029825753
-0.017004374 0.018546233 -0.026272291 -0.048944864 0.054576784 0.035411306 -0.018918656 0.030473303
-0.04229498 -0.059306905 0.012063119 -0.054190226 -0.041277763 0.042446066 0.01727824 -0.04051613
0.05126364 0.01071702 -0.046247322 -0.053641677 -0.0020029214 -0.034796286 -0.041081507 0.05292327
0.0027422502 -0.061148442 -0.045958992 -0.035554357 -0.036405556 0.03616682 0.045702375 -0.020877203
0.056027226 0.065154694 -0.028702624 -0.015600715 0.07115449 -0.04791964 0.00831503 0.06258107
-0.029455831 -0.020159312 -0.01456518 -0.025422161 -0.010919148 -0.010437932 0.036870133 0.020128021
0.054398336 0.005947353 -0.0342559 0.00562627 0.05524126 -0.017454127 0.021549424 0.077971414
0.031398866 -0.024158696 0.045884363 0.047767222 -0.003975045 0.041733213 0.05137027 -0.004058608
-0.029321201 0.01905978 0.041598972 0.02423375 -0.015321739 -0.057609953 -0.04249363 -0.04206471
-0.045187313 0.04025158 0.0063474183 0.016095608 -0.020885764 0.03118424 0.0048011406 -0.0012998269
0.015932595 -0.024068309 -0.0333631 0.033705838 0.033670384 0.027678275 0.0060284184 -0.05578739
-0.0149970455 0.03106893 -0.02765333 -0.035037138 -0.04551442 0.060601704 -0.02474616 0.066095285
-0.006759885 -0.016449511 0.0551439 0.0077663143 0.03832666 -0.014942444 0.053676315 0.047976095

fc2.weight f4 [84, 120]
00000000: cb7f b13d 3e33 5bbc c33a c63d 3eaa 163d
00000010: 8646 71bd 9a33 163c bcf5 7b3c c5ab 043d
00000020: fa4a 0cbd 7db6 6ebd 9cc7 bfbd 814a 0fbd
00000030: aa43 bd3d e05a 2e3d d7cf a6bd 28a2 ebbc
00000040: b9e7 6dbd bd18 b93d 7c52 84bc c9ec 8a3d
00000050: 510f 99bd 55f3 07bd 3c7a 073e c4cf ce3c
00000060: 2a78 a43d c591 593d 6626 8dbc 5f42 973d
00000070: 74f5 803a 350c a2bc d4d4 8bbd 0c4c 8bbc
00000080: 87c1 06bd 0e5b 023e e53f 31bd 52a3 91bd
00000090: 1e8b a0bc 9389 3fbd 8908 fc3d 9e19 093e
000000a0: dad9 1cbd 34d9 993d 7579 e23d 0901 a1bc
000000b0: b5d7 2fbd 3671 fe3c 617c b93d 5a67 5cbc
000000c0: ba2f 49bc 10fb bebd e459 5fbd 19eb d2bb
000000d0: 9d2c a93d 6915 95bc 57e8 903d e654 2fbd
000000e0: 6604 d73d 0fff 37bc a658 dc3d c6a2 f63d
000000f0: 418c 1ebd d39b e3bd caf9 3fbd 8f9c 303e
00000100: c9bd b5bd 6195 d33d 62df 863d e3cf 0abe
00000110: 0b50 66bc 02da 643d b491 883a 7dfc b6bc
00000120: 364e c93c d848 b3bd b757 8a3d a60d 8c3d
00000130: ab04 fd3d 43c3 e2bc d857 cfbc 2e18 74bc
00000140: 580c 3bbd 8848 c5bd 9cea fbbc 9d3a 943d
00000150: 52d1 d13d 23cd 863d cf26 b1bc 12f4 42bb
00000160: ee9c f7bb f443 8cbc 7b08 1fbd db0a 8a3d
00000170: 3765 c1bd 1c8c cd3b 29e1 febb 2e91 eb3d
00000180: 6cc8 903d 31da 26bd 66e7 473d c759 cb3d
00000190: 3cea 063b e33e 76bd 6c90 183e 37dc ccbc
000001a0: 4445 123d e844 67bd 07ba 873b 4635 ef3c
000001b0: 58a7 af3d 9a1c 6c3d b050 ca3d f0cb 09bd
000001c0: 2f6f a63d 7897 3d3d 4c87 c1bc 1e93 20bd
000001d0: 86d2 d5bd 6f41 853d 4f5f 9e3d 6ddd 483d
000001e0: 472f 6a3e d753 7e3d 4484 583d a468 21be
000001f0: e42f efbc a9e9 913d 7e77 c53d 1c6f 23bd
00000200: e276 933d 405e c33d 8c0f 63bd 7f61 d23d
00000210: 83d4 343e dbed d4bb 39f2 cd3c c6af a43d
00000220: 379a 9abd c4d9 903d dce3 fbbd 77a6 ed3d
00000230: b190 e43d 04f1 89bd 8138 df3d 3183 133d
00000240: 22dc 863c 3cd2 cd3d 8fb3 c3bc d13a 8f3d
00000250: f52f b73b 6ae4 573d ae80 f13d 7c92 2c3d
00000260: e2d0 063b a5cf 9d3d 8b71 d63d 7ca5 c43c
00000270: febd ec3c 6781 aebc bf00 1a3d 42fc e03d
00000280: 1aba cebb 20af 933d f4fe 903d e3d8 d8bd
00000290: c0c0 433d b8e6 dfbd 7884 7cbd cb5b 9cbd
000002a0: 98af 58bd bdd4 80bd aa8b 02bd a410 0cbd
000002b0: 3cc3 1dbb 8ac0 96bc 41ca a03d 1690 57bd
000002c0: 4104 e03d d165 5dbd 97fc 78bb 1c75 a03d
000002d0: 51e1 43bd 8778 d3bd bd4d da3c 124c 953c
000002e0: 21a4 8bbc 2769 11bd 5cc0 913d fa63 b4bc
000002f0: 1f9e c43d cebc b33d 770f 5c3d 7e78 e4bb
00000300: a2d2 02bc 3c58 2ebd fbd1 cc3d f148 58bd
00000310: c4f9 89bd 5d54 d9bc 2480 8d3b b53a cdbd
00000320: d2da a13d 8ae6 ebbd 6881 05bd 38f4 89bd
00000330: ce60 4ebd e3d2 e6bb 171d 4fbd 9985 9dbd
00000340: e3ad a7bd be80 eebc c1b4 1e3b 27bb fabc
00000350: eec0 bf3d eae1 b5bd f088 003d 2fb3 c1bd
00000360: 90a7 473e f56d 1bbd 1b10 803d 9192 36bd
00000370: 2cb2 283c 9190 4d3e eb85 31bd 0d84 bd3c
00000380: e221 90bd b6e0 77bc ffaa c9bc 98d4 1fbd
00000390: ba65 48bc 9834 003e dd8a 1e3e 880d 603e
000003a0: dbab 813d b542 e43d fbf8 093e 4aa6 9f3d
000003b0: c1f3 d8bc 5c58 34bc b39d 3a3c 4120 8abd
000003c0: 464c b7bc d5c3 25be d998 36be e3b3 cd3d
000003d0: 11d9 9d3d 656c b53d 8e28 743c 191b 873d
000003e0: e60d 873d 3d00 0c3d 7f7b 4bbd 9c63 7b3c
000003f0: 647d 723d c0f9 ac3d 48a6 bd3d 869d a03d
0.08666953 -0.013378916 0.09679177 0.03678345 -0.058905147 0.009167576 0.015378412 0.032390375
-0.03425119 -0.058279503 -0.09364244 -0.03498316 0.092414215 0.042567134 -0.08145111 -0.028763846
-0.058082316 0.090379216 -0.016152613 0.067834444 -0.074736245 -0.033191044 0.13230222 0.025245555
0.08030732 0.053117532 -0.017230224 0.07385706 0.0009838776 -0.019781211 -0.06827703 -0.017004035
-0.032899406 0.12730047 -0.043273825 -0.07111229 -0.019597586 -0.04676206 0.123063155 0.13388678
-0.038293697 0.07512131 0.11058322 -0.019653814 -0.042930324 0.031059843 0.090569265 -0.013452375
-0.012279445 -0.0932523 -0.054529086 -0.006436717 0.082604624 -0.018198686 0.07075565 -0.042805575
0.10498886 -0.011230244 0.10759096 0.12042765 -0.038707975 -0.111137055 -0.046869077 0.17247222
-0.08874089 0.10331226 0.06585576 -0.13555865 -0.01405717 0.05587197 0.00104194 -0.022337193
0.024573427 -0.08754128 0.067550115 0.06838541 0.12354406 -0.027680999 -0.025310442 -0.014898343
-0.04566607 -0.09632975 -0.030751519 0.07237742 0.10245003 0.065820955 -0.02162495 -0.0029747528
-0.0075565493 -0.017122246 -0.038826447 0.06740352 -0.09443133 0.006272806 -0.007778306 0.115023
0.070694774 -0.040735427 0.048804663 0.09929233 0.0020586392 -0.060118567 0.14898843 -0.02500735
0.035710588 -0.0564622 0.0041420492 0.029200207 0.0857684 0.057644464 0.09878671 -0.033641756
0.08126675 0.04628703 -0.023624085 -0.039202802 -0.10440545 0.06506621 0.077330224 0.049039293
0.22869597 0.062091675 0.052860513 -0.15762573 -0.02919764 0.07124645 0.09641932 -0.039900884
0.072004095 0.09539461 -0.05543475 0.10272502 0.17659192 -0.006498081 0.025139915 0.080413386
-0.075489454 0.070727855 -0.1229932 0.11604016 0.1116041 -0.06735423 0.10899449 0.036013786
0.01646239 0.10049865 -0.023889331 0.0699364 0.0055904337 0.052708067 0.11792122 0.042131886
0.0020571281 0.07705621 0.10470875 0.02400469 0.02889919 -0.021301938 0.037598368 0.10985614
-0.006308806 0.07211137 0.070798784 -0.10588243 0.047791243 -0.10932678 -0.06164977 -0.076346956
-0.052901834 -0.062905766 -0.031871475 -0.034195557 -0.0024072668 -0.018402357 0.07851077 -0.052627645
0.10938311 -0.054052178 -0.0037992352 0.07834837 -0.0478223 -0.10325723 0.026648397 0.01822475
-0.017046036 -0.03550067 0.07116768 -0.022020329 0.09600472 0.08776246 0.053725686 -0.0069723716
-0.007984789 -0.042564616 0.10000988 -0.052803937 -0.06737092 -0.026529485 0.004318254 -0.10020963
0.07903065 -0.11518581 -0.032594115 -0.06736034 -0.05038529 -0.0070441826 -0.05056485 -0.07691497
-0.08187463 -0.029114123 0.0024216624 -0.03060682 0.0936297 -0.0888098 0.031380594 -0.09458005
0.19497514 -0.03794666 0.06253072 -0.04457337 0.010296386 0.20074679 -0.043340605 0.023134256
-0.07037713 -0.015129259 -0.02461767 -0.039021105 -0.012231285 0.12520063 0.1548266 0.21880162
0.06331607 0.11145536 0.13473885 0.07795389 -0.026483418 -0.011007395 0.0113901375 -0.06744433
-0.022375237 -0.16187985 -0.17831744 0.10044076 0.07707418 0.08858565 0.014902247 0.06596965
0.06594448 0.034179915 -0.049678322 0.015343573 0.059201613 0.084460735 0.09260231 0.07842545

fc2.bias f4 [84]
00000000: d63e 6b3c 4cc2 0fbd bf36 78bb 64af aabc
00000010: 7fd8 453d 217a a0bd 4414 593d edee adbd
00000020: 4bf1 9b3c 9e4d 9fbd e338 383d 3b49 dbbc
00000030: 2f94 0d3b 2377 74bd a712 bd3c e8b2 90bd
00000040: fcac 9dbd f872 89bd 1abd c03d 0a28 01bd
00000050: af93 71bd bea8 8139 df5e 09bd f767 873d
00000060: af65 7a3d a2ea e5bc 714d cd3d e724 4cbd
00000070: 1cac 9cbd 5e9a c2bd f94f 39bc 83ed 57bd
00000080: a86b b6bd 5cbd b43c 8167 393d af33 bc3a
00000090: 4f21 1fbd c093 40bd 7889 273d d130 dd3d
000000a0: 7755 743d 5eab 5f3d 4694 4fbd 5846 a7bc
000000b0: 0ea9 12bb 24eb a4ba b03e c63d 8575 b53c
000000c0: 0262 13bd ab39 333b 03c4 aabd 4a9a b4bd
000000d0: f617 c23c 4d49 d73d c9e5 7c3d 08d0 fe3d
000000e0: 29d8 5a3d 8d94 763d 4c09 863d cdb6 6b3d
000000f0: ef3b 8bbd 5e3e 083e 58d8 c7bc b951 9ebd
00000100: 4cc9 0c3c c328 a43d c478 963d d153 02bd
00000110: 51d3 8abd 505f 9dbc 306e 963d 10cb 94bd
00000120: f069 2bbd d490 2cbd 369c 75bd f1fd 04bd
00000130: 9090 2d3c d4b9 fa3c 888d 81bc 2bf8 653d
00000140: a4d2 a83d 8baf b93c 71ec 1b3e 412d 663d
0.014358243 -0.035097405 -0.0037874428 -0.020835586 0.04830217 -0.07835794 0.052997842 -0.08492837
0.019035956 -0.07778476 0.044976126 -0.026768317 0.0021603217 -0.05968393 0.023080183 -0.07065374
-0.0769901 -0.06711382 0.09411068 -0.031532325 -0.058978733 0.0002473052 -0.03353774 0.066116266
0.06113213 -0.028065983 0.100245364 -0.04983988 -0.07650015 -0.095020995 -0.011310571 -0.052716743
-0.089072526 0.02206295 0.045264725 0.0014358665 -0.038850125 -0.047015905 0.040902585 0.108003266
0.059651818 0.054606788 -0.050678514 -0.020419285 -0.0022378596 -0.0012582284 0.096799254 0.022150764
-0.03598214 0.0027347605 -0.083381675 -0.08818491 0.023693066 0.10512028 0.061742578 0.124420226
0.053428803 0.060200263 0.06544742 0.05754738 -0.06798541 0.13305041 -0.024395153 -0.07730431
0.008592915 0.08015587 0.07347253 -0.031818215 -0.06778587 -0.019210488 0.07345235 -0.072652936
-0.041849077 -0.042130306 -0.059963427 -0.03246874 0.010593548 0.030606188 -0.015814558 0.056144875
0.082433015 0.022666713 0.15226914 0.0561955

fc3.weight f4 [10, 84]
00000000: 7675 ac3c 756a b73d 7905 8fbc 9086 ab3d
00000010: dd7b 2fbc 5e51 b3bd ec10 91bd 0893 d7bd
00000020: ddd9 10bd 65cf 47bd 8d25 adbd 6539 ea3c
00000030: daef 6abc 2ad4 933d a659 8f3c 04ce a03c
00000040: c2aa abbd bec6 a73d ea7f 793d 2dce 293d
00000050: 5956 62bd 3457 2fbb 8dbf f0bc 4f96 d23d
00000060: d84a ca3c c10e a83d c8d3 5abd 34af bfbd
00000070: a3ff cabc da83 9d3d 9cf5 0a3d 9c8f 04bc
00000080: c512 503b 60c0 d43c 9e32 313d cf29 7abd
00000090: a772 61bd 153c cc3d 8f55 65bd ac02 cbbd
000000a0: 6c93 f8bc 1547 d23c 0fdf 513d 4e7a 28bd
000000b0: 8a3f f0bc 9706 97bd 58b2 d2bd 43ae d7bd
000000c0: 05ed 92bc c8f2 b2bc 46d6 40bd a6c7 3dbc
000000d0: 874d 243d 0d39 a83d 28ce adbd 8027 773d
000000e0: 63f2 59bc c6ad 813d 27b7 143d db61 af3d
000000f0: 2573 413d 0671 cd3c 0fc8 9b3c c0b6 8c3d
00000100: 2830 223c 98b8 b9bd 3b64 48bd 569b 283d
00000110: e0ba 8cbd b02f bf3d a3d7 713c 904f fe3c
00000120: ec0e 253d 125f a53d cb8d a43c 6449 9fbd
00000130: cb46 db3d 9a25 5e3d 1b23 833c fa14 c83a
00000140: 9f2d d3bd f6b9 97bd 8b4d dc3d d132 9d3c
00000150: 5736 503b 2b0f d0bc c7cc 12bd 703b 55bd
00000160: d495 ed3c e4c3 943d 7263 b03c 5d5e 1d3d
00000170: 1854 953c 3d7e 8b3d 5869 cd3d f870 893d
00000180: 95ea 523d d643 5fbd c2b7 da3d ab4f 3a3d
00000190: 9901 c3bb 8595 0b3d 499a b5bc 1c02 5bbd
000001a0: 70b9 923d 0628 cebc f642 a5bd d99e 95bd
000001b0: 4407 453c c5a6 c73d 0394 b1bd feef a8bd
000001c0: 3412 c5bd d2c1 98bc 8b8c 883b dadb 523d
000001d0: eacd af3d 7022 32bd d44e d83d 0d11 17bd
000001e0: 9952 8f3d b3bd 2a3d fadb 33ba 352d cc3d
000001f0: d5d7 c43d ced9 7a3d 41d3 a0bc 2f9c dc3c
00000200: f329 99bd 263f 21bd 1b35 383c 2410 42bb
00000210: 557a 5c3d fd38 de3d 8130 93bc 3816 c63d
00000220: caf7 3f3d e3d2 89bd 688b 093d 8c7f af3d
00000230: acf8 a6bd 3d6c 623c 6654 88bd 68a3 433b
00000240: 49a1 ca3d 327c f3bc 04e3 b2bc bee7 ae3d
00000250: dace b0bd c5e9 31bd 1bf2 283d f466 f1bc
00000260: 74ff 98bd b920 d93d 0db4 9cbd e955 cd3c
00000270: b523 cabd 8cd5 1f3d daa7 f8bc 4b28 58bc
00000280: 77a6 dabd 5825 7c3d 56d1 33bc f249 d83d
00000290: 723b 693d 8661 aebd 2a1e 9e3d b13d 17bc
000002a0: 2164 683d 1b50 093d 5b34 93bd 80c1 c63d
000002b0: 408d 693d 7aa8 d1bd 6eb7 58bd 6852 9abd
000002c0: 584b 81bd e000 50bb 0ceb 513d 5617 bb3d
000002d0: 612d 9c3d e601 c93d c5e2 183d ca83 21bd
000002e0: 7314 cb3c 5b2d a73c e293 9939 b2ab 2e3d
000002f0: 1d90 e93c 2d39 3f3d 2154 c2bd 8b88 39bd
00000300: 0919 a9bd d31d 79bd c4f2 8cb9 15a0 c03d
00000310: d3b0 8ebd 65cf d33d 4b0d ab3c 40e7 2cbd
00000320: a54f c1bc 148c dbbd ec87 1dbc 60c6 aa3c
00000330: 7e19 d3bd 1eba 58bd b823 cd3d 81f1 05bd
00000340: 9a02 dd3d 543a 80bc 1bd5 483d 3653 06bc
00000350: d7d0 2c3b 7d9a 843d 3898 8cbd c71e d73a
00000360: bd24 a53d cdde dabd da9b 9a3d c2b2 f1bc
00000370: 1a9d 44bc 7dc3 e53c 4c5c a9bb 0bf3 593c
00000380: 8ad6 3f3c c712 793d bce8 f23c da7c a9bd
00000390: b47f 8cbd c0bf 9e3d 8b86 a0bd 616b ad3d
000003a0: 7d41 963b 3ab7 dabd 2fb3 8cbc 6094 9abd
000003b0: e4db 5f3c 5946 e33c 1843 a2bd 5ccc d1bc
000003c0: 6b65 b73d b4a6 1dbd 48bb a7bb 6aa2 9b3c
000003d0: c0e6 74bd c45b 903d 0cdb 38bd b8cc 8fbd
000003e0: d2f5 dc3d a0e5 8abb 8619 77bd ddf9 733d
000003f0: 0e5d 5e3d 9527 823d 330c 093d 91a3 993c
0.021052103 0.08955852 -0.017458664 0.08375275 -0.010710684 -0.08755754 -0.07083306 -0.10526091
-0.03536402 -0.04878177 -0.08454428 0.028591821 -0.014339412 0.072182015 0.017498802 0.019629486
-0.08382179 0.08192204 0.060913004 0.04145639 -0.05525813 -0.0026754858 -0.029388214 0.10282575
0.024693891 0.08205939 -0.053424627 -0.09359589 -0.0247801 0.07691164 0.033925638 -0.00809088
0.0031749469 0.025970638 0.043261163 -0.061075028 -0.05504098 0.09972397 -0.0559898 -0.09912619
-0.030343734 0.02566866 0.051238116 -0.041132264 -0.029327173 -0.07374304 -0.102879226 -0.10531285
-0.017935285 -0.021844283 -0.047079347 -0.011583244 0.040113 0.082140066 -0.08486587 0.060340405
-0.013302418 0.06331973 0.03630748 0.08563586 0.04722895 0.025078308 0.019016294 0.06870794
0.009899177 -0.090684116 -0.048923712 0.041163765 -0.06871581 0.093352675 0.014760884 0.031043798
0.040297434 0.08074774 0.020087143 -0.0777767 0.10706862 0.05423508 0.01600795 0.001526504
-0.10311436 -0.07408516 0.10756978 0.01918927 0.003177067 -0.025397858 -0.035839822 -0.052058637
0.029002108 0.07263926 0.021531794 0.03842007 0.018228576 0.068111874 0.10029858 0.06711
0.051493246 -0.054508053 0.1067958 0.045486134 -0.005951118 0.03407814 -0.022168295 -0.05346881
0.07164276 -0.025165569 -0.080694124 -0.073056884 0.012025658 0.09748606 -0.08670809 -0.082489
-0.096226126 -0.018647108 0.0041671447 0.051479198 0.08584197 -0.043489873 0.1056191 -0.036881495
0.06998176 0.041684818 -0.0006861087 0.0996956 0.09611479 0.06124287 -0.019631984 0.026929943
-0.07478704 -0.039366864 0.01124313 -0.0029611671 0.053827602 0.108507134 -0.017967464 0.09672207
0.04686717 -0.067296766 0.033580214 0.085692495 -0.08152899 0.013819751 -0.06656723 0.0029852036
0.09894044 -0.029722307 -0.021836765 0.08540295 -0.08633204 -0.04343583 0.041246515 -0.029468037
-0.07470599 0.106019445 -0.076515295 0.02506538 -0.09870092 0.039022014 -0.030353475 -0.0131932
-0.10676282 0.06155905 -0.010975203 0.10560979 0.056941457 -0.08514695 0.07720597 -0.009231017
0.056736115 0.03352366 -0.071877204 0.09704876 0.057019472 -0.102372125 -0.052909307 -0.07535249
-0.06313199 -0.0031738803 0.05124955 0.0913531 0.07625843 0.09814815 0.03732564 -0.039432324
0.024790024 0.02040737 0.00029292615 0.04264421 0.028511101 0.046685386 -0.094887026 -0.045296233
-0.08256728 -0.06081946 -0.00026883755 0.09405533 -0.0696732 0.10342292 0.020880362 -0.042212725
-0.023597548 -0.10720077 -0.009614926 0.020846546 -0.103075966 -0.05291187 0.100165784 -0.03270102
0.10791512 -0.015652813 0.04903136 -0.00819855 0.0026369595 0.06474779 -0.06864971 0.0016412371
0.08063648 -0.10687027 0.075492576 -0.029504184 -0.012000347 0.028047318 -0.0051684733 0.013302575
0.011708865 0.060808923 0.029651992 -0.08275767 -0.06860295 0.07751417 -0.07838162 0.084677465
0.0045854435 -0.10679479 -0.017175285 -0.075478315 0.013663266 0.027743505 -0.07922953 -0.025610141
0.08954891 -0.03848906 -0.005118761 0.018998343 -0.059790373 0.07048753 -0.045130774 -0.07021469
0.10789074 -0.004238799 -0.060327075 0.05956446 0.054287963 0.06355206 0.0334589 0.018754752

fc3.bias f4 [10]
00000000: a604 b53d ae54 b3ba 793b 41bd 791a 70bd
00000010: c43f 173d c71d 133d dffd aebc 5420 b83d
00000020: bd49 ac3d 0a5f 13bc
0.08838777 -0.0013681853 -0.04717586 -0.058618996 0.036926046 0.03591707 -0.02136129 0.08990541
0.08412502 -0.008994827
