Classifier/weights/HASY_weights.pth (torch, 636945 bytes, 10 tensors)

conv1.weight f4 [6, 1, 5, 5]
00000000: 934d 37be 9fc1 6e3e 06f1 a83d d8e7 2b3e
00000010: de1a 69be a614 e43e 6668 333f 7d09 063f
00000020: 7aeb 0b3f f1cd 883e 2901 3a3e 6abf 9e3e
00000030: 14d0 353e cd2c cf3e 1d22 b03e 16d0 bdbe
00000040: 9bc7 1fbf 6834 0dbf a11d 49be 30dd 543d
00000050: 82e5 10bf 0d4c 19bf a69d 43bf fa5e 2dbf
00000060: 0901 73be 6100 053e da5e a0bc 334b a6be
00000070: f69c 0dbd 280e c9bd 5e0d a4be f0cf d1be
00000080: a627 2cbe 98ff f2be ff68 afbe 07f8 b9be
00000090: dd9a 3abe c88c fbbe d572 c8be 5bd8 16be
000000a0: bd1f 90bd 824d e1be a7da 85be 257f c3be
000000b0: 32d4 12be ecf0 383e 62ec 933b a092 91bd
000000c0: 8137 56bc cc1d 7a3d d110 c7bd 18b1 d43d
000000d0: 88c1 873e 720a 7e3c abe5 983d a449 e13e
000000e0: 80fb 873e adcc d43d e11b 7b3c b116 453e
000000f0: 08af 813e 0c91 ef3d 45b5 313e a102 6b3e
00000100: 136b 1dbc 36ef 92be 9fd3 4abe a76e bebc
00000110: 7125 82be f638 3fbe cc57 aebe 954c 9fbe
00000120: 189e f7be 10a2 afbd 45c0 9abd 87e2 19be
00000130: f0d8 3dbe 29f1 6d3c 40d9 0dbe 08fa 763e
00000140: bfe8 78be 312a 9abe fffd 43be 112d 87be
00000150: dfaf 72be 3197 99be dac6 8ebe 3c83 fbbe
00000160: 9fbf d6be e599 a0be a43d a5be 4f06 adbe
00000170: 3cb9 a1be 3e2a 80be 4624 9cbc 003a af3d
00000180: eb14 c2bc 3301 3cbe 0121 f03d 1d32 95bd
00000190: 9303 043e 44e6 cabd 1d87 bfbe 8f23 16bf
000001a0: 6ca4 b8bd e04d e03e 0a8c 5d3e 9b35 01bf
000001b0: 83cf 8cbe 3c2f a9be 7d99 f33e 2379 973d
000001c0: a444 d6bd 1839 17bf c88b ebbe b05d f13e
000001d0: f0d9 d33e 6e12 203e 91a5 41be 79f5 87be
000001e0: 0586 623e 8e3d d23e 1fde cd3e 8d47 b03d
000001f0: dc36 423d e8bb 67be ffa2 90bd 7014 e63d
00000200: dd2b 22bd 2a6f 65be 2621 38bd 6cc1 cd3d
00000210: 1090 d93e 2895 5e3e f303 01be 1dbf e83e
00000220: 1d85 213f 8683 893e 0749 23be f762 e0be
00000230: c87a 783e 2888 0f3f c79e 07be 8c85 f7be
00000240: 1e0d 61bf f614 a93e bce6 823e fcb5 8abc
00000250: 0a40 06bf 6fe0 46bf
-0.17900686 0.23316048 0.082490966 0.1678766 -0.22764155 0.44547004 0.70081174 0.5235823
0.54656184 0.2671962 0.18164505 0.31005412 0.17755157 0.40463868 0.34401026 -0.3707282
-0.6241395 -0.5515809 -0.19640209 0.051968753 -0.566002 -0.5988167 -0.7641243 -0.6772305
-0.23730864 0.12988426 -0.019576479 -0.32479247 -0.034573518 -0.09817153 -0.32041448 -0.40978956
-0.16812 -0.47460628 -0.34259793 -0.36322042 -0.18223138 -0.49130845 -0.3915011 -0.1473097
-0.070373036 -0.44004446 -0.2614338 -0.3818294 -0.14338759 0.18060654 0.004514263 -0.071080446
-0.013074757 0.061063573 -0.09720004 0.103853405 0.2651484 0.01550542 0.07465681 0.44001496
0.26559067 0.10390601 0.015326471 0.19246937 0.2532885 0.11697587 0.17354305 0.22950222
-0.009608048 -0.28698128 -0.1980729 -0.023246123 -0.2541919 -0.18674073 -0.3405136 -0.31113115
-0.48362803 -0.08575833 -0.07556204 -0.1502782 -0.18539786 0.014522829 -0.13852406 0.24118817
-0.24307536 -0.30110314 -0.1913986 -0.2640157 -0.23699902 -0.29998162 -0.27886087 -0.4912356
-0.4194307 -0.31367412 -0.3227359 -0.33793876 -0.31586635 -0.25032228 -0.019060265 0.085559845
-0.023691615 -0.18359832 0.11725045 -0.07284949 0.12891988 -0.09907201 -0.3740777 -0.5864801
-0.09015736 0.43809414 0.21635452 -0.5047242 -0.2750207 -0.3304385 0.4757804 0.07396152
-0.10462311 -0.59071493 -0.46005082 0.4714179 0.4137721 0.1563203 -0.18910815 -0.26554468
0.22121437 0.41062587 0.40208527 0.08607397 0.0474156 -0.22630274 -0.07062339 0.11234367
-0.039592613 -0.22405687 -0.044953488 0.10046658 0.42492723 0.21736586 -0.12599163 0.45458308
0.6309374 0.26858157 -0.15945826 -0.43825504 0.24265587 0.5606713 -0.13244162 -0.48344076
-0.8791064 0.33023804 0.2556666 -0.01693248 -0.52441466 -0.7768621

conv1.bias f4 [6]
00000000: 13c1 fb3e a8fe 4a3e 2b91 273d a0ed 263e
00000010: c0b5 a73e 1c46 0b3f
0.4917074 0.19823706 0.040909927 0.16301584 0.32755852 0.54403853

conv2.weight f4 [16, 6, 5, 5]
00000000: dda3 d6bd 1157 09be 9cf2 13be a58d 033b
00000010: 7c3f d9bd 856a c2bc 2c29 a9bd 8ec4 dabd
00000020: 3e55 27bd 68b8 8bbd fded 1c3e b17d 523e
00000030: 4b22 6d3e d545 223e 251b 3d3e a738 973d
00000040: bce9 ce3d b879 963e 0270 a63e b143 8a3e
00000050: 2430 90bd d350 77bd db11 adbd 1137 92bd
00000060: 6345 c7bd 15d1 3d3d 82b5 41bc 4c0a c53c
00000070: 10e6 b73d 0729 5ebc b8ea 9b3d 34e2 823c
00000080: e030 b9bc 394f 153e d879 1a3d b160 34be
00000090: ce8a dcbd 6fe3 0abe 3660 06be e3d9 b6bd
000000a0: c531 d8bd 2433 a13c 0d63 14bd a2c5 8ebd
000000b0: 8c6c c6bd 1a57 e23b 112d d93b a1ae 683d
000000c0: 2e6a ed3d 9353 d8bc 85c1 c93c 5cb8 bdbd
000000d0: 9580 c3bd 4d29 81bd a08b 4abc 3efa 27bd
000000e0: 9ce3 a1bd 9768 f13c 57ee 9ebd 6d9f f6bc
000000f0: 734c 863d e3eb dc3d ced9 d73d cf26 8e3d
00000100: 40ea c63d 8daa b33b 1580 873d 9544 a73d
00000110: 9530 1b3e 29f5 2a3e dc23 e3bd 9ac0 c7bd
00000120: 06ca 43bd 5f50 533d 6981 a6bd a12a e83c
00000130: c1e6 be3d df85 2a3c 62e2 853d 0924 2e3c
00000140: 6df2 4e3d c632 793d 2204 4abc 6a45 ad3d
00000150: be0b e23d 7128 25bd 6a6c fabd ec61 58be
00000160: 069d 01be 32bd 14bc 8e92 713c a22b 40bd
00000170: c5f6 8ebd d54f e1bd 8161 623d 6cec 4f3d
00000180: 4054 b6ba 59d6 d23d 0939 ee3d 8764 8b3b
00000190: 36fb 17bd 6970 013d ca33 cfbc e312 dbbd
000001a0: 18ba a8bd 114a 923c 20ba d43d 83da ba3d
000001b0: 8a01 253d f49c 313d df87 443d 7872 bb3c
000001c0: 74f3 d6bc 7850 dd3d bc96 783b f303 eb3c
000001d0: 2881 bcbd 856d 423c 484b 04be 66d9 dcbd
000001e0: 73fd 87bc 9ac3 13bd 87a7 fbbc 2ef4 d5bd
000001f0: aa41 b9bd 92ce 97bd 6c1d 06be e174 b6bd
00000200: 39ee f7bd 742a 45be e358 8ebd 98e7 77bc
00000210: ef09 1dbd e1d9 94bd 0c8a d1bd f82a e23d
00000220: 4647 bb3d 8293 613d 2e07 02bd 3add 90ba
00000230: 1c40 3cbd 790e 2c3b 2c11 273c 9fdf a33d
00000240: 3b70 793d d61f 85bd aadd a0bd 6ae8 afbd
00000250: 2e39 23bc 138d 463d 4052 05bc 5ca8 afbd
00000260: 543b 62be 813b 4dbe 694a e2bc bd6d b33d
00000270: 2db0 503d e4e0 6a3e 06ab 643e 066b d33e
00000280: 1a64 413d 5574 103e cce8 623e 43c9 903e
00000290: 816e 473e 0c48 dabd aca0 9abd 440b 31bd
000002a0: 8aea dabd c5a4 bfbd 352c 723d 9d4f 1abd
000002b0: 0913 053d 70cc 193d d3f4 e63c 42aa 433d
000002c0: 4170 4e3d 0342 553d be9c af3c 66c9 f1bd
000002d0: 09d5 94bc 8b62 dabc 6b9c 2fbe d9e1 22be
000002e0: d237 96bd fb14 713d efb4 34bd 4fae 21bd
000002f0: f4d4 873c df2d 183d 94b4 7cbc 5024 cf3d
00000300: 9cab 633e 37af 393e 6273 113c 2342 c73c
00000310: 9657 c13b e29b ad3d 6c8c ae3a c678 ad3c
00000320: ace6 523c 8643 a1bd 1e90 2b3d 94dc 58bd
00000330: 57c2 393c 35e5 a5bb 5eb4 0dbd 849d 163e
00000340: d633 9b3d 3df0 443e ebe1 3fbd ab32 ee3d
00000350: dc38 dd3d 5807 483e 768a 323e 91ff 39bd
00000360: 89c0 9c3c a745 78bd e685 23bd c829 113d
00000370: 20d0 143d f31a 393c 4205 6b3b a398 51bd
00000380: 39c3 af3d 0241 afba 497f 523c 95ca 78bc
00000390: 9db8 1d3d 581b c5bd 810d 48bd 3813 abbd
000003a0: cbac a7bd 1122 41be a132 61bd c356 48bd
000003b0: 849f 0f3a 1ec3 c3bc 6eff fc3d ba68 733d
000003c0: d9e6 013e f82b a93d 43b7 aa3d f748 073e
000003d0: 9dfd 3d3d 4178 6fbc 6d54 4fbb 9ff6 e03a
000003e0: 4b60 5f3d 5b4b 903d 1cbb d83d 990c e23d
000003f0: 00dd 913d e8bb 913d a2e4 223d baa6 b83c
-0.10480473 -0.1341212 -0.14448017 0.002007344 -0.10607812 -0.023732433 -0.08259806 -0.10682021
-0.040852778 -0.06822282 0.1532516 0.2055576 0.23157613 0.15846951 0.18467386 0.073838525
0.10103175 0.2938974 0.3250733 0.2700477 -0.07040432 -0.060379814 -0.08450671 -0.07139409
-0.09730031 0.046341974 -0.01182306 0.024052761 0.08979428 -0.013559586 0.076131284 0.015977003
-0.022606313 0.14581002 0.037713856 -0.1761501 -0.107686624 -0.13563322 -0.13122639 -0.08928277
-0.10556368 0.019677706 -0.036227275 -0.06971289 -0.096886724 0.006907356 0.006627687 0.056807164
0.11592518 -0.026407039 0.02462841 -0.092636794 -0.095460095 -0.063067056 -0.012362391 -0.041010134
-0.07904741 0.029468818 -0.077603035 -0.030105317 0.0655755 0.10787179 0.1053959 0.06940996
0.097126484 0.0054829777 0.066162266 0.08167378 0.15155251 0.16695084 -0.11090824 -0.09753533
-0.047800086 0.05159032 -0.08130152 0.02834064 0.093213566 0.010407894 0.0653732 0.010628709
0.050524164 0.060839437 -0.012330087 0.08460505 0.11037396 -0.04032177 -0.122277096 -0.21131104
-0.12657556 -0.009078311 0.014744414 -0.04691661 -0.06980661 -0.11001555 0.05526877 0.05076258
-0.0013910607 0.1029479 0.11631972 0.004253927 -0.037104808 0.031601343 -0.02529325 -0.10696962
-0.082386196 0.017857583 0.10387063 0.09123709 0.04028467 0.043362573 0.04798114 0.022881731
-0.026239134 0.10806364 0.0037931642 0.028688407 -0.09204322 0.011866932 -0.12919343 -0.10783653
-0.016600346 -0.036075212 -0.030719532 -0.10446964 -0.090457276 -0.07412447 -0.13097161 -0.08909012
-0.12105984 -0.19254476 -0.069505475 -0.0151309 -0.03833955 -0.072681196 -0.102314085 0.11043352
0.09144454 0.055072315 -0.03174513 -0.0011052259 -0.045959577 0.0026253744 0.010196965 0.08001637
0.060898047 -0.06500213 -0.07854779 -0.08589251 -0.009962363 0.048474383 -0.008137286 -0.08577034
-0.22092944 -0.2004223 -0.027623372 0.08761165 0.050949264 0.22937351 0.22330865 0.4129259
0.047214605 0.14106877 0.22159117 0.2827855 0.19475748 -0.10658273 -0.07550177 -0.043223634
-0.10689266 -0.09357599 0.05912419 -0.03767358 0.032488856 0.037548482 0.028192913 0.047769792
0.050400022 0.052064907 0.021437045 -0.11805992 -0.01816799 -0.026658317 -0.17149512 -0.15906467
-0.07334866 0.0588579 -0.044117864 -0.039472874 0.016581036 0.03715312 -0.015423913 0.10114348
0.22233433 0.18133245 0.008877607 0.024323529 0.0059003336 0.08476998 0.0013316995 0.021175753
0.012872379 -0.07874207 0.041885488 -0.052944735 0.011337838 -0.005062724 -0.03459584 0.14708525
0.07578246 0.19232269 -0.04684631 0.11630758 0.10801861 0.19534051 0.17435631 -0.045409743
0.019134777 -0.0606133 -0.039922617 0.035440236 0.036331296 0.011297929 0.0035861288 -0.051170956
0.08582158 -0.0013370814 0.01284773 -0.015185018 0.03850614 -0.09624356 -0.048841003 -0.08353275
-0.081872545 -0.18860652 -0.054979924 -0.048910867 0.0005478787 -0.02389675 0.12353407 0.059426047
0.12685718 0.082603395 0.08335736 0.13211428 0.046384443 -0.014616073 -0.0031636015 0.0017163343
0.05453519 0.07045623 0.10582563 0.11037559 0.071222305 0.071159184 0.039768822 0.022540439

conv2.bias f4 [16]
00000000: b7d0 9fb9 1e42 b33c 38a0 9f3d c2fc 7fbc
00000010: 2eb6 863d 7e74 33bd d3d0 793d 6630 0dbc
00000020: 8e2e 30bc 8770 803d e3a2 41bd 60ae e03c
00000030: 9521 c33d 5d37 7c3d b9ce 6dbd a1c8 023a
-0.00030482348 0.021882113 0.07794231 -0.015624227 0.06577717 -0.043812267 0.060990166 -0.008617496
-0.010753287 0.06271463 -0.04727448 0.027426898 0.0952789 0.061576236 -0.058058474 0.00049890025

fc1.weight f4 [120, 256]
00000000: d7d1 ba3d 95f3 293d d191 b13d 2482 2b3d
00000010: fe3e 8fbc b00a bd3c ec07 29bc 7020 2dbd
00000020: 44cb 4bbd 42d2 1fbd 27f7 9a3a 4629 d63c
00000030: 38dc 0dbb 5f92 1c3d dadb c2b9 9bbc 323c
00000040: 328b 5dbd 2338 67bc f8a8 a1bb 21d3 00bd
00000050: fad0 ac3d 14fe fd3c 1663 0e3d 5619 cdbb
00000060: c667 1d3d 3afa d03b 5cce 4dbd f0b3 6ebc
00000070: 6950 76bd ef1c d53c ae04 35bd f5f8 7c3c
00000080: d88f 283c f2f3 4d3d d764 1fbc f6ac 073d
00000090: 109b 4b3d 865e 2ebd a89a 8cbc 6eca 313d
000000a0: 7152 543c 87ba a23b eb21 343c 7326 bdbc
000000b0: f999 a13d 6550 1a3c b4f8 9cbc 9c0f ee3c
000000c0: 1e2f d23c 08ec a0bc 7dc7 2abd 56f6 d13c
000000d0: c4d4 733d ead3 06bd 2a9f 6f3b 1def a93a
000000e0: 97c6 833d eec4 3cbd 65f5 133d a1d9 633d
000000f0: 97fb 13bd 5859 4f3a f05e ea3c c076 0bbd
00000100: d306 89bc f029 5abd 0fac 8abd d4e2 683d
00000110: 88bc 72bb 169f 0ebd af86 3dbd 0d0a ea3b
00000120: 7f80 f7bc a769 e0bc a872 1cbd 3067 083d
00000130: 16ff 2abd ff60 163d 3634 4dbd 4530 0f3d
00000140: bb56 2a3d 965b bc3c 74f2 073d 048b 11bd
00000150: b00a 59bd 71ae fc3c 423f f8bc d094 a53d
00000160: 18a4 0b3d fd35 193c 0b79 88bd ddc8 7d3d
00000170: 973e fabc fbb4 64bd 701a 523d 40b3 4b3b
00000180: 402b 6e3d 5837 903c 0ebf 673d 7263 6b3d
00000190: 40f4 1bbd d31e c9bc 212f afbd a3c0 debc
000001a0: 2069 323d 9e9d 463d 4439 4ebd 0a89 6abb
000001b0: bd27 cabc 4456 5dbc 5be0 10bc f3af 5abd
000001c0: adb6 37bd 176a 8e3d d86b 1b3d 1151 8e3c
000001d0: 6ba6 ac3c 3fa5 0cbb c457 c03c edfe 283b
000001e0: 7ff5 6cbd f96b 28bd 7484 84b8 9fd4 b53c
000001f0: 5a74 013d e1c5 86bd f754 c23c 1b42 a83c
00000200: bfd6 70bd c342 21bd 0794 79bc 084a f63c
00000210: 4c00 973c a3f2 42bd bb5c 5d3d 4bf2 32bc
00000220: 1281 af3c ba22 c13c 1d7a 763c fe8e e7bc
00000230: b58b 8cbd 8175 11bd f9c5 05bd 2038 c93c
00000240: badf a13d cc26 b43d 1865 a03d ee91 ce3d
00000250: 4a11 1abc b77d 5f3d 6f7c a13c 47f1 3d3c
00000260: 0197 723c e333 c83d a57b 8a3d a1bf 5a3d
00000270: 21eb 46bd 1903 4cbd 57bc b83c ee81 523d
00000280: dcef 7d3d 8b04 a83b ddd1 10bc 7de1 1a3d
00000290: 2086 08bc f1c7 e7bc a565 8638 e938 a93c
000002a0: 45d3 f33b ba84 2f3d 6ace c03c f0b8 eebb
000002b0: 2009 27ba 9e16 27bd 56a6 803d 9312 863c
000002c0: 7f19 1bbd 3542 88bc 6fba 703d 308c 713c
000002d0: 55c4 78bd e159 e63c cc17 e5bc 81e4 163c
000002e0: deb8 0e3b 583c d6ba 29a5 c6bc 52cb 413d
000002f0: 7846 eebc f3ae 553d d4f2 693d eda7 02bd
00000300: 8861 1e3d 8de8 8bbd 6552 283c ca53 113d
00000310: 2617 fe3c 6114 643c fde5 bd3c 53ac 173d
00000320: 4a0b c33d d1b5 1f3d fb28 86bc b797 0dbd
00000330: 354d 853d 31d9 2e3d dd99 7a3c 11ba 053d
00000340: 4dee c63a 99d6 a43c c075 13bd 9d9e 24bd
00000350: 7f46 2a3d 5641 a33c f91b 753d 74da ef3c
00000360: 818b 91bd 2430 0abd b248 c1bc b473 0f3d
00000370: 2915 83bd 3ae3 483b 4558 7fbd 61dc d3bc
00000380: 0269 cbbc 4fdf 163d 716d 7bbd 492a babd
00000390: e1f9 dabc 56d1 48bd 54a7 8cbd f1e0 68bc
000003a0: 372a 1bba c786 2f3d 9618 0cbd 0bc9 243b
000003b0: 09de 2f3d cc97 a0bc e5b9 efbb 249b 453d
000003c0: 495f 3e3d cd53 4c3d 5754 043d b3dd 193d
000003d0: 97f2 13bd f486 283c bbf0 9cbd 0093 863d
000003e0: d88f 09bd 59d0 2fbd df7d ec3c b05b 283d
000003f0: b0fb 81bd 00d0 a3bc 1324 033d 9fa5 233c
0.09122055 0.041492064 0.086703904 0.04187216 -0.017486092 0.023076385 -0.01031683 -0.042267263
-0.049754396 -0.039018877 0.0011822925 0.026142728 -0.0021646153 0.038225528 -0.00037166366 0.010909225
-0.054087825 -0.014112505 -0.0049334727 -0.03145135 0.084382966 0.031004943 0.034762464 -0.006259124
0.038429044 0.0063774856 -0.050245628 -0.014569268 -0.06013528 0.026014773 -0.044193916 0.015440215
0.010288201 0.050281473 -0.009728632 0.033123933 0.049708426 -0.042570613 -0.01716359 0.043405943
0.012959109 0.0049660834 0.010994415 -0.023089623 0.07890696 0.009418582 -0.01916156 0.029060178
0.025657233 -0.019643798 -0.041694153 0.025630157 0.05952908 -0.03291694 0.0036563375 0.0012964938
0.064343624 -0.046086244 0.0361227 0.05562747 -0.036128607 0.00079097366 0.028609723 -0.034048796
-0.016726887 -0.05326265 -0.06771099 0.056856945 -0.0037038643 -0.034819685 -0.046271022 0.0071423114
-0.030212639 -0.027394129 -0.038195282 0.033301532 -0.041747175 0.036713596 -0.05009862 0.034958143
0.04158662 0.02299289 0.033190206 -0.035532966 -0.052988708 0.030844899 -0.030303601 0.08085024
0.03409204 0.009351251 -0.06663712 0.061959136 -0.030547423 -0.05583666 0.051294744 0.0031082183
0.058146715 0.017604515 0.05657869 0.057467885 -0.03807473 -0.024550831 -0.08553911 -0.027191466
0.043557286 0.04849016 -0.05034758 -0.0035787248 -0.024677152 -0.013509337 -0.008842553 -0.053390455
-0.044851948 0.06953829 0.037944645 0.01737264 0.021075448 -0.00214608 0.02347935 0.0025786713
-0.05785131 -0.041118596 -6.318922e-05 0.022196112 0.031605102 -0.06580711 0.023722155 0.020539334
-0.058798548 -0.03937031 -0.015233046 0.030064598 0.018432759 -0.047594678 0.054043513 -0.010922025
0.02142385 0.02357613 0.0150437625 -0.028266426 -0.068625845 -0.03551245 -0.032659505 0.024562895
0.079040006 0.087964624 0.07831782 0.10086428 -0.009403536 0.05456325 0.019712655 0.0115931695
0.01480651 0.097755216 0.067618646 0.053405408 -0.04856408 -0.04980764 0.022550745 0.05139344
0.061996326 0.0051274947 -0.008839098 0.0378127 -0.008332759 -0.028293582 6.408551e-05 0.02065702
0.007440957 0.042851187 0.023535926 -0.00728523 -0.0006371904 -0.040793054 0.06281726 0.016366279
-0.03786611 -0.016633132 0.058771547 0.014742896 -0.06073411 0.02811903 -0.027965449 0.009209753
0.002177767 -0.0016344888 -0.024248676 0.047313042 -0.029086336 0.052168798 0.057116345 -0.031898428
0.03866723 -0.06831465 0.010273551 0.035480298 0.031016897 0.013920874 0.023180956 0.037029576
0.095236376 0.038991753 -0.016376963 -0.034568515 0.06508867 0.0426876 0.015295473 0.03264815
0.001517722 0.02012186 -0.036000967 -0.040190328 0.041571137 0.019928616 0.05984113 0.029278971
-0.071066864 -0.033737317 -0.023594234 0.035022452 -0.0640052 0.0030653016 -0.06234004 -0.02586192
-0.024830345 0.036834057 -0.06138367 -0.090900965 -0.02673048 -0.049027763 -0.06867853 -0.014213786
-0.0005919071 0.042853143 -0.034203134 0.0025144245 0.04293636 -0.019603632 -0.0073158615 0.048243657
0.04647759 0.049884606 0.032306995 0.037564944 -0.036120024 0.010286082 -0.07663103 0.06571007
-0.033584446 -0.042923305 0.028868614 0.041103065 -0.06346834 -0.019996643 0.032016825 0.009988218

fc1.bias f4 [120]
00000000: c825 b33c e5ba 3d3d 78a1 343c 6f81 053d
00000010: df86 01bd 913e 9ebb fce6 1ebd 9eff df3c
00000020: 3429 933c 8a2b febc a64d 2fbd 4f1a 3abd
00000030: 13fe 2bbd ecde 2dbd f56c 3a3d 5ddb 1c3d
00000040: ad7b e23c ce9f 16bb 7463 503c d3bd 603d
00000050: 2cb4 ecbc bfe3 5a3d 68ec 6cbd 60d1 babc
00000060: ece0 d4bb 46f0 783a aa49 34bd fc85 cb3c
00000070: eeb4 203d df20 923c b84f 11bd 8d7e 6a3d
00000080: 2bbe 05bc 5b86 5ebd a93e 283d f418 a3bc
00000090: 8257 fc3c bf7d 953d 02fa 263d 0670 f8bc
000000a0: d26f 423d e236 82bd 699c ef3c 7c29 653c
000000b0: f474 833d 2986 3dbc eb7c a3bb cf37 393d
000000c0: dec0 3dbc 3b92 1abd 60a6 d0bc 82d2 d9bc
000000d0: ec3a e0bc 068d 15bd 3563 68bd af17 333c
000000e0: 6dec 4dbd 9e6c 803d b7f6 7bbc 5566 e9bc
000000f0: 5aa1 7d3d cb31 793d e3ca 013d f076 653c
00000100: c988 043d 04f9 1cbd 162a 1cbd d5c5 4d3d
00000110: 08ed 05bc fa67 5dbc 9dde 803d 92a2 363d
00000120: 02e0 ca3b aae9 d03c 01d3 133b 7daa 05bd
00000130: 589a 6c3d 73b1 7e3d a5f7 873d ed25 393d
00000140: 104c 763d dea9 23bd 8502 46bc d0c8 5b3d
00000150: 2063 093c 87a0 0bbc 7332 5a3c a469 283d
00000160: 49e8 36bc d98c cd3c 0e52 eebc 857e 4ebd
00000170: 410e 953b 1afb f93c 0109 56bc e721 81bd
00000180: 651e 873d ea65 d6bc 78c2 a1bc 262c 233d
00000190: 52cb 64bd fa30 003d 6168 c03c 61c3 6abd
000001a0: 49ab 333d 3891 4dbb d78b c4bc 6aca ef3a
000001b0: 9184 bfbc d0f9 7d3c 9940 263d 8650 c93c
000001c0: 33e7 d1ba 21b5 6a3d f9db a13c 0563 7bbd
000001d0: 8df0 69bd b8cc d9b8 e51b b43b 19ee 1cbd
0.021868601 0.046320815 0.011024825 0.03259414 -0.031622764 -0.004829236 -0.038794503 0.027343567
0.017963983 -0.03102662 -0.04279866 -0.045435246 -0.04199035 -0.042448923 0.045514066 0.03829514
0.027646864 -0.0022983435 0.012719024 0.05486853 -0.028894506 0.05343985 -0.057842642 -0.022804916
-0.0064965393 0.0009496253 -0.044015564 0.024844162 0.039235048 0.01783794 -0.035476416 0.057249594
-0.008163015 -0.05432735 0.041075382 -0.01990936 0.030803446 0.07299375 0.04076577 -0.030326854
0.04746992 -0.06358124 0.029249387 0.013986941 0.064187914 -0.011567631 -0.0049892566 0.04521924
-0.011581628 -0.037737112 -0.025469959 -0.026589636 -0.027371846 -0.036511444 -0.056735236 0.01093094
-0.0502743 0.06270717 -0.015378646 -0.028491179 0.061921455 0.060838502 0.03168763 0.014005408
0.03235701 -0.038323417 -0.038126074 0.050237495 -0.008174188 -0.0135135595 0.0629246 0.044588633
0.0061912546 0.025502045 0.0022556188 -0.032633293 0.05776438 0.062180948 0.06639031 0.045202184
0.060131133 -0.03995692 -0.012085562 0.053658307 0.00838545 -0.008522159 0.013317692 0.04111637
-0.01116378 0.025091575 -0.029091861 -0.050413627 0.0045488183 0.030515242 -0.01306367 -0.063052945
0.06597594 -0.026171643 -0.01974605 0.039837025 -0.055857964 0.031296708 0.023487272 -0.057315234
0.043864522 -0.0031367075 -0.023992462 0.0018294577 -0.023378642 0.0155014545 0.04058895 0.02457453
-0.0016014337 0.057301644 0.019758211 -0.06137373 -0.057114173 -0.00010385498 0.0054964893 -0.038313005

fc2.weight f4 [84, 120]
00000000: c856 74bd 2fd9 963d 7663 283c 4a28 ab3d
00000010: 056d e63d ed8e 213d a5b9 24bd 583d 64bd
00000020: acd7 9d3d e0cc 093e 2227 34bd 8c61 84bd
00000030: e2a4 073e 6c90 fe3d 923d 67bd 0f55 86bd
00000040: 993d c13b 7adc 9f3d 0914 833c 9192 36bc
00000050: 2e8e 3c3c 9d92 963d 3dd3 963d e05c a5bd
00000060: f253 1bbd 2fe4 5fbd a8e0 053c aca8 a33d
00000070: b502 9a3d 5abc 38bd 14a5 eabd 656a 993d
00000080: 40ed ec3d 2d7a 91bd 6cd3 a63d 2aa2 423d
00000090: 3cce 6bbd 18a9 d0bd c7f0 96bd bd68 813c
000000a0: 09e4 58bc 959b a03d dd2e d63c f12b a53d
000000b0: 4632 b0bd b982 b0bc d80e 663c 61c0 f5bd
000000c0: 67b5 3dbd 6abb 3bbc 3f00 a7bc af91 653c
000000d0: f52c be3d 0482 913d 99a0 de3d 6260 4e3c
000000e0: 6b33 1a3d 29f6 8fbd b2d7 903b 3749 a23d
000000f0: d02e 84bd 9a06 b23d 162c ae3c 0d10 d3bd
00000100: 2de6 fe3c c03e 783d ee9d a8bd a732 02bd
00000110: b276 93bd 0324 213d 957f 93bd cbda 42bb
00000120: 7dea 46bd 34d5 ee3d 6b52 b1bd 2437 e7bc
00000130: b078 303d bada 8d3c d09e eebd 6476 90bc
00000140: 8ae5 87ba 297e 573d 2631 5e3d f96a c83d
00000150: 3119 a13d 0004 cebd 09ec 85bd 8dc2 233d
00000160: 7e23 853d 0b6b 4a3d d6dc 8d3d 34d1 89bd
00000170: 7cb1 b23c 13f0 95bd 6488 e0bc 3894 b6bd
00000180: ddc2 ecbd 8dc7 f73b 858c af3d 5188 86bd
00000190: 7421 80bc a0c5 81bd 1327 d8bd 23c4 d8bd
000001a0: 313b 48bc ad00 d83d 4915 b6bd 8f6e 22bd
000001b0: 1e55 a93d eedc b03c eca6 c63d 059f 88bd
000001c0: 1862 cebc 2c6e 81bc 52af e23d 8be5 a1bc
000001d0: 2f76 b7bc 1ee6 163d bd65 7f3d 5442 913d
000001e0: a7f1 af3c 75e4 1ebd de2a 723d 73c4 16bc
000001f0: 7de5 c9bc 7e69 f53d c012 8c3d a551 14bc
00000200: c2af 60bd 4490 c93c dad9 b2bd 8594 2fbb
00000210: 9214 42bd 7584 5dbd 35ef 6abd e578 97bd
00000220: 5f70 99bd f665 d4bb bde2 e23d 8d5b a43d
00000230: 286f 44bd 8b6a b2bd d1a2 d4bd f21d 6b3d
00000240: 1635 75bd 34b3 1d3d 8cdf 423d ec06 1e3d
00000250: 5e0f 513a a1fd 233e fee0 a13d 72eb b33c
00000260: 279a 543d 3bcf 5bbd d9e8 b1bd 2cda ef3b
00000270: 6d92 803d 7714 ec3d 178a c2bd f032 843d
00000280: c520 ad3d 7a0c e5bb 296d c0bd 5d91 00be
00000290: 9ddf 133d feb4 38bd 848b d4bd d348 82bd
000002a0: 4a98 ac3d 1c74 523e 2a04 10be feac 613d
000002b0: d358 a43d bab3 fb3c 3420 2abd def0 debd
000002c0: d7cd 1ebb 7e5c e83c a339 62bd fc01 813d
000002d0: 555e fbbd a8ba 88bd 023c 6c3b d9c9 88bc
000002e0: 0dac c73d e046 97bb 1b56 ae3c 0255 dabd
000002f0: 4bc8 83bd 35fa 8e3d 6729 cabd 4765 a0bd
00000300: f593 1f3d d2cc ed3d ac04 233c 9656 093e
00000310: f443 f2bb 6bbf 5bbd c2c6 2bbc 16a9 0f3e
00000320: 9653 233e 9968 6d3d 4c11 973d 067b 23bd
00000330: 4080 033c 1b8b cc3d 34c9 6cbb af45 ecbd
00000340: e4bf d0bd 28f5 0ebe 2643 113d aa5d fcbd
00000350: 3bfb 003d 40bb de3d bb89 b3bc bff9 2e3d
00000360: 084e bfbc 0233 4cbb 1128 293c 081b 7c3d
00000370: 9e60 4c3b deca 86bd 7611 203d d059 78bd
00000380: f836 d53d eb68 ebba df19 093d 87a4 ba3d
00000390: 1f86 d93a 9f8c 843d e266 d9bd db0b 0ebd
000003a0: fd9b eabd 6f71 02bd 9383 55bd 7ed6 a63d
000003b0: 4313 173d 557b 34bc a572 d13c 2d6b 56bc
000003c0: 2727 65bd 977d 7abd 415a 30bd 6b32 d5bc
000003d0: 1b80 933d 7394 c53d 76d6 4fbd c3f1 64bc
000003e0: 2cb7 a33d d295 e73d 592f df3d 9da2 47bd
000003f0: f24b d23d b368 5ebd d5b7 43bd f28e aebd
-0.059653074 0.07365643 0.01027762 0.08357294 0.112512626 0.039442945 -0.040216107 -0.055722564
0.07707152 0.1345706 -0.043982632 -0.06463918 0.13246492 0.1242989 -0.056455202 -0.065591924
0.0058972356 0.078057244 0.016000764 -0.011143343 0.011508508 0.07352183 0.07364509 -0.08074355
-0.037921853 -0.054660972 0.008171238 0.07991156 0.075200476 -0.0451015 -0.114572674 0.07490996
0.11568689 -0.07103381 0.08145794 0.047517933 -0.057569727 -0.10188502 -0.073701434 0.015797013
-0.013237962 0.07842175 0.026145393 0.08065022 -0.08603339 -0.021546708 0.014041625 -0.11999584
-0.046315577 -0.011458257 -0.02038586 0.014011784 0.092859186 0.07104877 0.10870475 0.012596222
0.037646692 -0.07029373 0.004420244 0.07924121 -0.06454241 0.086926654 0.021261256 -0.10305796
0.031115616 0.060606718 -0.08233248 -0.031786587 -0.07200374 0.039340984 -0.07202069 -0.0029732462
-0.04856347 0.11661759 -0.08658298 -0.028224535 0.043083847 0.017316211 -0.11651385 -0.017634578
-0.0010368091 0.05261055 0.05424609 0.097860284 0.07866133 -0.10059357 -0.06539161 0.03998046
0.0650091 0.04941849 0.06926887 -0.067293555 0.021813147 -0.07321181 -0.027408786 -0.08914989
-0.11560605 0.00756163 0.08571724 -0.06568969 -0.015640952 -0.06336522 -0.10554328 -0.10584285
-0.012221144 0.10547004 -0.088907786 -0.03965622 0.08268188 0.021589722 0.096998066 -0.066709556
-0.02519326 -0.015799604 0.11068596 -0.019762775 -0.022395222 0.03684055 0.062352885 0.07092729
0.021477534 -0.038792092 0.059122913 -0.009202111 -0.024645561 0.11983012 0.06839514 -0.009052669
-0.054855116 0.024604924 -0.08732958 -0.0026791405 -0.0473829 -0.0540814 -0.05735703 -0.07396106
-0.07492136 -0.0064818813 0.11078403 0.080252744 -0.04795757 -0.08711728 -0.10382617 0.057401605
-0.05986508 0.03850098 0.047576472 0.03858082 0.0007975007 0.1601472 0.07904242 0.021962855
0.051904824 -0.053664427 -0.0868699 0.0073197093 0.062779285 0.11527341 -0.09498995 0.06455028
0.08453516 -0.0069900127 -0.09395821 -0.12555452 0.036101926 -0.045094483 -0.10378173 -0.06361546
0.08427484 0.20552105 -0.14064088 0.05509662 0.080247544 0.030725349 -0.041534618 -0.108857855
-0.0024231577 0.028364416 -0.055230748 0.062992066 -0.12273852 -0.06676227 0.003604651 -0.016697811
0.09749613 -0.0046166033 0.021281293 -0.10660745 -0.06434687 0.06981317 -0.09871178 -0.07831817
0.038959462 0.11611332 0.009949844 0.13411936 -0.0073933546 -0.053649347 -0.010484399 0.14029345
0.15949854 0.05796108 0.07376346 -0.039912246 0.008026183 0.0998747 -0.0036130669 -0.115367286
-0.1019285 -0.13960707 0.03546443 -0.123225525 0.031489592 0.10875559 -0.021916261 0.042718645
-0.023352638 -0.0031158333 0.010324494 0.061549217 0.0031185518 -0.065816626 0.039079152 -0.060632527
0.10410875 -0.0017960345 0.03347194 0.09113412 0.0016595757 0.06472134 -0.106153265 -0.034679275
-0.11455534 -0.03184646 -0.052127432 0.0814638 0.036883604 -0.011015733 0.025567362 -0.013087076
-0.05594554 -0.061154928 -0.043054823 -0.026025018 0.072021686 0.09647455 -0.050741635 -0.013973656
0.07993922 0.11307873 0.10897703 -0.048739064 0.10268392 -0.054299068 -0.047782738 -0.085233584

fc2.bias f4 [84]
00000000: bf98 b13a 5d55 443d 9c9f a63d 1fd4 b93d
00000010: c21d 063c 5b29 38bd 4118 a53c 4903 c13d
00000020: 14dd 873d 339d 033d ab10 673d 4101 743d
00000030: 1239 bb3d 043d 933d 2c91 ddbc e8a4 67bd
00000040: ced0 a4bd 920a 203d 70ce a4bd 7bb9 ad3c
00000050: cd47 49bd 4ae7 d13c 36fa 433d 06fe 46bd
00000060: e69f 833c e4bd c33c cd2f 96bd 3bec 2d3d
00000070: 4da6 1a3c 77b7 64bd e34a b23d 692e c1bb
00000080: f8c0 873d 6b4b b8bd b0dc a23d 097b b33d
00000090: f59d 49bd 49bd 8abd f81e 473d 424b b53d
000000a0: 7bdf f5bc 9398 df3c 339f 3a3d 0b48 0f3d
000000b0: b41d af3d b141 40bc 83dc 223d ec64 543d
000000c0: 34ab 4bbc b9e6 99bd 431c 20bd 26c2 043d
000000d0: 729a 83bd c12b 433d 451f a63d 7cef 95bd
000000e0: 0340 a73d a24d 2c3d 47cf 46bd 8099 2bbd
000000f0: 4fc9 a4bd b1cf 333c 2d84 82bd 0e01 dbbc
00000100: 70e5 533b f63b 893d 0daa 863c 361c be3c
00000110: a360 923d 9916 d03d a995 8ebc c0c3 143d
00000120: d8f7 283d 76b3 123d 2ea1 503b 7d5a 533d
00000130: 9028 353d ffca 993d 8afe be3c d24f 83bd
00000140: 7436 ccbc 70ee 50bd 03b4 973c 4e7d 5bbd
0.001354955 0.04793297 0.08135912 0.09073662 0.008185806 -0.044961315 0.020153167 0.09424455
0.06633964 0.03213234 0.05641238 0.05957151 0.09141745 0.07189372 -0.027046762 -0.05655375
-0.08047639 0.03907258 -0.08047187 0.021206608 -0.04914074 0.025622983 0.04784604 -0.0485821
0.016067456 0.023894258 -0.07333336 0.042461615 0.009439063 -0.05583903 0.0870569 -0.005895425
0.06628603 -0.0899876 0.07952249 0.087637015 -0.049222905 -0.067743845 0.04861352 0.08852245
-0.03001379 0.027294433 0.04556198 0.034980815 0.08550587 -0.011734412 0.039761078 0.05185406
-0.012430955 -0.0751471 -0.039089452 0.032411717 -0.064259425 0.04764915 0.08111433 -0.07321069
0.08166506 0.042066224 -0.04853752 -0.041894436 -0.08046209 0.01097481 -0.06372867 -0.026733901
0.00323328 0.0670089 0.016438508 0.023206811 0.07147338 0.1016056 -0.017405348 0.036319494
0.041251987 0.03581568 0.0031834352 0.05159997 0.044228137 0.075094216 0.023314733 -0.06411709
-0.024928309 -0.05100864 0.018518453 -0.053586297

fc3.weight f4 [14, 84]
00000000: ceee f0bc 0db0 2e3d d2ad 3fbd 8806 e63c
00000010: 7791 cabd 539e 62be 4aea e6bc 312d 7c3b
00000020: 2ee2 0a3e 0fcc 8dbc 7efd 123e e771 db3d
00000030: 9fc5 253d c496 2bbe ad12 983c e28f ebbc
00000040: 57cd c33d 0ef9 2e3e bb73 65bd 97c1 883d
00000050: 9338 fb3d 40e9 4a3d 296c 06be 1777 82bd
00000060: faf1 b73c 06de a33d 3a79 49bd a464 4d3e
00000070: 54c2 22be 76e1 863c 1e78 c8bd 64d7 27be
00000080: 1826 81bd af63 1dbd c2bf 1e3c b107 083d
00000090: a183 213e 1e07 fcbc f47d 0d3d e714 8bbd
000000a0: 26e7 dcbd c7d9 2f3d d067 76bc 751f 4c3d
000000b0: 5936 fbbc cd48 873c 5fa5 c5bd 6d47 21be
000000c0: a01e e4bd 82ce b93d 9a13 e8bd 0b82 17be
000000d0: 6221 a33d f5d8 493e b348 7c3e d4ec debd
000000e0: ac05 a73c 51f9 b13d 24d5 71bc b456 a93d
000000f0: 8829 1e3c 5dc0 463e 4786 f93d 099d c7bd
00000100: e883 eb3b 6ca8 9ebc b577 59be 75f9 83bc
00000110: a4c3 f5bd b001 9c3d 64d5 54be 3fe4 28bc
00000120: b2a3 313d 99f2 54be e3cf 2a3e b8fe 943d
00000130: a073 bd3d 4279 49bd 2094 a33d 8665 e33d
00000140: 803c 83bd e6ab e03d bb4f a7bb e468 0b3e
00000150: ea8c 583c 018f f5bd 3673 1d3e bef3 56bd
00000160: 6c48 edbd cb6b 23be 95a3 673d 0812 55bd
00000170: 763a 6cbd fb2f 36bb b1a0 0abe c1db 703c
00000180: 7f68 033d 8c19 c63d 4bb2 943c 286d 0d3c
00000190: 3b22 a4bd 10c4 eb3d ecf7 34bd fac6 abbd
000001a0: bad3 703d 10fc 2fbd e6a2 fdbd 02d4 a23d
000001b0: 7962 c5bd ea38 bb3c 86e1 c0bb e391 cf3b
000001c0: 1139 12be 33fd bdbd 02d4 1bbe d26a 5c3d
000001d0: f169 f13d 7f7b 3cbd 1d8d 32be 36bd 9ab9
000001e0: 3e1d 843d 96d8 e6bd e951 163e cbce d6bc
000001f0: f133 e3bd fd4b debc e034 393e 20a0 f2bd
00000200: 3c7c de39 27f6 613e 6119 1e3d fad4 533c
00000210: f121 f23c 9e95 673d 903a ba3d 9f8e 013e
00000220: baad f8bc 0872 3b3c 09c0 453e 06fd 453d
00000230: 9c14 d1bd 5306 10bc 64f2 1ebd 273f 0cbb
00000240: 7ab8 8d3d cc34 abbd 403c 913d 1bbf 543c
00000250: 79e4 e8bd 7005 813d 2c76 48bd bd01 a8bd
00000260: 9aee 98bc f1bd 04be c98d b03b b269 aabc
00000270: 7ae0 a33d b728 1dbe dd45 5a3d 31dc b1bc
00000280: ee65 8e3e 9771 ab3d ab25 533e 90e2 60bd
00000290: f305 71be 98be 46bd be73 913d cfd5 733d
000002a0: 3389 703d 7ea8 f63d c168 f0bc 2588 073e
000002b0: 5a4f 03bd 8bb4 89bd de45 babc b224 c7bd
000002c0: 4c3f b83c 6693 313c 2803 06bd 109d dfbc
000002d0: bae6 d63c d77e 6f3d 09c9 f8bd 3094 02be
000002e0: 54be 653c 9f98 0ebd 8926 523c 7fb0 60bd
000002f0: 5120 2f3e a488 14bd 1560 06be 7129 e1bc
00000300: dfc8 fcbc bce3 7ebd 6915 3ebc 43e3 493e
00000310: d2c6 273e 4627 ebbd 741a 02be 421c 43be
00000320: 40d7 803d 432e 8b3d 86d8 d63d a916 483d
00000330: 1356 bf3d b575 e1bd a716 e4bd cd4c 8dbd
00000340: 5a48 753d bc79 df3c 33af 2ebd bda6 b5bc
00000350: 53c1 ff3c 84ee 903e d7dc 85bd efed 13bd
00000360: b704 543d ae54 d8bd eefd c83d afcb 97bd
00000370: e938 a23d d2f4 ec3b b30c a13c 53a9 ce3d
00000380: 5308 3f3e 8d73 4a3c a370 0fbe da5c 97bc
00000390: 4852 1ebd aaa0 c53d 22bb 933c ca18 71bd
000003a0: c7fd 4abe 064d fc3d 827e c5bd a74e 853d
000003b0: aba6 d8bc d85f 88bc b862 a5bc 8836 49be
000003c0: 7da1 d8bd 0084 2f3d 1f5f 6f38 2e82 c8bd
000003d0: 774d 51bc c938 a73d 763d 39be 02fc c03b
000003e0: 8baa 013e b63c 443e 31f3 a33c d4f6 c73c
000003f0: 232b f73d dec0 2a3d 2b2a 823d 380e fe3c
-0.029410746 0.042648364 -0.046796627 0.028079286 -0.098910265 -0.22130708 -0.02818789 0.0038479085
0.13562843 -0.017309217 0.14354512 0.107150845 0.04047167 -0.16756731 0.018563593 -0.028755132
0.0956065 0.17087194 -0.056018572 0.06677549 0.1226665 0.04953885 -0.13127197 -0.06370371
0.02245425 0.08001332 -0.049187876 0.20057923 -0.15894443 0.01646493 -0.097885355 -0.16390759
-0.06306094 -0.038425144 0.009689273 0.03321046 0.15772869 -0.030765112 0.034543946 -0.06791096
-0.107862756 0.042932298 -0.015039399 0.049834687 -0.030665563 0.016514206 -0.09650683 -0.15749903
-0.11138654 0.09072591 -0.11331864 -0.14795701 0.07965352 0.19711669 0.24637108 -0.10885015
0.020388447 0.086901315 -0.014760289 0.082684904 0.0096534565 0.19409318 0.121838145 -0.09746749
0.0071873553 -0.01936742 -0.21237071 -0.016110161 -0.12000206 0.07617509 -0.20784527 -0.010308324
0.043369003 -0.20795669 0.16680865 0.07275146 0.09250569 -0.049187906 0.07987237 0.111033484
-0.06408024 0.10970287 -0.00510594 0.13614231 0.01321719 -0.119901665 0.1537598 -0.052478544
-0.11586079 -0.15959089 0.05655249 -0.05201915 -0.05767294 -0.0027799595 -0.13537861 0.014700831
0.032082077 0.096728414 0.018151423 0.008631982 -0.080143414 0.11512005 -0.04418175 -0.08387561
0.05879567 -0.042964995 -0.12384586 0.079505935 -0.09637923 0.022854287 -0.0058862595 0.0063345297
-0.14279582 -0.092768095 -0.15217593 0.05381281 0.11787785 -0.046016213 -0.17436643 -0.00029514142
0.0645089 -0.11271779 0.14679684 -0.026221653 -0.110938914 -0.027135843 0.18086576 -0.11846948
0.00042435701 0.22066556 0.038598422 0.012929196 0.0295572 0.05653917 0.09093201 0.12652062
-0.030356277 0.011440761 0.19311537 0.048337005 -0.10209009 -0.00879057 -0.03880538 -0.0021399946
0.06919952 -0.083596796 0.0709157 0.012985016 -0.11371703 0.06299865 -0.048940822 -0.082034566
-0.018668462 -0.12963082 0.005387996 -0.020802353 0.080018 -0.15347563 0.053289283 -0.02171144
0.2781214 0.08371275 0.20619838 -0.054903567 -0.23537426 -0.048521608 0.07102154 0.059530076
0.058724593 0.12043856 -0.029346826 0.13235529 -0.032058097 -0.06723889 -0.022738393 -0.09723796
0.02249112 0.010838365 -0.032717854 -0.027296573 0.026233066 0.058470573 -0.121477194 -0.12751842
0.014022429 -0.03481352 0.01282657 -0.05485582 0.17102171 -0.036263123 -0.1312259 -0.027485581
-0.030857502 -0.062228903 -0.011601784 0.197156 0.16384438 -0.114821 -0.12705404 -0.19053748
0.06291056 0.06795933 0.10490517 0.048849735 0.09342589 -0.11008779 -0.11137133 -0.06899414
0.059883453 0.027279727 -0.04264755 -0.022174234 0.031220114 0.28306973 -0.065362625 -0.036115583
0.05176231 -0.10563026 0.09814058 -0.074118964 0.07921011 0.0072313333 0.019659376 0.1009089
0.18655519 0.012356651 -0.14007811 -0.018476892 -0.03865269 0.09649785 0.018033568 -0.05886153
-0.19823371 0.123193786 -0.0964327 0.06509142 -0.026446661 -0.016647264 -0.020188674 -0.19649708
-0.105776764 0.042850494 5.707063e-05 -0.09790455 -0.012774817 0.08165128 -0.18089852 0.0058894167
0.12662713 0.19163784 0.020013424 0.024409689 0.120687746 0.04168784 0.06355699 0.03101264

fc3.bias f4 [14]
00000000: f289 8bbd 6989 ff3d 0da1 8bbd 6be6 d1bd
00000010: b8f5 f1bd 5b00 61bc 8a2f c43d 1873 09bd
00000020: 760c 433c 9b7d ce3d 1d86 893d 8e13 1dbd
00000030: 60a8 a93d 6ff0 5a3d
-0.0681342 0.12477381 -0.068178274 -0.10249027 -0.11814445 -0.013732995 0.0957938 -0.033557028
0.011904826 0.10082551 0.06715033 -0.038348727 0.08284068 0.05345195
