Classifier/weights/HASY_weights.pth (torch, 647763 bytes, 10 tensors)

conv1.weight f4 [6, 1, 5, 5]
0	0xbe6bb805	-0.23019417
1	0x3e38acc0	0.18034649
2	0x3d8d0b48	0.06886917
3	0x3e1be403	0.15223698
4	0xbe840916	-0.25788182
5	0x3f094b5f	0.5363063
6	0x3f376378	0.7163615
7	0x3f0e98f9	0.5570217
8	0x3f0ff64f	0.5623521
9	0x3e961d4e	0.29319233
10	0x3e93edb9	0.28892305
11	0x3eaca7bf	0.3372173
12	0x3e49e607	0.19716655
13	0x3ec5942b	0.38589606
14	0x3eb00fc9	0.34387043
15	0xbeae8974	-0.34089243
16	0xbf22fe7d	-0.6366957
17	0xbf0c682e	-0.54846466
18	0xbe7e6e59	-0.24846782
19	0xbcce5a76	-0.02518962
20	0xbf0198a2	-0.50623524
21	0xbf09509e	-0.5363864
22	0xbf2660d3	-0.6499149
23	0xbf2070a1	-0.6267186
24	0xbe80e33e	-0.25173372
25	0x3e30523b	0.17218868
26	0x3c7711cb	0.015079926
27	0xbea28875	-0.31744733
28	0xbd41cd9d	-0.04731523
29	0xbdf46745	-0.119337596
30	0xbea23039	-0.31677416
31	0xbecfd22b	-0.40590033
32	0xbe378230	-0.17920756
33	0xbefd1134	-0.49427187
34	0xbebf798b	-0.37397417
35	0xbed05b7b	-0.40694794
36	0xbe5b8787	-0.21438418
37	0xbf0035b5	-0.5008195
38	0xbecc94aa	-0.39957172
39	0xbe367041	-0.17816259
40	0xbdca12b6	-0.0986685
41	0xbeef41ba	-0.46729833
42	0xbe88bd66	-0.26707
43	0xbebfd67d	-0.3746833
44	0xbe1a1338	-0.15046394
45	0x3e38c2bc	0.18043035
46	0xbc84784d	-0.016170645
47	0xbdaaf9d8	-0.08348435
48	0xbbc76559	-0.0060850796
49	0x3d74e1b0	0.059785545
50	0xbdec5c74	-0.115410715
51	0x3dc4fb0a	0.096181944
52	0x3e88dbd2	0.2673021
53	0x3d1d6a1d	0.038431276
54	0x3ddd6d64	0.1081188
55	0x3ee4f71c	0.4471978
56	0x3e8347ea	0.25640804
57	0x3dd895f5	0.10575477
58	0x3d033a1b	0.032037836
59	0x3e556817	0.20840488
60	0x3e84487f	0.2583656
61	0x3dc533e2	0.096290365
62	0x3e2f5594	0.17122489
63	0x3e77cd05	0.24199302
64	0xbc5f3f4c	-0.013625931
65	0xbe9763cd	-0.2956833
66	0xbe6249c5	-0.22098453
67	0xbd291c29	-0.04128662
68	0xbe934241	-0.28761485
69	0xbe7ecb8b	-0.24882333
70	0xbe96fe69	-0.29490975
71	0xbe885357	-0.26626083
72	0xbee0b4ff	-0.4388809
73	0xbd946571	-0.07245911
74	0xbda6e4b0	-0.081490874
75	0xbdddc4d4	-0.108285576
76	0xbe163557	-0.14668785
77	0x3d40f800	0.04711151
78	0xbe02b659	-0.12764873
79	0x3e667b46	0.22507963
80	0xbe7e6104	-0.24841696
81	0xbe933562	-0.28751665
82	0xbe2e4cf8	-0.17021549
83	0xbe8e221b	-0.27760395
84	0xbe8dd45c	-0.2770108
85	0xbeaec2e9	-0.3413308
86	0xbe9ad070	-0.3023715
87	0xbefba2c9	-0.49147633
88	0xbee3c1fc	-0.44483936
89	0xbec06c77	-0.37582752
90	0xbeb0f7b4	-0.34563982
91	0xbeb59218	-0.35463023
92	0xbe96b9f8	-0.29438758
93	0xbe5f8ba8	-0.21830618
94	0xbc970846	-0.018436562
95	0x3daa19c7	0.08305698
96	0xbcfad64b	-0.030619761
97	0xbe2b0a9a	-0.16703263
98	0x3e25f6a6	0.1620737
99	0xbd2ba92a	-0.041909374
100	0x3d07678d	0.033057738
101	0xbe2e0f12	-0.16997936
102	0xbed12d32	-0.40854794
103	0xbf140654	-0.57822156
104	0xbdb062e7	-0.08612614
105	0x3ecfb9f9	0.40571573
106	0x3e4a7e11	0.19774653
107	0xbf06dd93	-0.52681845
108	0xbe9599e3	-0.2921897
109	0xbec3201f	-0.38110444
110	0x3efa70fd	0.48914328
111	0x3dc96ad1	0.09834827
112	0xbdce1eaf	-0.10064446
113	0xbf14f45f	-0.5818538
114	0xbf01b140	-0.5066109
115	0x3eff4a83	0.49861535
116	0x3ee6b943	0.45063218
117	0x3e42b652	0.19014862
118	0xbe12ab08	-0.14323056
119	0xbe89d5d9	-0.26920965
120	0x3e7b75a1	0.2455659
121	0x3ee26a58	0.4422176
122	0x3edc1952	0.42988068
123	0x3e08a287	0.1334325
124	0x3dbc2d7f	0.09188365
125	0xbe548d51	-0.20757033
126	0xbdd4737c	-0.103735894
127	0x3db5a76d	0.088698246
128	0xbd86fbd0	-0.06590998
129	0xbe8604d9	-0.26175573
130	0xbcd8e7fc	-0.026477806
131	0x3dc9402d	0.09826694
132	0x3edfd83d	0.43719664
133	0x3e759ad9	0.23984851
134	0xbdb779a2	-0.089587465
135	0x3ee79f1d	0.4523858
136	0x3f23c563	0.63973063
137	0x3e913263	0.28358755
138	0xbdd985d9	-0.106212325
139	0xbebc383b	-0.3676165
140	0x3e8e15ff	0.27751157
141	0x3f1cfa52	0.6131946
142	0xbd824587	-0.063609175
143	0xbec5de23	-0.3864604
144	0xbf4cb9f9	-0.7997127
145	0x3ebaee06	0.36509722
146	0x3e9e2640	0.30888557
147	0x3dd190df	0.1023271
148	0xbecdd5a6	-0.40202063
149	0xbf3da95a	-0.74086535

conv1.bias f4 [6]
0	0x3ef91efe	0.48656458
1	0x3e57633e	0.21033952
2	0x3d49520b	0.049150508
3	0x3e32dafd	0.1746635
4	0x3eacb11f	0.33728883
5	0x3f07ebf5	0.53094417

conv2.weight f4 [16, 6, 5, 5]
0	0xbdcaf746	-0.09910445
1	0xbdd7d882	-0.105393425
2	0xbd920fb4	-0.071319014
3	0x3dd058a9	0.101731606
4	0xbca3c1b6	-0.01998983
5	0x3c9cc3e9	0.019136386
6	0xbd253b08	-0.0403395
7	0xbda008d8	-0.07814187
8	0xbc5e9c95	-0.013587137
9	0xbcd6a372	-0.026200984
10	0x3e2384bf	0.15968607
11	0x3e68a083	0.2271748
12	0x3e815be3	0.25265417
13	0x3e0c9c75	0.13731559
14	0x3e0a15e1	0.13484909
15	0x3d5e0ea8	0.054213196
16	0x3d728dd5	0.059217293
17	0x3e82e5d2	0.25565964
18	0x3e9dfbe6	0.30856246
19	0x3e6f0861	0.2334304
20	0xbd7e901c	-0.062149152
21	0xbd8003fc	-0.0625076
22	0xbdc74fd0	-0.0973202
23	0xbd84b72a	-0.06480248
24	0xbd9d4ac0	-0.07680273
25	0x3d3bdc27	0.04586425
26	0x3c91fd44	0.017820962
27	0x3d76a9f1	0.060220663
28	0x3df85408	0.12125403
29	0x3b9e19ff	0.0048248763
30	0x3d860483	0.06543829
31	0x3c845161	0.016152086
32	0x3a9193e5	0.0011106698
33	0x3e2ea53b	0.17055218
34	0x3d4c0ff3	0.049819898
35	0xbe2b88ac	-0.16751355
36	0xbdd5c85a	-0.10438605
37	0xbe098079	-0.13427915
38	0xbe038fc7	-0.12847815
39	0xbdb9409d	-0.09045527
40	0xbdda627d	-0.106633164
41	0x3cfcbe83	0.030852562
42	0xbd17da41	-0.037073378
43	0xbdb5d9f7	-0.08879464
44	0xbdd9a3ff	-0.10626983
45	0x3c315819	0.010824227
46	0xba280d6b	-0.0006410691
47	0x3d2fef74	0.04295297
48	0x3ddc4665	0.10755614
49	0xbcc5d313	-0.0241485
50	0x3d1556cd	0.036459733
51	0xbd9eb3f5	-0.07749168
52	0xbd8eb216	-0.06967561
53	0xbcbf5df4	-0.02336023
54	0x3ce4f743	0.027949935
55	0xbcac7423	-0.021051472
56	0xbd714164	-0.058900252
57	0x3d3b882a	0.045784153
58	0xbd7d4b8d	-0.06183963
59	0xbc3f9360	-0.011692852
60	0x3d85bcc3	0.06530144
61	0x3df0180b	0.11723336
62	0x3de29762	0.1106403
63	0x3d731551	0.0593465
64	0x3d9e4eed	0.07729898
65	0x3ae9b56e	0.001783056
66	0x3d2d401d	0.04229747
67	0x3d6413d8	0.055682987
68	0x3e0f8b7f	0.14018057
69	0x3e1a3a64	0.15061337
70	0xbdde5788	-0.10856539
71	0xbdcf314e	-0.10116826
72	0xbd604c9f	-0.05476057
73	0x3d3ba00a	0.045806922
74	0xbda55ed7	-0.0807473
75	0x3d0bb04d	0.03410368
76	0x3df8aa3d	0.121418454
77	0x3d46ae6e	0.048506193
78	0x3dc4c759	0.09608335
79	0x3cd0f7a6	0.025508713
80	0x3d2f581a	0.04280863
81	0x3d731093	0.05934198
82	0x3bfa3bc2	0.007636518
83	0x3ddc1149	0.107454844
84	0x3dfbeec6	0.12301402
85	0xbd0aa756	-0.03385099
86	0xbdf3b4e1	-0.11899734
87	0xbe56466a	-0.20925298
88	0xbdfa83dc	-0.122321814
89	0xbc39daab	-0.011343638
90	0x3c30c693	0.010789531
91	0xbd30c320	-0.043154836
92	0xbd9a105f	-0.07522654
93	0xbe03ad2d	-0.1285903
94	0x3d285bc9	0.04110316
95	0x3d54d96d	0.051965166
96	0xbc239fd3	-0.0099868355
97	0x3dba6158	0.09100598
98	0x3de6083d	0.1123204
99	0x3b5ee4a6	0.0034010797
100	0x3d7e207e	0.062042706
101	0x3e019cf5	0.1265753
102	0x3b1f495c	0.00243052
103	0xbdb5b859	-0.08873052
104	0xbd8b1e25	-0.06792859
105	0x3d99cef1	0.07510174
106	0x3e5174f8	0.20454776
107	0x3e3895d2	0.18025902
108	0x3ddd3993	0.10801997
109	0x3dac8afe	0.08424948
110	0x3d993428	0.07480651
111	0x3d87f297	0.06638067
112	0x3bb58603	0.005539657
113	0x3e2b49b3	0.16727333
114	0x3d9330a2	0.0718701
115	0x3d6d1caf	0.057888683
116	0xbd81e4f6	-0.06342499
117	0xb9d2ca97	-0.00040205262
118	0xbe19c267	-0.15015565
119	0xbd988606	-0.07447438
120	0xbb84f202	-0.00405717
121	0xbc566c57	-0.013087354
122	0xbc74be54	-0.014937956
123	0xbdf25f2c	-0.11834559
124	0xbde63d64	-0.11242178
125	0xbbca6b7b	-0.0061773635
126	0xbdc3deb4	-0.095639616
127	0xbdc0f026	-0.09420805
128	0xbdcbca9c	-0.09950754
129	0xbe4819df	-0.19541119
130	0xbcd3872d	-0.025821293
131	0x3cbb64e7	0.022875262
132	0xbc6b8aeb	-0.014376382
133	0xbd73602e	-0.059417896
134	0xbd9061d5	-0.0704991
135	0x3e10db5c	0.14146179
136	0x3e030f80	0.12798882
137	0x3d04fce7	0.03246775
138	0xbcd7a5ce	-0.026324179
139	0x3d4066dc	0.046973094
140	0xbc53b602	-0.012921812
141	0x3c6afbc3	0.014342251
142	0xbb400994	-0.0029302584
143	0x3d9d0539	0.07667012
144	0x3da344a8	0.079720795
145	0xbd52924b	-0.051409047
146	0xbd8bb0a9	-0.068208046
147	0xbd808d29	-0.06276924
148	0x3aae8443	0.0013314564
149	0x3d446a09	0.047952686
150	0x3d04bfdd	0.032409538
151	0xbd4de703	-0.050269138
152	0xbe2f42f0	-0.17115378
153	0xbe105d3d	-0.14098068
154	0x3be0b482	0.0068574557
155	0x3dba73dd	0.091041304
156	0x3d8e8631	0.06959189
157	0x3e66808b	0.22509973
158	0x3e7c415d	0.24634309
159	0x3ee0ca2c	0.43904245
160	0x3d5dc1c9	0.054139886
161	0x3df42b0a	0.119222715
162	0x3e230499	0.15919723
163	0x3e3936c7	0.18087302
164	0x3df4fc38	0.119621694
165	0xbd27b933	-0.040948104
166	0xbc9d95a2	-0.01923639
167	0xbd662eb8	-0.0561969
168	0xbe17ed1f	-0.14836548
169	0xbe071b3c	-0.13193983
170	0x3e08842c	0.1333167
171	0x3c6e81d7	0.014557323
172	0x3d67ddea	0.056608118
173	0x3d2a1efe	0.041533463
174	0xbc733d48	-0.014846154
175	0x3d4f3d5d	0.05059563
176	0x3d3c573d	0.045981634
177	0x3d39d3f0	0.045368135
178	0x3cb5cd74	0.022192694
179	0xbdd78f92	-0.10525431
180	0xbc8a8167	-0.016907407
181	0xbcfa9ae0	-0.030591428
182	0xbe3f075a	-0.18655148
183	0xbe296c67	-0.16545258
184	0xbd8e1750	-0.0693804
185	0x3d7e8ea1	0.06214774
186	0xbd66b629	-0.056326065
187	0xbd64c6af	-0.055853542
188	0x3bc1fad4	0.0059197936
189	0x3ce74bf5	0.028234461
190	0xbb5d90c9	-0.0033808223
191	0x3dc631c8	0.09677464
192	0x3e4dace4	0.20085484
193	0x3e27a2ca	0.16370693
194	0xbc498866	-0.012300586
195	0x3d6a4236	0.05719205
196	0x3c3a95c0	0.011388242
197	0x3d6f97c0	0.05849433
198	0xbcb8dcba	-0.022566188
199	0x3b35e9a1	0.0027757662
200	0x3ce5d86a	0.028057296
201	0xbd83576f	-0.06413161
202	0x3d7497ac	0.059714958
203	0xbca6b17c	-0.020348303
204	0x3d2adfc9	0.041717324
205	0xbc2958c8	-0.0103361085
206	0xbcf5e3b3	-0.030015802
207	0x3e1688ed	0.1470067
208	0x3db1b8c3	0.086778186
209	0x3e544e37	0.20732962
210	0xbd3ccc88	-0.046093494
211	0x3ddf2456	0.108956024
212	0x3db897bf	0.09013318
213	0x3e1ff0fd	0.15619273
214	0x3e0dae2d	0.13835974
215	0xbca4bd5a	-0.020109821
216	0x3d27cdc1	0.040967707
217	0xbd84de89	-0.06487758
218	0xbd735d55	-0.05941518
219	0x3c2e35fd	0.010632989
220	0x3d8d8f4a	0.06912096
221	0x3d0a4ac0	0.033762693
222	0x3c85bf43	0.016326552
223	0xbd38c8f5	-0.045113523
224	0x3d89e154	0.06732431
225	0x3b850e4e	0.004060543
226	0x3c5bc544	0.013413731
227	0xbc4f7e88	-0.012664445
228	0x3d245592	0.04012067
229	0xbdae1ca3	-0.08501556
230	0xbd4eb46c	-0.050465032
231	0xbdaeec3f	-0.08541154
232	0xbdbacd89	-0.09121234
233	0xbe47c402	-0.19508365
234	0xbd56a8a8	-0.052406937
235	0xbd42d476	-0.0475659
236	0xbc231924	-0.009954724
237	0xbd3b96e4	-0.045798197
238	0x3de82821	0.11335779
239	0x3d4d8100	0.050171852
240	0x3e0bb7b5	0.13644297
241	0x3da8c032	0.08239783
242	0x3d880914	0.066423565
243	0x3de571ab	0.11203321
244	0x3cd97158	0.026543304
245	0x3c67fff9	0.01416015
246	0x3ba0f5ef	0.00491213
247	0xbcb152df	-0.021645961
248	0x3cf17ca6	0.029478382
249	0x3d5b3590	0.053517878
250	0x3e3b1bdf	0.1827235
251	0x3e11a086	0.14221391
252	0x3dd6beaf	0.10485589
253	0x3db516d9	0.088422485
254	0x3da7708a	0.08175762
255	0x3d8b64c2	0.068063274

conv2.bias f4 [16]
0	0x3a92bae6	0.0011194616
1	0x3c9b97c3	0.018993264
2	0x3d8b4b90	0.06801522
3	0xbc926ad5	-0.017873207
4	0x3daad83d	0.083420254
5	0xbd60d219	-0.054887865
6	0x3d8cb647	0.06870704
7	0xbc93610d	-0.017990613
8	0xbc250018	-0.010070823
9	0x3d8bab7b	0.06819817
10	0xbd71f2cc	-0.05906944
11	0x3c5cbc6c	0.013472658
12	0x3dadf14a	0.08493288
13	0x3d5d11d5	0.053972084
14	0xbd620847	-0.055183675
15	0xbc48f705	-0.012265925

fc1.weight f4 [120, 256]
0	0x3da4cf54	0.08047357
1	0x3ce06405	0.027391443
2	0x3d8b2def	0.067958705
3	0x3ca56250	0.02018848
4	0xbd08394c	-0.033257768
5	0x3c0fe2b7	0.00878208
6	0xbd000d6d	-0.031262804
7	0xbd7f7960	-0.06237161
8	0xbd64f132	-0.055894084
9	0xbd410ba1	-0.04713023
10	0xba1f3d98	-0.0006074547
11	0x3cfb1251	0.030648382
12	0xbc22c3bb	-0.009934361
13	0x3cb657ee	0.022258725
14	0xbcc2f020	-0.023796141
15	0xbc28edee	-0.010310633
16	0xbd40501e	-0.046951406
17	0xbc6971ad	-0.014248294
18	0xbc125bd1	-0.008933024
19	0xbd195842	-0.037437685
20	0x3d65693a	0.056008555
21	0x3c85ef64	0.016349502
22	0x3c8a529a	0.01688509
23	0xbd22b684	-0.03972484
24	0x3cff2ff5	0.031150797
25	0xbbcda20d	-0.0062754215
26	0xbd847a61	-0.064686544
27	0xbcdd4d93	-0.02701453
28	0xbd982782	-0.074294105
29	0x3c3b6045	0.011436527
30	0xbd7084fb	-0.05872057
31	0xbba1dc9b	-0.0049396283
32	0x3a980269	0.0011597398
33	0x3d38c8b5	0.045113284
34	0xbaeaea7a	-0.0017922663
35	0x3cc96dca	0.024588484
36	0x3d5331bb	0.0515611
37	0xbd509826	-0.05092635
38	0xbc407842	-0.011747422
39	0x3d104583	0.03522254
40	0x3b84aa99	0.004048657
41	0x3b005bae	0.0019585895
42	0x3c5afc8e	0.013365878
43	0xbd47b147	-0.04875305
44	0x3da6f58c	0.08152303
45	0x3c19b5ef	0.009381755
46	0xbca30f24	-0.01990468
47	0x3c8954b2	0.016764019
48	0x3cde94bf	0.027170537
49	0xbc89a29c	-0.016801171
50	0xbd41d861	-0.047325496
51	0x3c7925bb	0.01520675
52	0x3d108859	0.03528628
53	0xbd1ccc7b	-0.038280945
54	0xbb8225fe	-0.003971814
55	0xbcbc2a55	-0.022969404
56	0x3d82414f	0.06360113
57	0xbd4b8a4c	-0.049692437
58	0x3d3ba55a	0.04581199
59	0x3d92183a	0.07133527
60	0xbd532561	-0.05154932
61	0xbc91eaa7	-0.017812086
62	0x3c278eba	0.0102269
63	0xbd392e8d	-0.04521041
64	0xbd05bd71	-0.03265137
65	0xbd512dbc	-0.051069006
66	0xbd84ab5b	-0.06477996
67	0x3d45f4cb	0.048329156
68	0xbc849968	-0.016186431
69	0xbd5b5611	-0.053548876
70	0xbd54c19c	-0.051942453
71	0xbc5d859e	-0.013520626
72	0xbd4eb74e	-0.05046778
73	0xbd0dbaec	-0.03460209
74	0xbd6edce7	-0.058316138
75	0x3c54eff5	0.012996663
76	0xbd395886	-0.04525044
77	0x3d3c64e9	0.045994673
78	0xbd16fa57	-0.036859836
79	0x3d2f7e79	0.042845223
80	0x3d4668af	0.048439678
81	0x3cb31554	0.021860756
82	0x3d11bb80	0.035579205
83	0xbd1a0fe1	-0.0376128
84	0xbd83656f	-0.06415831
85	0x3c934b5d	0.017980272
86	0xbd5a3dd7	-0.05328163
87	0x3d6479c1	0.055780176
88	0x3c8e2f1b	0.017356446
89	0x3b416e6b	0.0029515277
90	0xbda832e9	-0.08212835
91	0x3d18aa60	0.037271857
92	0xbcf34281	-0.029694797
93	0xbd76ba07	-0.060236003
94	0x3d7595ce	0.059957318
95	0x3c55af9d	0.013042358
96	0x3d1bb636	0.038015567
97	0x3c0e70ee	0.008693917
98	0x3d5159aa	0.0511109
99	0x3d11d049	0.035599027
100	0xbd38892a	-0.045052685
101	0xbce3950b	-0.02778103
102	0xbdbc53fd	-0.09195707
103	0xbccbec8c	-0.024893068
104	0x3c40610e	0.01174189
105	0x3d1f27df	0.038856383
106	0xbd4fd45f	-0.050739642
107	0xbce54a0e	-0.027989414
108	0xbcc4ffef	-0.02404782
109	0xbc4756db	-0.012166704
110	0x3be53d7d	0.0069958554
111	0xbd144d98	-0.03620681
112	0xbd62419e	-0.05523836
113	0x3d8b08e4	0.06788805
114	0x3d0caeb9	0.034346316
115	0x3c32aba7	0.010905183
116	0x3c687788	0.014188655
117	0xbb2eddd8	-0.0026682522
118	0x3ca94fb5	0.02066789
119	0xbacf57af	-0.0015818978
120	0xbd7c22ea	-0.061556734
121	0xbd2bda12	-0.041956015
122	0x36878603	4.0389145e-06
123	0x3c54db70	0.012991771
124	0x3d1aae9a	0.03776417
125	0xbd731acf	-0.05935174
126	0x3c8f7881	0.017513515
127	0x3c40c767	0.011766291
128	0xbd7222fb	-0.05911539
129	0xbd28d155	-0.04121526
130	0xbc84ac68	-0.016195491
131	0x3cf6c4b6	0.030123096
132	0x3c9f440f	0.019441633
133	0xbd4cc3cf	-0.049991425
134	0x3d5c8ce5	0.053845305
135	0xbc41099b	-0.011782075
136	0x3cbcfd83	0.023070103
137	0x3cafdfa9	0.021468954
138	0x3c6bc932	0.01439123
139	0xbcee7762	-0.02910966
140	0xbd8b82fb	-0.06812092
141	0xbd1926b4	-0.037390426
142	0xbd07a71a	-0.033118345
143	0x3cccb98a	0.024990816
144	0x3d3b8923	0.04578508
145	0x3d7bb92a	0.061455883
146	0x3d831d9d	0.06402133
147	0x3dab4e55	0.0836455
148	0xbc0b1062	-0.008487793
149	0x3d21f1f5	0.03953739
150	0x3aa91f7a	0.0012903058
151	0xbc843094	-0.016136445
152	0xbc18ee29	-0.009334126
153	0x3d99feb6	0.075192854
154	0x3d61bccf	0.055111703
155	0x3c2caf0a	0.010539779
156	0xbcc60073	-0.024170136
157	0xbd168faf	-0.03675812
158	0x3cbbadef	0.022910086
159	0x3cf12c7e	0.02944016
160	0x3d668df5	0.056287725
161	0x3a4f7950	0.00079145003
162	0xbc321e8d	-0.010871542
163	0x3d071869	0.032982264
164	0xbcd9279a	-0.026508141
165	0xbd23b079	-0.03996322
166	0xbc62ae0d	-0.013835442
167	0x3bd371b5	0.006452764
168	0xbb28d408	-0.0025761146
169	0x3d188f08	0.03724578
170	0x3cbd9df0	0.0231466
171	0xbc5ed67e	-0.013600944
172	0xbbd0076b	-0.0063485405
173	0xbd3e5cc8	-0.0464752
174	0x3d7b6cb7	0.061382975
175	0x3c3aec4a	0.011408875
176	0xbd12a046	-0.03579738
177	0xbc9099bc	-0.017651431
178	0x3d669842	0.056297548
179	0x3c576125	0.01314572
180	0xbd79a537	-0.060948577
181	0x3cd5d526	0.026102614
182	0xbcf280b8	-0.029602394
183	0x3bbefc91	0.005828448
184	0x3a869dee	0.0010270455
185	0xbb788850	-0.0037923045
186	0xbcd44ac7	-0.025914563
187	0x3d37be03	0.044858944
188	0xbcf4bbd5	-0.029874722
189	0x3d416060	0.04721105
190	0x3d601867	0.054710772
191	0xbd062074	-0.032745793
192	0x3cce1da5	0.02516062
193	0xbd82cbb9	-0.06386513
194	0x3c58f1d0	0.013241246
195	0x3d1d55c6	0.038411878
196	0x3bf925e8	0.0076033957
197	0x3c55d2f0	0.01305078
198	0x3cc03b5a	0.023465801
199	0x3ca01498	0.01954107
200	0x3d33d5df	0.043905135
201	0x3c821503	0.01587916
202	0xbd172092	-0.036896296
203	0xbd81511d	-0.06314299
204	0x3d4435ab	0.047902744
205	0x3d0ae5ba	0.03391049
206	0xbc2a9d77	-0.010413519
207	0x3cf590f8	0.029976353
208	0xbbf95ff5	-0.007610316
209	0x3c3dde88	0.0115887
210	0xbd101f5b	-0.035186153
211	0xbd272fbb	-0.040817004
212	0x3d3fb038	0.046798915
213	0x3cda1ba8	0.026624516
214	0x3d782e30	0.060590923
215	0x3cd37346	0.025811803
216	0xbd718b45	-0.05897071
217	0xbd12801d	-0.03576671
218	0xbcfcfe9c	-0.030883126
219	0x3ce4261f	0.027850209
220	0xbd563614	-0.052297667
221	0x3bf0315d	0.0073301033
222	0xbd85e35e	-0.065375075
223	0xbd2f56a5	-0.04280724
224	0xbca2339e	-0.019800004
225	0x3d15c225	0.036562104
226	0xbd56e251	-0.052461926
227	0xbda7d8d8	-0.081956565
228	0xbc858f7e	-0.016303774
229	0xbd173aae	-0.036921196
230	0xbd9ee00f	-0.077575795
231	0xbc8cf972	-0.017208789
232	0xbcc89b28	-0.024488047
233	0x3d530c80	0.051525593
234	0xbc8f37a3	-0.017482584
235	0xbb839f50	-0.0040167943
236	0x3d120344	0.035647646
237	0xbcec5850	-0.028850704
238	0xbbbf7e38	-0.005843904
239	0x3d882bb8	0.06648964
240	0x3d41210f	0.047150668
241	0x3d4fe249	0.05075291
242	0x3d09c89a	0.033638574
243	0x3d34a539	0.04410288
244	0xbd22474c	-0.039618775
245	0x3c9a38df	0.018825946
246	0xbd9c68e1	-0.076371916
247	0x3d8a2eef	0.06747233
248	0xbd34db93	-0.044154715
249	0xbd1c9174	-0.038224652
250	0x3c81a55e	0.015825924
251	0x3d39c7ac	0.045356438
252	0xbd8ae664	-0.06782225
253	0xbcfdabe3	-0.030965751
254	0x3c8cc272	0.017182563
255	0x3b405684	0.0029348442

fc1.bias f4 [120]
0	0x3c9328d8	0.017963812
1	0x3d55f048	0.052231103
2	0x3c24fd81	0.010070206
3	0x3d06c498	0.03290233
4	0xbd1466e3	-0.036230933
5	0xbb11c9bc	-0.0022245487
6	0xbd21303a	-0.039352633
7	0x3d035a81	0.032068733
8	0x3c789e1f	0.015174418
9	0xbcec9ab1	-0.028882356
10	0xbd2ce6b6	-0.04221221
11	0xbd433c82	-0.047665127
12	0xbd3cc774	-0.04608865
13	0xbd3b148b	-0.04567389
14	0x3d310cd3	0.04322512
15	0x3d1cf81f	0.038322564
16	0x3ce778ca	0.028255839
17	0x3affb7ce	0.0019509734
18	0x3c588c6d	0.013217074
19	0x3d4def2c	0.05027692
20	0xbd0e7742	-0.034781702
21	0x3d4d4487	0.05011418
22	0xbd69ba77	-0.057062592
23	0xbc761ce0	-0.015021533
24	0xbb8bf8e8	-0.0042716153
25	0x3bf696b0	0.0075252876
26	0xbd353ed3	-0.044249367
27	0x3cd9368a	0.026515264
28	0x3d26c022	0.040710576
29	0x3c80c307	0.015717996
30	0xbd122e97	-0.035688963
31	0x3d7a641b	0.061130624
32	0x3ae4b840	0.001744993
33	0xbd5f3ead	-0.05450313
34	0x3d1ac3ad	0.037784267
35	0xbc93751a	-0.018000174
36	0x3cea4415	0.028596917
37	0x3d98edf4	0.07467261
38	0x3d21218f	0.039338645
39	0xbcf87006	-0.030326854
40	0x3d385a79	0.045008156
41	0xbd7c5670	-0.06160587
42	0x3ce1bf4b	0.027557036
43	0x3c726c02	0.014796259
44	0x3d800d30	0.06252515
45	0xbc1d726b	-0.009609799
46	0xbb5cea64	-0.0033709044
47	0x3d40c670	0.047064245
48	0xbc103bee	-0.008803351
49	0xbd276f66	-0.040877722
50	0xbcd25a4a	-0.025677819
51	0xbcc868bc	-0.024464004
52	0xbcf70b74	-0.030156828
53	0xbd08b77f	-0.03337812
54	0xbd730cda	-0.059338428
55	0x3c464539	0.012101465
56	0xbd4d0187	-0.050050285
57	0x3d7aa269	0.061190043
58	0xbbe51494	-0.0069909785
59	0xbcecb7d1	-0.028896244
60	0x3d83796e	0.06419645
61	0x3d731f6d	0.05935614
62	0x3d156462	0.036472686
63	0x3c7cc7e6	0.015428519
64	0x3cf00095	0.029297153
65	0xbd16f884	-0.036858097
66	0xbd02828f	-0.03186279
67	0x3d54e434	0.051975444
68	0xbc05ed08	-0.008174188
69	0xbc462725	-0.012094294
70	0x3d7cb8e5	0.061699767
71	0x3d3592f8	0.044329613
72	0x3b7ef2d9	0.0038902073
73	0x3cbc17f3	0.022960639
74	0x3b3fd74e	0.0029272619
75	0xbd1b1114	-0.037858084
76	0x3d7c64f5	0.061619718
77	0x3d8e242c	0.06940493
78	0x3d831983	0.0640135
79	0x3d1683aa	0.03674666
80	0x3d693b2d	0.0569412
81	0xbd11f950	-0.035638154
82	0xbc631563	-0.013860079
83	0x3d57fde4	0.052732363
84	0x3bc808bc	0.006104557
85	0xbc1edf81	-0.009696842
86	0x3c8822d6	0.016618174
87	0x3d1f4d8d	0.038892318
88	0xbc0b6b52	-0.008509474
89	0x3ccad1a4	0.024758168
90	0xbd0284c8	-0.03186491
91	0xbd632afd	-0.05546092
92	0xbaea0180	-0.001785323
93	0x3cfdc831	0.030979248
94	0xbc780ce9	-0.015139797
95	0xbd83dff4	-0.064392
96	0x3d8a09ff	0.06740188
97	0xbcce25ae	-0.025164451
98	0xbc85e1be	-0.016342994
99	0x3d2528f6	0.040322267
100	0xbd74d9a5	-0.059777874
101	0x3d07fd74	0.033200696
102	0x3ca448cf	0.02005425
103	0xbd6a2f78	-0.057174176
104	0x3d319d9b	0.043363195
105	0xbb6199ab	-0.0034423869
106	0xbcc3d73a	-0.023906339
107	0xbae205f7	-0.0017244209
108	0xbcbf563e	-0.023356553
109	0x3c7df9d0	0.0155014545
110	0x3d1d89d8	0.038461536
111	0x3cc67b21	0.024228634
112	0xbb8cfa7d	-0.0043023215
113	0x3d6ab71b	0.05730353
114	0x3c976b0c	0.018483661
115	0xbd7a89b5	-0.061166484
116	0xbd64f67b	-0.055899125
117	0x39df7f7d	0.0004262886
118	0x3bb45c66	0.005504179
119	0xbd2af61a	-0.041738607

fc2.weight f4 [84, 120]
0	0xbd77dd38	-0.060513705
1	0x3d9410e7	0.07229786
2	0x3ceef38a	0.029168863
3	0x3dac57ec	0.08415207
4	0x3dc6bdd5	0.09704176
5	0x3d056060	0.032562613
6	0xbd1ca881	-0.038246635
7	0xbd239574	-0.03993745
8	0x3dbefc94	0.09325519
9	0x3dace99f	0.08442997
10	0xbce329b8	-0.027729854
11	0xbd972de6	-0.07381801
12	0x3df76ffd	0.12081907
13	0x3dac28d7	0.08406227
14	0xbd6370e8	-0.055527598
15	0xbd86587d	-0.065598466
16	0x3be7662f	0.007061742
17	0x3d75d53e	0.060017817
18	0x3c8e8291	0.017396243
19	0xbb8e4d3c	-0.004342703
20	0x3cccdf3e	0.025008794
21	0x3d9e2795	0.077223934
22	0x3dd6f6ef	0.104963176
23	0xbd94e080	-0.072693825
24	0xbccec091	-0.025238307
25	0xbd2ab89f	-0.041679975
26	0x3bf550af	0.007486425
27	0x3dada912	0.08479513
28	0x3db0da3e	0.086353764
29	0xbd0f0ea7	-0.034926083
30	0xbddf31a5	-0.10898141
31	0x3d9f5c6e	0.077813014
32	0x3d78b05a	0.060715057
33	0xbd6b0762	-0.057380088
34	0x3d7d2fc9	0.06181315
35	0xbcd0e850	-0.0255014
36	0xbd981ceb	-0.07427391
37	0xbdad83d8	-0.08472413
38	0xbda48ce2	-0.08034684
39	0x3c8168bd	0.015797013
40	0xbc761201	-0.015018941
41	0x3d71b36c	0.059009
42	0x3cd5f020	0.026115477
43	0x3d8e2a13	0.06941619
44	0xbd810e55	-0.06301562
45	0xbc9f22ad	-0.019425714
46	0x3bca2d55	0.006169955
47	0xbda8aa1a	-0.08235569
48	0xbd7f143c	-0.062275156
49	0xbc0c1787	-0.008550531
50	0x3ba60eb4	0.0050676707
51	0x3d011583	0.031514656
52	0x3de31c96	0.11089437
53	0x3d8f98f2	0.07011594
54	0x3db95b05	0.09050564
55	0x3d0807d3	0.033210587
56	0x3d18f150	0.03733951
57	0xbd7818c2	-0.060570486
58	0x3b52bae3	0.003215485
59	0x3d916e29	0.071010895
60	0xbd8f35e7	-0.06992703
61	0x3d9af3da	0.07566042
62	0x3ac97abd	0.0015371662
63	0xbda84b14	-0.08217445
64	0x3d3b1662	0.045675643
65	0x3d140163	0.036134135
66	0xbdd9f389	-0.10642154
67	0xbd087d5f	-0.03332269
68	0xbd9376b2	-0.07200374
69	0x3d318af5	0.04334541
70	0xbcc8e7a0	-0.02452451
71	0xbb3f7e65	-0.0029219624
72	0xbd1ac4c1	-0.037785295
73	0x3dc4b252	0.096043244
74	0xbdb3fb8f	-0.08788215
75	0xbc8e7908	-0.017391697
76	0x3d171c37	0.036892142
77	0x3a2679ca	0.00063505454
78	0xbdae7963	-0.085192464
79	0xbbc867e6	-0.0061159013
80	0xbd2e06a2	-0.042486794
81	0x3c6ab055	0.014324267
82	0x3d15c5f9	0.036565755
83	0x3ddd5aa4	0.10808304
84	0x3d95dddd	0.07317708
85	0xbde5c70b	-0.11219605
86	0xbd84a849	-0.0647741
87	0x3d43e9d9	0.047830436
88	0x3d0688a9	0.032845173
89	0x3a8c6c11	0.0010713359
90	0x3d8bae44	0.06820348
91	0xbd52e2a4	-0.051485673
92	0x3c0e08dc	0.008669104
93	0xbd9c718f	-0.07638847
94	0xba772d8b	-0.00094290887
95	0xbdd822c4	-0.10553506
96	0xbdea6e5c	-0.11446831
97	0x3c20153f	0.00977069
98	0x3dbfeb30	0.0937103
99	0xbdaeaf05	-0.08529476
100	0xbb8f5ad3	-0.0043748408
101	0xbd7bc9a5	-0.0614716
102	0xbdefcd3f	-0.117090695
103	0xbdd37f18	-0.103269756
104	0xbcf45a62	-0.029828254
105	0x3dc0c08f	0.09411728
106	0xbd89156c	-0.06693539
107	0xbc9778d7	-0.018490238
108	0x3d9da6dd	0.07697842
109	0x3cb0dcee	0.021589722
110	0x3dd6e26e	0.10492407
111	0xbd88d9b5	-0.06682149
112	0xbd899ca7	-0.06719332
113	0xbc8171b3	-0.015801286
114	0x3da53a84	0.080678016
115	0xbc9fe7c8	-0.019519702
116	0xbcc9c9c6	-0.024632346
117	0x3d13bded	0.0360698
118	0x3d5b0230	0.053468883
119	0x3d9408f9	0.07228274
120	0x3bbf2ba6	0.0058340607
121	0xbcea2b1a	-0.028585006
122	0x3d25d1ab	0.040483158
123	0xbc08a16d	-0.008339268
124	0xbbcefdf8	-0.0063168965
125	0x3d711b27	0.058863785
126	0x3d911091	0.07083238
127	0xbc34441a	-0.011002565
128	0xbd513518	-0.051076025
129	0x3ce57894	0.028011598
130	0xbd67179a	-0.056418993
131	0x3b7e7514	0.0038827108
132	0xbd8862d3	-0.06659474
133	0xbd629a82	-0.05532313
134	0xbd8abe9d	-0.06774638
135	0xbd97795c	-0.07396194
136	0xbd96f9f9	-0.07371897
137	0x3befe2bc	0.00732073
138	0x3ddfcedd	0.10928128
139	0x3c426db7	0.011866978
140	0xbdafd3ee	-0.08585344
141	0xbd724167	-0.059144404
142	0xbdb9f1d0	-0.09079325
143	0x3d2da4cc	0.04239349
144	0xbdaf3c99	-0.0855648
145	0xbbbd590a	-0.0057784365
146	0x3d41c0b0	0.0473029
147	0x3d1985fd	0.037481297
148	0x3b7465dd	0.003729216
149	0x3e28c31c	0.16480678
150	0x3d6412f7	0.05568215
151	0x3cb6aeee	0.02230021
152	0x3d2d476e	0.04230445
153	0xbd44b87b	-0.048027497
154	0xbdc37ede	-0.09545682
155	0xbba1fea9	-0.004943688
156	0x3d89e5b1	0.06733263
157	0x3de35d84	0.11101821
158	0xbdaa822d	-0.0832561
159	0x3d8432f0	0.06455028
160	0x3d4df1c7	0.050279405
161	0xbc98dd87	-0.01866032
162	0xbd9e3915	-0.07725731
163	0xbdd0ff54	-0.1020495
164	0x3cf9e4ce	0.03050461
165	0xbd3b4fa3	-0.045730244
166	0xbda4c924	-0.08046177
167	0xbcd15dd6	-0.02555744
168	0x3d8de822	0.069290414
169	0x3e2af677	0.16695581
170	0xbdb3027d	-0.08740709
171	0x3d562d7a	0.052289464
172	0x3ccab6c1	0.024745347
173	0x3d76ef05	0.06028654
174	0xbd651798	-0.055930704
175	0xbd9be6e4	-0.07612398
176	0x39c41a70	0.0003740373
177	0x3cc926f7	0.024554713
178	0xbdbe6493	-0.09296527
179	0x3d9b0311	0.07568944
180	0xbdd2dd7f	-0.10296153
181	0xbd573f9b	-0.052550893
182	0xbbfaf6f6	-0.0076588346
183	0xbc9b39ab	-0.018948397
184	0x3debb875	0.11509792
185	0x3cf4b1ab	0.029869875
186	0x3ad0fb3d	0.0015944015
187	0xbddaab62	-0.1067722
188	0xbd83c84b	-0.06434687
189	0x3d96d537	0.07364886
190	0xbd9f04b4	-0.07764569
191	0xbda0273f	-0.078199856
192	0x3d3c3d35	0.04595681
193	0x3e012002	0.12609866
194	0x3d414f25	0.04719462
195	0x3e05d199	0.13068236
196	0xbcf9b622	-0.030482356
197	0xbd3ad2c3	-0.045611154
198	0x3cddda42	0.027081612
199	0x3e179c50	0.14805722
200	0x3e03cd9c	0.12871403
201	0x3cbc28a7	0.022968603
202	0x3d8bb3a0	0.0682137
203	0xbcd189f8	-0.025578484
204	0xbcab147d	-0.020883793
205	0x3d3ba466	0.04581108
206	0x3b29c892	0.0025906903
207	0xbe12e3ad	-0.14344664
208	0xbdc49f30	-0.09600675
209	0xbe0a7875	-0.13522513
210	0x3ce6851b	0.028139642
211	0xbdf976fe	-0.12180899
212	0x3c7cbcd1	0.015425877
213	0x3dc3370c	0.09531984
214	0xbcc1d900	-0.023663044
215	0x3d2bff18	0.041991323
216	0xbce38e10	-0.027777702
217	0x3c3afe8f	0.011413231
218	0x3cda3fab	0.026641687
219	0x3d3b1c06	0.045681022
220	0xbc66e21e	-0.0140919965
221	0xbd894484	-0.067025214
222	0x3d0e5db2	0.034757324
223	0xbdd9c1ef	-0.10632693
224	0x3d535524	0.05159487
225	0x3cfabc4e	0.030607369
226	0x3cebd668	0.02878876
227	0x3dfecaf2	0.124410525
228	0xba4673b3	-0.0007570341
229	0x3d848c9f	0.06472134
230	0xbd99c1f0	-0.07507694
231	0xbd127601	-0.03575707
232	0xbde6a3b3	-0.11261692
233	0xbd0276f0	-0.03185171
234	0xbd96ca98	-0.073628604
235	0x3dac68b5	0.08418409
236	0x3d0b0418	0.03393945
237	0xbc37b159	-0.011211717
238	0x3d28ede8	0.04124251
239	0x3c518b6f	0.012789591
240	0xbd16e3dc	-0.036838397
241	0xbd054f09	-0.032546077
242	0xbcd307b4	-0.02576051
243	0xbcb726e2	-0.022357408
244	0x3d4f3ebc	0.050596938
245	0x3dc5f6f5	0.09666244
246	0xbd535c2a	-0.051601566
247	0xbc951e12	-0.018202815
248	0x3d805104	0.062654525
249	0x3da0ad4d	0.078455545
250	0x3de588e1	0.11207748
251	0xbd6f8e83	-0.05848552
252	0x3db9144d	0.09037075
253	0xbda00b93	-0.078147076
254	0xbd6fdd9c	-0.058560953
255	0xbdae8a83	-0.08522513

fc2.bias f4 [84]
0	0xba12824c	-0.0005588874
1	0x3d4e274b	0.05033044
2	0x3db63e8f	0.08898651
3	0x3dab2653	0.08356919
4	0x3bf7dbe7	0.007564056
5	0xbd2fb082	-0.04289294
6	0x3c887a1a	0.016659785
7	0x3dc5d161	0.096590765
8	0x3d84010b	0.064455114
9	0x3ce252ed	0.027627433
10	0x3d88bb64	0.06676367
11	0x3d50d6ab	0.050985973
12	0x3dc63992	0.096789494
13	0x3d963170	0.07333648
14	0xbcb9b03d	-0.022667045
15	0xbd5ee4f3	-0.05441756
16	0xbda871b9	-0.08224816
17	0x3d017f4d	0.031615544
18	0xbd9f2764	-0.07771185
19	0x3cc760a8	0.024338081
20	0xbd5d36f6	-0.054007493
21	0x3c9823ab	0.018571695
22	0x3d3cd6f0	0.046103418
23	0xbd5ef527	-0.054433014
24	0x3c839fe6	0.016067456
25	0x3cc3b5b7	0.02389036
26	0xbd95ee04	-0.073207885
27	0x3d01e277	0.031710114
28	0x3bfbcce4	0.007684337
29	0xbd3b3cec	-0.045712397
30	0x3db3a590	0.08771813
31	0xbb31891b	-0.0027089778
32	0x3d947b4b	0.07250079
33	0xbdb84b6b	-0.0899876
34	0x3d9039d4	0.0704228
35	0x3dd187fc	0.10231015
36	0xbd47695b	-0.04868446
37	0xbd94cf0a	-0.07266052
38	0x3d320b62	0.043467887
39	0x3db10d84	0.08645156
40	0xbc8fff8f	-0.017577915
41	0x3d0d3434	0.034473613
42	0x3d104261	0.035219554
43	0x3d1aff17	0.03784093
44	0x3dac024e	0.08398877
45	0xbc2b76f3	-0.010465371
46	0x3d24c2e7	0.040224936
47	0x3d441580	0.047872066
48	0xbc0b57a5	-0.008504783
49	0xbd9d3ff6	-0.07678215
50	0xbd17898e	-0.036996417
51	0x3ccfd389	0.025369423
52	0xbd849e49	-0.06475503
53	0x3d4c270d	0.04984193
54	0x3d97d51a	0.07413693
55	0xbd987ac8	-0.07445294
56	0x3db707c4	0.08937028
57	0x3d29b91f	0.04143631
58	0xbd514ae7	-0.051096823
59	0xbd285eab	-0.041105907
60	0xbd9f6894	-0.077836186
61	0x3b9f1637	0.004854943
62	0xbd9df7aa	-0.07713254
63	0xbcdb1caa	-0.026747067
64	0x3c26897f	0.010164618
65	0x3d9a1bb6	0.07524817
66	0x3ca36ab0	0.019948334
67	0x3cdbdde2	0.0268392
68	0x3da7b263	0.081883214
69	0x3dc2d7a3	0.09513786
70	0xbcd1a119	-0.025589513
71	0x3d30a08c	0.04312186
72	0x3d14135f	0.036151286
73	0x3d04a1a6	0.032380722
74	0x3c07f80c	0.008298885
75	0x3d5356f9	0.051596615
76	0x3d13b5c5	0.03606202
77	0x3d96bbf0	0.07360065
78	0x3cde1a74	0.027112223
79	0xbd8cab06	-0.06868558
80	0xbcbab41f	-0.022790967
81	0xbd626e55	-0.055281002
82	0x3c59c0ab	0.0132905645
83	0xbd80f8e9	-0.06297476

fc3.weight f4 [14, 84]
0	0x3e021c54	0.12706119
1	0xbda27def	-0.07934176
2	0x3de193d0	0.11014521
3	0xbd4b5521	-0.049641732
4	0x3e1cd229	0.15314545
5	0xbd53dfb8	-0.051727027
6	0xbc8339bd	-0.016018743
7	0x3d62b409	0.055347476
8	0xbdbf8755	-0.093519844
9	0x3cfd4fc3	0.030921822
10	0xbd908c71	-0.07058037
11	0xbd640a4a	-0.055673875
12	0x3e282cd5	0.16423352
13	0xbd1025e3	-0.03519238
14	0xbc3d73b8	-0.011563234
15	0x3d140a1d	0.036142457
16	0x3d55f70b	0.05223755
17	0x3b4da956	0.003138145
18	0x3e007f00	0.12548447
19	0x3e20bfb1	0.15698124
20	0x3da5efd1	0.08102382
21	0xbd74674e	-0.05966883
22	0xbc9b30de	-0.0189442
23	0xbb3f2c47	-0.0029170678
24	0xbac755d1	-0.001520807
25	0xbc7437a2	-0.014905842
26	0x3b229d7d	0.0024813109
27	0x3e23f3b0	0.16010928
28	0x3bec4097	0.007209848
29	0x3d9abdb4	0.07555714
30	0xbdfd9fd4	-0.123840004
31	0xbe129a46	-0.14316663
32	0xbe0648ff	-0.13113783
33	0x3cb1fc23	0.021726673
34	0xbe4be106	-0.19910058
35	0x3d977af1	0.07396496
36	0xbe07fdc9	-0.13280405
37	0x3dc020b5	0.09381238
38	0xbc957939	-0.01824628
39	0xbd28bd1e	-0.04119598
40	0xbe13ad2b	-0.14421527
41	0x3daa6324	0.08319691
42	0xbdf0e279	-0.11761946
43	0x3d82c032	0.063843146
44	0xbe7bdec4	-0.24596697
45	0x3d737ff9	0.059448216
46	0x3d8f87d0	0.07008326
47	0x3c8084cf	0.015688328
48	0x3d9f12d7	0.07767265
49	0x3c7f03c7	0.015564865
50	0x3b722114	0.0036945986
51	0x3ba378fa	0.0049887868
52	0xbdfb1bee	-0.122611865
53	0x3d21b25d	0.03947674
54	0xbe4e043f	-0.20118807
55	0x3cc3abe2	0.023885671
56	0xbd3c013d	-0.04589962
57	0x3d27a650	0.040930092
58	0x3dd401ed	0.1035193
59	0x3d3f76bb	0.04674409
60	0x3c4efb3a	0.012633139
61	0x3dc67673	0.09690561
62	0xbdb0f57b	-0.08640572
63	0xbd8df341	-0.069311626
64	0x3cad5c26	0.021162104
65	0x3e5d8fa8	0.21636832
66	0xbddf61c9	-0.10907323
67	0x3d3cc8b9	0.04608986
68	0x3e1220fe	0.14270398
69	0x3df27e47	0.11840492
70	0xbd4ae690	-0.049536288
71	0xbe04baa8	-0.12961829
72	0xbdb47991	-0.088122495
73	0x3cc0b7f6	0.02352522
74	0x3d7cdcdc	0.061734065
75	0x3c147c85	0.009062891
76	0x3deeacbd	0.11654041
77	0xbd9e9005	-0.07742313
78	0xbd3f7b0a	-0.0467482
79	0x3da4da21	0.08049417
80	0xbcce8237	-0.025208576
81	0xbd94b870	-0.07261741
82	0x3d6b936a	0.057513632
83	0x3e3a822e	0.18213722
84	0x3cb625e1	0.022234859
85	0x3dbb027d	0.09131334
86	0xbdab7a3e	-0.08372925
87	0x3dcbd7fb	0.099533044
88	0xbd417b22	-0.04723657
89	0xbc96f80e	-0.018428829
90	0x3c4385c1	0.011933745
91	0x3c0b5624	0.008504424
92	0xbe0b1dd2	-0.13585594
93	0xbdb227de	-0.0869901
94	0xbd5fc07b	-0.054626923
95	0xbcdbfaa0	-0.026852906
96	0x3db6e45a	0.08930273
97	0x3e527850	0.20553708
98	0x3da40774	0.08009234
99	0x3c9846c4	0.018588431
100	0xbc9254e4	-0.017862745
101	0x3c6c90ae	0.014438791
102	0xbda62deb	-0.08114227
103	0x3d907af4	0.070547014
104	0x3cbf53d1	0.023355396
105	0xbd8fc260	-0.07019496
106	0x3c048fed	0.008090955
107	0x3d841ba2	0.06450583
108	0xbd7c638d	-0.061618377
109	0x3dc02cd5	0.09383551
110	0xbdaba6d1	-0.08381427
111	0xbd908f08	-0.07058531
112	0x3d062e9a	0.032759286
113	0xbda9e079	-0.08294768
114	0xbc263c68	-0.010146238
115	0xbe16b581	-0.14717676
116	0x3d84c3d3	0.06482663
117	0x3c5750d0	0.013141826
118	0xbe5f9411	-0.21833827
119	0x3e3fdd87	0.1873685
120	0x3e1c42de	0.15259883
121	0xbdebf57c	-0.11521432
122	0xbd12b71f	-0.03581917
123	0xbd16220b	-0.03665356
124	0xbbc02686	-0.0058639674
125	0x3d0d70ca	0.034531392
126	0xbdba955f	-0.091105215
127	0x3e40e448	0.18837082
128	0xbc0195aa	-0.007909218
129	0xbe4a8e22	-0.19780782
130	0x3e342894	0.17593604
131	0xbe16ef33	-0.14739685
132	0xbd9828e6	-0.07429676
133	0x3dab8a5b	0.083759986
134	0xbd9a65e6	-0.07538967
135	0xbcabd736	-0.020976644
136	0xbd85001d	-0.06494162
137	0x3d8d6ebf	0.06905889
138	0xbde22489	-0.11042125
139	0x3dbffd59	0.09374494
140	0x3e1eb122	0.15497258
141	0xbe3a5566	-0.1819664
142	0x3d8baf80	0.06820583
143	0xbd4b2040	-0.049591303
144	0x3d90981a	0.07060261
145	0x3db2ca2e	0.08729969
146	0x3d4bee96	0.04978808
147	0xbda6ab67	-0.08138161
148	0xbd389daa	-0.045072235
149	0x3e877503	0.2645646
150	0xbbdafcb1	-0.006682955
151	0x3da3d3da	0.07999392
152	0x3e0aee49	0.13567461
153	0x3d55c71b	0.052191835
154	0xbd8a7993	-0.0676147
155	0x3e10e845	0.14151104
156	0xbda4aba4	-0.0804055
157	0xbe599789	-0.21249212
158	0xbcf31370	-0.029672354
159	0xbda42d18	-0.080164135
160	0xbdcb75a5	-0.09934548
161	0xbd8d76d4	-0.0690743
162	0xbd2c3007	-0.04203799
163	0xbda43b3b	-0.0801911
164	0x3d170469	0.03686944
165	0xbc91a094	-0.017776765
166	0xbd950bc8	-0.07277638
167	0x3dcfb912	0.10142721
168	0x3d8281e2	0.063724294
169	0xbd4d63a8	-0.050143868
170	0xbe064114	-0.13110763
171	0xbcb871a2	-0.022515122
172	0x3e7f9cb7	0.24962126
173	0xbe091361	-0.13386299
174	0x3ca3ac33	0.019979572
175	0x3e02c088	0.12768757
176	0xbb547222	-0.0032416661
177	0x3c83cb6d	0.016088212
178	0xbd7ae5a6	-0.061254166
179	0xbc77a6ac	-0.015115421
180	0xbe19efc1	-0.15032865
181	0xbe082c4c	-0.13298148
182	0xbdf33167	-0.11874657
183	0xbcfccdf2	-0.030859921
184	0xbd820c9a	-0.0635006
185	0xbd4ff95c	-0.050774917
186	0x3d665676	0.0562348
187	0xbe3b4121	-0.18286563
188	0x3dff3918	0.12462062
189	0x3d241d00	0.04006672
190	0x3dc9f5d4	0.09861341
191	0xbc403944	-0.011732403
192	0x3cc3b6bf	0.023890851
193	0xbd9629f1	-0.073322184
194	0xbd741e89	-0.059599433
195	0xbe3902a2	-0.1806741
196	0x3d90825a	0.070561126
197	0xbd0325ce	-0.032018475
198	0xbe12e971	-0.14346863
199	0xbdf34fea	-0.11880477
200	0x3dce2809	0.1006623
201	0xbce5fc1e	-0.02807432
202	0x3dc19c05	0.094535865
203	0xbdba9eca	-0.09112318
204	0xbe2f386f	-0.17111371
205	0xbe1c14a0	-0.15242243
206	0x3d1395e6	0.036031626
207	0x3e13a8aa	0.14419809
208	0xbd80b309	-0.06284148
209	0xbd18bc37	-0.03728887
210	0xbe310109	-0.17285551
211	0xbe291691	-0.16512515
212	0x3d9847fd	0.07435606
213	0x3e0faf24	0.14031655
214	0xbe86c432	-0.2632156
215	0x3d848ed4	0.06472555
216	0x3d5d92fd	0.054095257
217	0xbdde0337	-0.10840457
218	0x3d82107a	0.06350799
219	0xbddc4636	-0.10755579
220	0x3e4be892	0.19912937
221	0xbda4e405	-0.08051304
222	0xbda5a2c9	-0.080876894
223	0xbc53dedf	-0.012931555
224	0x3e1a8055	0.15088017
225	0x3b07e816	0.00207377
226	0xbd103864	-0.03521003
227	0x3c48eb27	0.012263096
228	0x3ded36e0	0.11582732
229	0x3e118edf	0.14214657
230	0xbd3abc31	-0.04558963
231	0x3d89ac35	0.06722299
232	0xbd79d745	-0.060996313
233	0x3e270df5	0.16313918
234	0x3df11dea	0.11773284
235	0x3cc7b2c5	0.024377236
236	0x3c95bf9f	0.018279849
237	0x3d567fd4	0.052368
238	0xbe6ba5ac	-0.23012418
239	0x3cd0fe83	0.025511986
240	0xbcb3a19c	-0.021927647
241	0x39c16363	0.00036885877
242	0x3e0999b1	0.13437535
243	0xbd155df1	-0.036466543
244	0x3ccab288	0.024743333
245	0xbd10fa5c	-0.03539501
246	0xbdb3c0fd	-0.08777044
247	0xbd0a6fb4	-0.033797935
248	0x3bfbed5c	0.0076882076
249	0xbbe4c952	-0.006982007
250	0x3e023e6b	0.12719123
251	0x3d375db0	0.04476708
252	0x3c9e5bfc	0.019330971
253	0x3cbadf7b	0.022811642
254	0xbdd9189f	-0.10600399
255	0x3e14534a	0.14484897

fc3.bias f4 [14]
0	0xbdbf651c	-0.09345457
1	0x3d87cf78	0.066313684
2	0x3dbfa9fe	0.09358595
3	0x3dd0bb12	0.10191931
4	0xbddd593a	-0.10808034
5	0x3aa07684	0.0012242352
6	0xbd8b179b	-0.06791612
7	0xbc8de023	-0.01731879
8	0xbe01572c	-0.1263091
9	0x3cba7222	0.0227595
10	0xbdb6b13d	-0.08920524
11	0x3dc8c1a2	0.098025575
12	0x3d2495b0	0.040181816
13	0x3dc33ebe	0.095334515
