Classifier/weights/HASY_weights.pth (torch, 185889 bytes, 10 tensors)

conv1.weight f4 [6, 1, 5, 5]
0.23278241 0.40690017 -0.06105585 -0.22600555 -0.28168958 0.3946093 0.39790976 -0.17812695
-0.24276555 -0.31086546 0.35810617 0.44855583 -0.16880678 -0.2996147 -0.15640317 0.48891154
0.23295508 -0.16328219 -0.38556215 -0.083958425 0.38001567 0.4036619 -0.056811765 0.07834596
-0.19794418 -0.12108594 0.12755813 0.064329 0.24935186 0.36554983 0.10896798 -0.27889478
-0.3888203 -0.07869866 -0.14723927 0.41720188 -0.0059985765 -0.54162717 -0.3913566 -0.2640126
0.14929216 0.24002753 -0.16166238 0.062846184 0.027156595 0.3093758 0.57917076 0.49367163
0.30858985 -0.00879502 0.13868327 0.2429268 -0.28913897 0.08757284 0.32996327 -0.065752886
0.5370874 0.5305638 0.043849792 0.08124375 0.13893566 0.16913213 0.2714999 -0.035263184
-0.06897852 -0.5181676 -0.42573 -0.051549505 -0.094155185 -0.19973949 -0.52801615 -0.63250804
-0.29602468 -0.13693115 -0.039816443 0.2748872 0.44678754 0.31536278 0.5558535 0.43870196
0.1879797 0.42148694 0.20522395 0.16557752 0.25490698 -0.2534557 -0.07244024 -0.14816532
-0.014055826 0.10392972 -0.17972255 -0.46541253 -0.48430616 -0.36924303 -0.40002337 -0.15827529
-0.28344092 -0.3361015 -0.35217178 -0.3410611 -0.01924382 0.043276925 -0.31758088 -0.4066606
0.0062076533 0.22317205 -0.17795001 -0.2973357 -0.4029717 -0.102468945 0.1650411 0.008741315
0.10479902 0.1439854 0.2053213 0.22265643 -0.013332999 0.39611676 -0.047546938 -0.25158364
-0.25643137 0.2421391 0.36221406 0.31466526 -0.17460304 -0.06949513 -0.24374378 -0.30073085
-0.31077564 -0.26223007 -0.26045635 -0.21908964 -0.1921408 -0.4118582 -0.2754256 -0.11789663
-0.1950022 -0.39362496 -0.18619102 -0.2724322 0.034358256 -0.099815466 -0.16129574 -0.05008662
-0.045412745 0.31596518 0.29680786 0.23274796 0.051014 0.44192043
00000000: 835e 6e3e 3855 d03e b315 7abd 006e 67be
00000010: 9e39 90be 3b0a ca3e d4ba cb3e e966 36be
00000020: 8897 78be c229 9fbe b159 b73e 1ca9 e53e
00000030: afdb 2cbe 1967 99be 2728 20be 9d52 fa3e
00000040: c78b 6e3e 7233 27be 6768 c5be 65f2 abbd
00000050: 6a91 c23e c6ac ce3e 74b3 68bd d973 a03d
00000060: e1b1 4abe e8fb f7bd 999e 023e ecbe 833d
00000070: 1856 7f3e 5929 bb3e 9b2a df3d 4ccb 8ebe
00000080: 7413 c7be c32c a1bd e4c5 16be 7c9b d53e
00000090: b58f c4bb 14a8 0abf e45f c8be a92c 87be
000000a0: 0be0 183e c7c9 753e d38a 25be 80b5 803d
000000b0: 8277 de3c 8166 9e3e 8944 143f 87c2 fc3e
000000c0: 7dff 9d3e fd18 10bc fd02 0e3e cec1 783e
000000d0: 060a 94be 6459 b33d f2f0 a83e 73a9 86bd
000000e0: 8f7e 093f 07d3 073f d79b 333d 2063 a63d
000000f0: 2645 0e3e f930 2d3e 0902 8b3e 2170 10bd
00000100: 9c44 8dbd a2a6 04bf 48f9 d9be 9325 53bd
00000110: 6fd4 c0bd 8288 4cbe 112c 07bf 0cec 21bf
00000120: 8c90 97be ae37 0cbe 9116 23bd 04be 8c3e
00000130: 56c1 e43e 3b77 a13e 6a4c 0e3f 8b9d e03e
00000140: c07d 403e 23cd d73e 3a26 523e 278d 293e
00000150: 2b83 823e f2c4 81be 8c5b 94bd a6b8 17be
00000160: 684a 66bc 1bd9 d43d 3009 38be 8d4a eebe
00000170: faf6 f7be 6c0d bdbe ddcf ccbe eb12 22be
00000180: 2b1f 91be 7f15 acbe dc4f b4be 8f9f aebe
00000190: 37a5 9dbc 2543 313d f699 a2be d135 d0be
000001a0: 9269 cb3b 3787 643e 8738 36be 633c 98be
000001b0: 4f52 cebe 3ddb d1bd 8900 293e bc37 0f3c
000001c0: dea0 d63d e970 133e bf3f 523e 0c00 643e
000001d0: a772 5abc d1cf ca3e 94c0 42bd 92cf 80be
000001e0: f94a 83be 50f3 773e 1f74 b93e ce1b a13e
000001f0: 24cb 32be 7653 8ebd f897 79be 65f9 99be
00000200: fc1d 9fbe 0543 86be 895a 85be 0959 60be
00000210: 8fc0 44be 14df d2be 9604 8dbe ca73 f1bd
00000220: a8ae 47be 3689 c9be dca8 3ebe 3c7c 8bbe
00000230: 3ebb 0c3d 0d6c ccbd b62a 25be a127 4dbd
00000240: b702 3abd 30c6 a13e 33f7 973e 7b55 6e3e
00000250: 0ef4 503d 6543 e23e

conv1.bias f4 [6]
0.05556141 0.28950027 0.3596527 0.16965257 0.011434511 -0.13712908
00000000: 5c94 633d 6139 943e 6624 b83e 67b9 2d3e
00000010: d157 3b3c 916b 0cbe

conv2.weight f4 [16, 6, 5, 5]
0.025745941 -0.090549745 -0.1131939 -0.03200622 -0.053522814 -0.11446852 -0.13662112 -0.08672097
-0.042844273 -0.10580376 0.049788427 -0.036251087 -0.039742954 -0.09031172 -0.0023600585 0.015058492
0.019586535 -0.03043335 0.036002647 0.10824342 -0.068015166 0.056838192 -0.005415889 0.074983425
0.08197266 -0.046327394 -0.010504247 0.13581495 0.06468971 0.107614 0.09756717 0.1628305
0.20924714 0.11428083 0.09972345 0.08353592 0.13827519 0.02140969 0.08817555 -0.033627193
0.006598084 0.10978035 -0.094130024 -0.0066499147 -0.028091585 0.06727916 -0.012412073 0.021960357
-0.011137994 -0.0024004534 0.02250837 0.09887886 0.12794252 0.14631058 0.1632773 0.0828808
0.04771484 0.08670931 0.03365502 -0.086426765 -0.071939364 0.09675979 0.055203155 0.0033818893
-0.08070782 0.013676958 -0.011126132 0.01840221 -0.005443371 0.0010205714 0.06320752 -0.07874434
-0.009596072 0.12017779 0.05273625 -0.023185898 -0.029002063 -0.012359371 0.17606248 0.145875
0.15053213 0.10463698 -0.08808201 -0.027210156 -0.18608591 0.04698265 0.040612824 0.069975145
-0.111095905 0.04381908 -0.046967737 -0.016375275 -0.002247658 -0.13997155 -0.036298424 -0.007000408
-0.19233204 0.016875163 -0.119815886 0.020071011 0.06461564 0.084850155 0.11010802 0.017841542
-0.10025864 0.07591461 0.12152271 0.043411463 0.044807814 0.09664916 0.014493019 0.0056178467
-0.0340286 0.14199933 0.13091317 0.05522366 -0.04149829 0.061591025 0.0026473566 0.014135883
0.009328794 0.08729973 -0.052052286 -0.08313514 0.0167885 0.024354866 0.06055632 0.06329557
-0.0011651287 0.11268673 0.030800547 0.02361524 0.083564706 0.12352993 0.051760543 0.105407834
-0.061684504 -0.041100267 -0.048154872 -0.08548127 0.013899825 -0.12617953 -0.022158261 -0.0989474
-0.11325751 -0.013362813 -0.16315636 -0.0751848 -0.04185038 -0.0698915 -0.007996839 0.0408902
-0.02810502 0.06241134 -0.039115846 -0.021853112 -0.052614212 0.06762994 0.029459624 -0.02121312
-0.030693911 0.056671508 -0.06364002 -0.065347515 0.060536623 0.060924336 -0.07403584 0.027842151
0.07382396 0.059198152 0.055538934 -0.0018521026 -0.03633875 -0.040891897 -0.026590552 -0.05327941
0.022063542 -0.041987002 0.00010534243 -0.086411215 0.005784866 -0.07073906 0.03309142 -0.05370976
0.012125592 0.006524697 -0.07718277 -0.029776292 -0.028803945 -0.029577788 0.006652228 -0.03982924
-0.04796679 -0.03314431 0.03766101 0.052017506 -0.080434114 0.045228943 0.040438667 -0.06517123
-0.016171915 0.027313199 -0.0027285512 -0.061545067 -0.021813812 -0.06088125 -0.08246333 0.003981021
-0.0344442 -0.0021771423 -0.014341395 -0.072719924 0.054474078 0.06823507 0.008096113 -0.022282965
0.037685864 -0.058697745 -0.029028442 0.05397828 0.011149319 -0.016528156 0.04581504 0.07560159
0.007578317 -0.04451029 0.068037875 0.0060221558 -0.073698856 0.07963838 0.012356052 -0.0830292
0.010611253 -0.014189756 -0.074975036 0.06935005 -0.056777723 -0.040315315 -0.03277221 0.02820759
0.073968805 -0.07621601 0.0041192006 0.03714833 0.063970976 -0.025749488 0.0159509 -0.08049332
-0.009676535 -0.06033752 -0.05189768 -0.044542816 0.038264364 0.07187706 0.049171284 -0.07636009
00000000: 27e9 d23c 2572 b9bd 34d2 e7bd f418 03bd
00000010: bd3a 5bbd 796e eabd 68e6 0bbe c49a b1bd
00000020: 7a7d 2fbd a4af d8bd f3ee 4b3d 057c 14bd
00000030: 82c9 22bd 5af5 b8bd 36ab 1abb e5b7 763c
00000040: f173 a03c 5c4f f9bc 8377 133d baae dd3d
00000050: 894b 8bbd 2acf 683d c577 b1bb e990 993d
00000060: 48e1 a73d cbc1 3dbd 011a 2cbc 1313 0b3e
00000070: 0a7c 843d bb64 dc3d 4cd1 c73d 0abd 263e
00000080: e244 563e 110c ea3d cf3b cc3d e114 ab3d
00000090: 0398 0d3e 6063 af3c 6295 b43d abbc 09bd
000000a0: bd34 d83b 85d4 e03d 3ec7 c0bd 87e7 d9bb
000000b0: 5320 e6bc a8c9 893d 025c 4bbc 35e6 b33c
000000c0: 227c 36bc ed50 1dbb 7963 b83c 0081 ca3d
000000d0: 5d03 033e 71d2 153e 2a32 273e 69bd a93d
000000e0: a370 433d a794 b13d d9d9 093d 8400 b1bd
000000f0: f254 93bd ff29 c63d b41c 623d b0a2 5d3b
00000100: 244a a5bd 5215 603c 614a 36bc 3bc0 963c
00000110: 4e5e b2bb b2c4 853a f272 813d b644 a1bd
00000120: d838 1dbc c61f f63d f701 583d 5af0 bdbc
00000130: bc95 edbc f67e 4abc b949 343e 4260 153e
00000140: 1825 1a3e ea4b d63d 5764 b4bd d5e7 debc
00000150: 4e8d 3ebe e170 403d a259 263d 214f 8f3d
00000160: 4086 e3bd a37b 333d 3e61 40bd 7125 86bc
00000170: 724d 13bb b454 0fbe a8ad 14bd ae63 e5bb
00000180: b1f2 44be c83d 8a3c 0862 f5bd f66b a43c
00000190: 3455 843d ebc5 ad3d 5080 e13d 6d28 923c
000001a0: 6754 cdbd 1e79 9b3d e6e0 f83d 38d0 313d
000001b0: 6688 373d ffef c53d 2174 6d3c ea15 b83b
000001c0: 9361 0bbd 4668 113e 1a0e 063e 3432 623d
000001d0: 1cfa 29bd df46 7c3d 467f 2d3b 319a 673c
000001e0: ccd7 183c 33ca b23d c734 55bd c242 aabd
000001f0: 0988 893c db83 c73c e709 783d 1ca1 813d
00000200: 3bb7 98ba 4dc8 e63d 6e51 fc3c bf74 c13c
00000210: f923 ab3d 43fd fc3d dd02 543d 10e0 d73d
00000220: e4a8 7cbd c158 28bd 0b3e 45bd ce10 afbd
00000230: 17bc 633c 3535 01be 3e85 b5bc efa4 cabd
00000240: 8ef3 e7bd b3ef 5abc 7612 27be 7dfa 99bd
00000250: 4e6b 2bbd 4623 8fbd 2c05 03bc 7b7c 273d
00000260: 803c e6bc 09a3 7f3d f037 20bd 4c05 b3bc
00000270: 0082 57bd 9181 8a3d 4f55 f13c 23c7 adbc
00000280: cc71 fbbc 6220 683d b355 82bd ebd4 85bd
00000290: 40f5 773d cc8b 793d 1aa0 97bd 3915 e43c
000002a0: 0431 973d c379 723d cb7c 633d 40c2 f2ba
000002b0: f1d7 14bd 437e 27bd 6ed4 d9bc 833b 5abd
000002c0: 9abe b43c 90fa 2bbd 49eb dc38 5df8 b0bd
000002d0: f98e bd3b a4df 90bd de8a 073d c4fe 5bbd
000002e0: 6baa 463c 20cd d53b 0012 9ebd 69ed f3bc
000002f0: 40f6 ebbc 1e4d f2bc effa d93b fc23 23bd
00000300: d378 44bd 54c2 07bd 6e42 1a3d 4f10 553d
00000310: a4ba a4bd fc41 393d 04a3 253d 7e78 85bd
00000320: f77a 84bc eebf df3c 7ed1 32bb ae16 7cbd
00000330: e1b2 b2bc 9e5e 79bd 89e2 a8bd 3973 823b
00000340: 5d15 0dbd 63ae 0ebb 2cf8 6abc 2fee 94bd
00000350: 3620 5f3d d4be 8b3d 8fa5 043c c48a b6bc
00000360: 7e5c 1a3d 0c6d 70bd 0ecd edbc 5418 5d3d
00000370: a2ab 363c 0e66 87bc 8da8 3b3d 02d5 9a3d
00000380: 8853 f83b 6c50 36bd 7157 8b3d 8155 c53b
00000390: 6def 96bd 7219 a33d 0a71 4a3c 370b aabd
000003a0: d2da 2d3c 267c 68bc 838c 99bd 6607 8e3d
000003b0: c28f 68bd ac21 25bd 273c 06bd 9b13 e73c
000003c0: f57c 973d 2417 9cbd 5cfa 863b d928 183d
000003d0: 3703 833d 97f0 d2bc 76ab 823c afd9 a4bd
000003e0: 548a 1ebc 7a24 77bd a992 54bd 8772 36bd
000003f0: 18bb 1c3d 4834 933d d467 493d ae62 9cbd

conv2.bias f4 [16]
-0.06025 -0.04428112 0.072846584 0.07634286 0.088876635 -0.017778266 0.12111858 0.008096296
0.0100149205 0.02781273 -0.025796553 -0.022597743 0.049099218 0.07253671 0.09081349 -0.065388165
00000000: b4c8 76bd 1f60 35bd 9730 953d a559 9c3d
00000010: f404 b63d baa3 91bc 050d f83d 54a6 043c
00000020: 9f15 243c 86d7 e33c 4b53 d3bc e71e b9bc
00000030: 431c 493d 208e 943d 6cfc b93d 3bea 85bd

fc1.weight f4 [120, 256]
0.0877495 -0.009611343 0.015111908 -0.00070951664 -0.055446927 -0.12603948 0.120394506 -0.014800107
0.00827757 -0.10278563 -0.05932354 -0.037620466 0.038019642 0.02119775 -0.022624528 -0.0358086
0.023451146 0.024055062 0.033123173 0.033631425 0.056083385 0.021005323 0.03251329 0.027246274
-0.031849474 0.055687226 -0.04947653 0.014268365 0.029902086 -0.035104908 0.043277994 0.0077481363
-0.051768348 -0.027084697 -0.03804798 -0.07770394 0.0235889 -0.0025402198 0.03205171 0.033018418
0.08247673 -0.034462176 0.12470865 0.011140006 0.055436995 0.045901284 0.0399842 -0.0053459695
-0.0838679 -0.020601252 -0.024380146 -0.045847785 0.06416241 0.034262322 0.049506634 0.0038053994
0.04343106 0.0071734535 -0.013896099 0.034609143 -0.07088586 0.019179212 0.046957992 0.024144588
0.15203246 0.08649195 0.061759733 0.046202656 0.12221938 -0.05095118 -0.071503416 0.023327265
-0.025911069 -0.09166743 0.06938634 -0.0008700407 0.0070262724 -0.022326022 -0.03147548 -0.0012584572
-0.03624609 -0.12108963 -0.043690283 0.063321434 -0.09279088 0.009729257 -0.014523284 0.04369265
0.15132545 -0.03396507 -0.007119018 -0.013081412 0.059822857 -0.080324255 -0.04448034 0.0016377146
0.071096346 -0.0045440225 -0.036977537 -0.050400462 0.15532336 0.024049945 -0.07989502 -0.034013383
0.12440898 0.057755973 0.0773405 0.082758695 0.01587495 0.03579204 0.029759178 0.058775824
-0.0025839165 0.02845083 -0.0020527234 0.022058433 -0.049487326 -0.08263177 -0.006223973 0.0143700745
-0.03945881 -0.11485688 0.0032812261 0.041519467 -0.026109837 0.037166607 -0.08932288 0.0033480078
-0.0391926 0.056159664 -0.02695908 0.023503473 -0.059084278 0.037815716 -0.041623037 0.018609019
0.0015226325 -0.016699854 -0.015529614 0.060714222 -0.0072181034 0.013867257 -0.018239312 -0.03335406
0.028896648 -0.037376903 -0.054939788 0.0207557 0.057058297 0.0027006469 0.08296966 -0.0068226927
0.038138945 0.032175515 0.004702727 -0.066152096 0.07768656 -0.04488615 0.011603821 -0.044457734
0.10813777 -0.010805994 -0.02220238 0.10531157 0.15464652 0.053509817 -0.057886843 0.023446295
0.07802788 0.00416379 -0.07997781 -0.102814555 -0.024595773 0.030590793 -0.05959912 -0.056011714
-0.005114727 -0.10354592 0.055451676 -0.07451757 0.11946752 0.0037375807 0.02865266 -0.0108136535
0.10757687 0.059711974 -0.07919589 -0.12431137 -0.05174398 -0.022822894 -0.06849229 -0.11110526
0.02544106 -0.06034817 0.009307107 0.025001789 -0.04049788 0.03034021 -0.018706089 0.05783551
-0.04681851 0.058836974 0.059533305 -0.02511123 -0.014476953 0.025435084 0.04629043 -0.023669938
-0.04934906 0.013997089 -0.099120505 -0.030830216 -0.022386834 0.014234028 0.12456007 0.040911864
-0.055020437 0.062176608 0.00854542 -0.05655019 0.03854171 -0.03659698 0.004913611 0.052615855
0.01654321 -0.019092096 0.0050714104 0.0066429847 -0.018129632 -0.045432284 -0.049516026 0.02101265
-0.017604731 0.018982394 0.017829377 0.02349303 0.011773968 -0.060589258 0.014390148 -0.010703741
-0.12151378 -0.07838 0.020491444 -0.09269544 -0.07694425 0.103228815 0.065258265 -0.02822877
0.03143376 0.12527977 -0.056000985 0.022613524 0.041586224 0.032276735 0.019987592 0.0022252093
00000000: 03b6 b33d e578 1dbc f097 773c dbfe 39ba
00000010: 511c 63bd 7e10 01be 6591 f63d 267c 72bc
00000020: a59e 073c 4681 d2bd 3efd 72bd eb17 1abd
00000030: 7cba 1b3d e7a6 ad3c 1357 b9bc 0aac 12bd
00000040: 9e1c c03c 1f0f c53c 2aac 073d 1bc1 093d
00000050: b1b7 653d 5b13 ac3c a82c 053d 9433 df3c
00000060: 9874 02bd 4a18 643d e7a7 4abd dcc5 693c
00000070: 38f5 f43c 2aca 0fbd 4444 313d 14e4 fd3b
00000080: 0c0b 54bd bae0 ddbc 33d8 1bbd 3e23 9fbd
00000090: 823d c13c d179 26bb a748 033d 523e 073d
000000a0: 8fe9 a83d 3628 0dbd 4067 ff3d 9284 363c
000000b0: e711 633d fc02 3c3d 79c6 233d 3e2d afbb
000000c0: efc2 abbd f5c3 a8bc dfb8 c7bc e3ca 3bbd
000000d0: 9567 833d a656 0c3d 78c7 4a3d 0264 793b
000000e0: c4e4 313d 4a0f eb3b 77ac 63bc 51c2 0d3d
000000f0: 9b2c 91bd b91d 9d3c 0657 403d dfca c53c
00000100: 66ae 1b3e b122 b13d c6f7 7c3d ff3e 3d3d
00000110: 284e fa3d 2fb2 50bd 6270 92bd d218 bf3c
00000120: 7343 d4bc 22bc bbbd 6d1a 8e3d 7113 64ba
00000130: a53c e63b 10e5 b6bc 6fec 00bd d1f2 a4ba
00000140: c876 14bd d7fd f7bd 95f4 32bd abae 813d
00000150: 2509 bebd 7667 1f3c 11f3 6dbc 10f7 323d
00000160: 0ff5 1a3e f51e 0bbd a746 e9bb 6b53 56bc
00000170: d008 753d 0b81 a4bd 0431 36bd 95a8 d63a
00000180: f69a 913d 06e6 94bb c275 17bd b770 4ebd
00000190: 160d 1f3e 6404 c53c 00a0 a3bd 9e51 0bbd
000001a0: 23ca fe3d 8791 6c3d b264 9e3d 647d a93d
000001b0: 2f0c 823c ad9a 123d 85c9 f33c ebbe 703d
000001c0: ed56 29bb b711 e93c fc86 06bb e3b3 b43c
000001d0: 39b3 4abd d83a a9bd 78f2 cbbb 7670 6b3c
000001e0: 909f 21bd 153a ebbd d709 573b 5110 2a3d
000001f0: 4ce4 d5bc 033c 183d eaee b6bd 406a 5b3b
00000200: 6b88 20bd ad07 663d 4ad9 dcbc 5b8a c03c
00000210: 5b02 72bd a7e4 1a3d eb7c 2abd f171 983c
00000220: 1293 c73a 22ce 88bc ec6f 7ebc 7aaf 783d
00000230: d785 ecbb 7e33 633c 9c6a 95bc 449e 08bd
00000240: aab8 ec3c 8618 19bd 8b08 61bd dc07 aa3c
00000250: f6b5 693d 56fd 303b ffeb a93d e590 dfbb
00000260: 9537 1c3d 79ca 033d 5519 9a3b c07a 87bd
00000270: 221a 9f3d 8ada 37bd f41d 3e3c 5019 36bd
00000280: 5677 dd3d a00b 31bc c4e1 b5bc 98ad d73d
00000290: a85b 1e3e 1c2d 5b3d c11a 6dbd 7212 c03c
000002a0: 15cd 9f3d 6770 883b 68cb a3bd 7090 d2bd
000002b0: 137d c9bc 8b99 fa3c 351e 74bd 8a6c 65bd
000002c0: 7199 a7bb e20f d4bd 4c21 633d ab9c 98bd
000002d0: 63ab f43d 33f2 743b fcb8 ea3c c02b 31bc
000002e0: 4351 dc3d 8b94 743d 7431 a2bd f696 febd
000002f0: 7ff1 53bd 14f7 babc b045 8cbd 288b e3bd
00000300: c569 d03c a52f 77bd d67c 183c 8dd0 cc3c
00000310: 1be1 25bd 088c f83c 833d 99bc ede4 6c3d
00000320: c4c4 3fbd 0aff 703d 32d9 733d 11b6 cdbc
00000330: be30 6dbc 3d5d d03c 099b 3d3d 75e7 c1bc
00000340: 3d22 4abd 0c54 653c b1ff cabd a68f fcbc
00000350: 9864 b7bc d735 693c 5a19 ff3d 3393 273d
00000360: 1c5d 61bd e6ac 7e3d 1702 0c3c 2ca1 67bd
00000370: e9dd 1d3d b7e6 15bd 5b02 a13b b983 573d
00000380: a085 873c 0767 9cbc 132e a63b 65ad d93b
00000390: 9884 94bc 3417 3abd 51d1 4abd b922 ac3c
000003a0: cc37 90bc f780 9b3c ea0e 923c 7474 c03c
000003b0: 9ae7 403c 712c 78bd a8c4 6b3c be5e 2fbc
000003c0: 37dc f8bd b285 a0bd acdd a73c 1bd7 bdbd
000003d0: f294 9dbd a169 d33d 20a6 853d 0540 e7bc
000003e0: b0c0 003d 5749 003e 4a61 65bd ff3f b93c
000003f0: 5156 2a3d 9c34 043d 05bd a33c d1d4 113b

fc1.bias f4 [120]
-0.051836826 0.070397876 0.037516106 -0.056182567 0.07372322 0.00163243 0.030313753 0.037749566
-0.028887127 0.026900576 0.057610285 -0.05499151 -0.055741567 -0.008537212 -0.0576197 0.019875385
0.037580047 -0.039243396 0.024332859 0.045999233 -0.020965515 0.027167754 0.010945898 -0.05263324
-0.044290625 -0.00026439727 0.04826891 0.051962115 -0.018091286 -0.019531772 0.05875087 0.039390445
0.035027083 0.041457485 0.05944399 -0.03092494 0.03892179 -0.022155657 0.064231254 0.013709017
0.06658242 0.016734406 0.05797317 0.03288646 0.0061146035 -0.013682529 0.047570083 0.01807291
-0.016038748 0.0049279975 0.058653876 -0.010657262 0.03804067 -0.027243353 0.047409758 0.070176125
0.012543873 0.049948003 0.05064528 -0.026206812 0.034150653 -0.002782365 -0.0065523717 0.0016775958
-0.051387183 0.00712971 0.061265033 0.0032442873 -0.046270706 -0.06393833 0.0035289705 -0.010445578
0.061216358 0.063944645 -0.040795732 0.049524833 -0.00227676 0.028922552 -0.014568623 0.023201961
-0.024948882 -0.022471793 0.008005357 0.004104384 0.02621533 -0.0028180429 -0.0413464 0.022519775
0.009309265 0.06388821 0.052210942 0.04581057 0.029310187 0.014097418 -0.0624372 0.01627718
-0.020507531 0.009834484 -0.058085762 0.004838073 -0.032195907 -0.022386005 -0.018527783 -0.043007832
-0.028994383 0.07241665 0.061353765 -0.04275296 0.0045089857 0.032314524 -0.026844641 -0.02636855
0.006597201 0.05252844 0.0055685737 0.04211631 -0.046097167 0.005986004 -0.025890015 0.005671574
00000000: da52 54bd c32c 903d 7daa 193d b11f 66bd
00000010: 33fc 963d 43f7 d53a 8c54 f83c 4a9f 1a3d
00000020: b2a4 ecbc 995e dc3c c3f8 6b3d c73e 61bd
00000030: 4551 64bd aadf 0bbc a202 6cbd b4d1 a23c
00000040: 89ed 193d afbd 20bd b455 c73c b169 3c3d
00000050: dfbf abbc e98e de3c 6c56 333c f495 57bd
00000060: 166a 35bd cd9e 8ab9 9fb5 453d 3ad6 543d
00000070: 2d34 94bc 1801 a0bc c1a4 703d e057 213d
00000080: 8f78 0f3d 53cf 293d 8b7b 733d 4d56 fdbc
00000090: 746c 1f3d c87f b5bc ad8b 833d c99b 603c
000000a0: 5d5c 883d 9816 893c 4675 6d3d f4b3 063d
000000b0: 035d c83b b02c 60bc d9d8 423d a40d 943c
000000c0: b163 83bc 0a7b a13b 0c3f 703d cc9b 2ebc
000000d0: 89d0 1b3d 742d dfbc bc30 423d 80b8 8f3d
000000e0: d184 4d3c 4796 4c3d 6d71 4f3d abaf d6bc
000000f0: 8ee1 0b3d 5758 36bb 47b5 d6bb c6e2 db3a
00000100: 5e7b 52bd 58a0 e93b 0bf1 7a3d 1c9e 543b
00000110: 5a86 3dbd 19f2 82bd 4d46 673b ee23 2bbc
00000120: 01be 7a3d 69f5 823d 6d19 27bd 8dda 4a3d
00000130: b235 15bb fdee ec3c 3cb1 6ebc 0a12 be3c
00000140: 9961 ccbc c416 b8bc e728 033c 127e 863b
00000150: 88c1 d63c eaae 38bb d85a 29bd 647b b83c
00000160: e385 183c d2d7 823d 24db 553d dda3 3b3d
00000170: eb1b f03c dbf8 663c 26be 7fbd b857 853c
00000180: 69ff a7bc d120 213c 56eb 6dbd b388 9e3b
00000190: dbdf 03bd db62 b7bc 94c7 97bc fb28 30bd
000001a0: a185 edbc 2e4f 943d 164e 7b3d ba1d 2fbd
000001b0: 1dc0 933b 3c5c 043d 4be9 dbbc db02 d8bc
000001c0: 552d d83b 1028 573d 9578 b63b 2782 2c3d
000001d0: 62d0 3cbd 3e26 c43b 4c17 d4bc 9cd8 b93b

fc2.weight f4 [84, 120]
-0.0523787 0.034645062 0.019054135 -0.020732872 0.02456288 0.07877742 -0.018732661 -0.03380628
-0.04329422 0.027991936 0.06790846 -0.008700196 0.06733642 0.121175565 -0.05346991 0.02215302
-0.044253893 -0.061886802 -0.077120386 0.013993457 0.08109547 -0.005533793 0.023440046 0.006859045
-0.08985872 -0.12583897 0.02695351 0.13578606 0.028472045 0.04094567 0.13516775 0.089715496
0.028874466 -0.006480534 0.047371887 9.400143e-05 -0.069582835 0.058724366 -0.033774864 -0.047343355
0.04810189 -0.006476503 -0.029637108 -0.025007287 0.017006226 0.17233226 -0.056661084 0.041736867
0.037726156 0.14131749 0.058349185 -0.055146884 0.047050357 -0.0484871 0.021050986 0.10082095
-0.0623714 0.12840572 -0.058640253 -0.057676714 0.018251857 -0.01145919 -0.044182878 0.06886503
0.033756673 0.040277272 0.047349956 0.035641275 0.018253228 0.09661575 -0.01550061 0.088560574
-0.026871042 -0.047464088 -0.08708168 0.0054471055 -0.016583802 -0.07592643 0.052918836 -0.037782524
0.17331037 -0.070870124 -0.10989402 0.08803313 0.014612554 -0.021570312 -0.05561752 0.055149425
0.07224128 -0.01605577 -0.026235793 0.06106164 -0.026939835 0.05687641 -0.048654303 0.11143111
0.045346674 0.01045247 0.062214132 0.094751105 0.05448715 0.069004446 -0.0013038538 -0.048757497
0.06542566 -0.061911445 -0.014021186 0.12861724 0.040192258 0.07880519 0.0010434291 -0.011693967
-0.012845971 0.0025155442 -0.07611983 -0.012297062 0.01763335 -0.0702307 0.123872966 0.059677545
-0.18506646 -0.17688371 0.015149205 -0.023388427 -0.04891778 -0.068034045 0.045308106 0.02671471
0.03685953 -0.09308886 0.0086209085 -0.056920286 -0.081486374 0.0024830047 -0.060702052 0.035021625
-0.08100247 0.09258109 -0.05021014 -0.034666404 -0.026628682 0.03355452 -0.06740545 0.1040589
0.036920946 -0.12269349 0.0061588795 0.04558802 -0.017028479 -0.062106777 0.07948168 0.013157092
0.058335356 0.12081113 0.057101995 -0.026663072 -0.03844362 0.029179465 -0.07478718 0.0049814065
-0.0031518282 -0.027574759 0.015908604 0.016635563 0.07300034 -0.08857074 -0.020813458 -0.008890434
0.018538726 -0.13586266 -0.07759325 -0.05541287 0.10087296 -0.005787369 0.10336154 -0.15335704
-0.1756566 -0.02185496 -0.009204333 -0.057517223 -0.09907535 0.03479346 0.041310567 0.08042189
-0.11038094 -0.025334021 0.031782057 0.1569582 0.12046226 -0.018002328 -0.1030897 -0.039117437
-0.023491422 0.0052667093 -0.044195864 0.05211398 0.07339734 -0.00491694 0.028021103 0.08940263
0.17203224 -0.023742301 -0.100853264 0.017735133 -0.029924618 -0.003813601 0.01498485 -0.1338001
-0.0019851949 0.0021574202 -0.07355777 0.076418824 -0.09775941 -0.00064195803 -0.0077994014 -0.010950664
-0.04188341 0.04277317 -0.038724232 -0.058750954 0.021833092 0.015963417 -0.09064201 -0.041951254
0.04118076 -0.0026477287 -0.07915321 -0.026141478 0.08395368 0.010458179 0.02979074 -0.02746845
0.009880048 -0.10641509 -0.09870653 -0.056064583 0.047748398 0.018993711 0.07938454 0.021892622
0.04290655 0.13757263 -0.05229894 0.054525495 0.012091202 0.0944687 0.10271813 0.08865626
-0.078741394 -0.02374462 -0.05630209 0.060589176 -0.032700017 -0.023239607 -0.047648944 -0.07233
00000000: 0c8b 56bd fbe7 0d3d 6b17 9c3c fcd7 a9bc
00000010: 1838 c93c 0e56 a13d 3d75 99bc 7478 0abd
00000020: 4855 31bd 584f e53c 9713 8b3d 448b 0ebc
00000030: ade7 893d e52a f83d 4403 5bbd 407a b53c
00000040: 9243 35bd 047d 7dbd 4bf1 9dbd d044 653c
00000050: 6215 a63d d254 b5bb 5705 c03c d7c1 e03b
00000060: d907 b8bd eedb 00be 9bcd dc3c 800b 0b3e
00000070: 353e e93c a6b6 273d 6a69 0a3e c2bc b73d
00000080: 258a ec3c a95a d4bb 0609 423d a222 c538
00000090: 7281 8ebd f688 703d 8357 0abd 1beb 41bd
000000a0: 7d06 453d d838 d4bb 85c9 f2bc 15dc ccbc
000000b0: a450 8b3c de77 303e 7415 68bd 47f4 2a3d
000000c0: be86 1a3d 88b5 103e 8eff 6e3d b3e1 61bd
000000d0: e0b7 403d 699a 46bd 1e73 ac3c 377b ce3d
000000e0: 2779 7fbd ca7c 033e c330 70bd 6b3e 6cbd
000000f0: eb84 953c 54bf 3bbc 1bf9 34bd 1c09 8d3d
00000100: 7044 0a3d c8f9 243d 07f2 413d 96fc 113d
00000110: cb87 953c 7ade c53d 45f6 7dbc 3f5f b53d
00000120: a920 dcbc b469 42bd e157 b2bd a27d b23b
00000130: c1da 87bc 517f 9bbd 6cc1 583d d9c1 1abd
00000140: 4678 313e 5b24 91bd 1e10 e1bd b74a b43d
00000150: 7e69 6f3c 39b4 b0bc 32cf 63bd 5de4 613d
00000160: 3cf3 933d 6487 83bc 72ec d6bc c51b 7a3d
00000170: eeb0 dcbc 3df7 683d bc49 47bd fe35 e43d
00000180: 6fbd 393d d640 2b3c 3fd4 7e3d de0c c23d
00000190: eb2d 5f3d 3452 8d3d 13e6 aaba f1b5 47bd
000001a0: e3fd 853d db96 7dbd 1eb9 65bc 3db4 033e
000001b0: a3a0 243d 9e64 a13d acc3 883a 0d98 3fbc
000001c0: e877 52bc d4db 243b b7e4 9bbd 9e79 49bc
000001d0: d173 903c 1dd5 8fbd 1cb1 fd3d 7170 743d
000001e0: 1082 3dbe 0121 35be 5f34 783c 1699 bfbc
000001f0: 035e 48bd 6f55 8bbd fe94 393d cfd8 da3c
00000200: 05fa 163d 5fa5 bebd b63e 0d3c 3f25 69bd
00000210: 54e2 a6bd e8b9 223b b7a2 78bd d672 0f3d
00000220: 9fe4 a5bd 289b bd3d 26a9 4dbd 5cfe 0dbd
00000230: 6524 dabc 7770 093d de0b 8abd d51c d53d
00000240: 6b3a 173d b946 fbbd 6dd0 c93b 81ba 3a3d
00000250: 4f7f 8bbc ad63 7ebd 4bc7 a23d d890 573c
00000260: 0ef1 6e3d d36b f73d c8e3 693d 846c dabc
00000270: 0f77 1dbd c609 ef3c 052a 99bd 113b a33b
00000280: e78e 4ebb 76e4 e1bc c352 823c 4e47 883c
00000290: 3481 953d 9364 b5bd fc80 aabc 2fa9 11bc
000002a0: 87de 973c 951f 0bbe 36e9 9ebd 9bf8 62bd
000002b0: 7c96 ce3d f8a3 bdbb 37af d33d a109 1dbe
000002c0: 53df 33be 2c09 b3bc c5cd 16bc 2e97 6bbd
000002d0: 04e8 cabd 9683 0e3d 4535 293d 3bb4 a43d
000002e0: 670f e2bd 4b89 cfbc e72d 023d a6b9 203e
000002f0: ebb4 f63d 9e79 93bc b120 d3bd 9b39 20bd
00000300: 1571 c0bc 5c94 ac3b b906 35bd 7875 553d
00000310: 5851 963d 481e a1bb 838c e53c ba18 b73d
00000320: 3829 303e 377f c2bc 288c cebd 4549 913c
00000330: 7924 f5bc 9ced 79bb 0483 753c e502 09be
00000340: 0b1a 02bb 8163 0d3b 75a5 96bd 7981 9c3d
00000350: 1636 c8bd 1349 28ba 1f92 ffbb 6a6a 33bc
00000360: f08d 2bbd eb32 2f3d 4d9d 1ebd d7a4 70bd
00000370: 50db b23c b6c5 823c 85a2 b9bd 14d5 2bbd
00000380: 28ad 283d 8485 2dbb 141b a2bd a726 d6bc
00000390: e8ef ab3d c858 2b3c b60b f43c 8405 e1bc
000003a0: eddf 213c 28f0 d9bd a626 cabd faa3 65bd
000003b0: d393 433d b398 9b3c 5d94 a23d 2858 b33c
000003c0: c7be 2f3d d7df 0c3e 6a37 56bd 2056 5f3d
000003d0: 2d1a 463c ce78 c13d e25d d23d 6a91 b53d
000003e0: 2b43 a1bd 1484 c2bc 059d 66bd 5b2c 783d
000003f0: 74f0 05bd fd60 bebc 8a2b 43bd c021 94bd

fc2.bias f4 [84]
-0.036808733 -0.07182516 0.0664204 -0.062195625 -0.096362114 -0.047236815 -0.017350316 0.037147995
-0.033830788 0.061790552 0.042176858 0.042721085 -0.051418897 -0.043907072 0.014216314 0.007913944
-0.014411986 -0.028641582 -0.0702723 0.11650663 -0.080662385 0.013888199 0.034703057 -0.048837014
0.0039017575 -0.04481524 -0.07835814 0.105372936 -0.029025048 -0.0674126 0.023532124 -0.06069812
-0.0076792976 0.10641622 -0.04206847 0.06481037 0.08209505 0.051581338 -0.043191023 -0.020961473
-0.01024205 0.040123954 0.083458364 -0.055726588 0.017801043 0.009238792 -0.00024842608 0.07856521
-0.012040853 -0.0020685333 0.111511804 0.017098056 0.050073456 0.070508115 0.0059723645 -0.10683475
-0.012314915 0.049796674 -0.090207875 0.04041039 0.09830023 -0.073545806 -0.0246123 0.041589666
-0.06736826 0.014186415 -0.029276479 -0.052598465 0.07734693 0.010416104 -0.0072376104 -0.04283196
-0.0135423485 -0.022932686 0.003579639 -0.077419996 -0.039089795 -0.06689269 -0.058003854 -0.0571785
-0.019546414 0.032579463 -0.07385815 0.07927711
00000000: c1c4 16bd 1219 93bd 6b07 883d d7c0 7ebd
00000010: 8059 c5bd 647b 41bd 4022 8ebc 7f28 183d
00000020: 2792 0abd 1718 7d3d a4c1 2c3d 4efc 2e3d
00000030: 9f9c 52bd e7d7 33bd 8beb 683c 7da9 013c
00000040: 4020 6cbc c0a1 eabc ecea 8fbd 079b ee3d
00000050: 5232 a5bd 548b 633c cb24 0e3d 5209 48bd
00000060: a1b4 7f3b 2f90 37bd 3c7a a0bd c4cd d73d
00000070: f0c5 edbc 9e0f 8abd 71c6 c03c 989e 78bd
00000080: 9ea2 fbbb bff0 d93d fd4f 2cbd 4dbb 843d
00000090: 7321 a83d f446 533d 12e9 30bd 65b7 abbc
000000a0: 45ce 27bc 0459 243d 38ec aa3d 9041 64bd
000000b0: 7ed3 913c 4d5e 173c 2f3f 82b9 cce6 a03d
000000c0: ff46 45bc 3b90 07bb 4d60 e43d 3911 8c3c
000000d0: d319 4d3d 8f66 903d d3b3 c33b 2dcc dabd
000000e0: 7fc4 49bc 99f7 4b3d e8be b8bd 5d85 253d
000000f0: a251 c93d 2f9f 96bd bc9f c9bc ed59 2a3d
00000100: 5ff8 89bd 236e 683c 3ad5 efbc 7d71 57bd
00000110: 1168 9e3d 4fa8 2a3c 7a29 edbb 9170 2fbd
00000120: bae0 5dbc 54dd bbbc 6098 6a3b 608e 9ebd
00000130: 9f1c 20bd 09ff 88bd 7395 6dbd 0134 6abd
00000140: cd1f a0bc 0b72 053d f142 97bd 0a5c a23d

fc3.weight f4 [17, 84]
0.075650595 0.0006609145 0.029648377 -0.020831782 0.0383165 0.059563823 0.008431333 -0.034329783
0.087038726 0.030833477 -0.011910769 -0.049059894 -0.060629103 0.016557254 0.020075891 0.05099727
-0.070413545 -0.00216705 0.07102545 0.087770365 -0.017498244 -0.052593697 0.017288847 0.05304895
0.040918976 0.0028628747 0.011754791 -0.054137126 0.03320251 0.07814981 0.06496035 -0.016509818
-0.07452547 0.065193504 0.041316453 -0.043693196 0.0022025455 0.053901833 -0.05928056 0.108703576
0.055748824 -0.030596599 -0.051131643 0.08660001 -0.08254666 -0.038697988 0.075018525 0.08367127
-0.05938308 0.06957255 -0.04204072 0.100069016 -0.0071017127 0.09380551 -0.09279702 -0.0023422125
0.09015826 0.003574685 -0.054247007 0.0889602 -0.060149204 -0.05230327 0.03527215 -0.03722519
0.058905702 -0.06108425 -0.05220573 0.027567899 0.019890754 -0.06635894 0.07659646 -0.06093514
-0.02559382 0.07380195 0.07243426 -0.07971214 0.044774596 0.019318689 0.0893913 -0.0145141585
-0.106774 0.07531313 -0.018975673 -0.021630386 -0.07195187 0.008551282 0.10817962 0.06200144
-0.067447826 -0.07926841 -0.083501495 0.012434436 0.013517564 -0.10556093 0.024142195 -0.073052585
0.029469507 0.09460358 0.04890449 -0.044722583 0.10037526 -0.051510647 -0.05174456 -0.009459573
0.015269138 0.06387902 -0.043850567 0.012617442 -0.082253896 0.07621207 0.041614424 0.014940521
-0.05829484 0.013587293 -0.055465326 0.08218829 -0.0079370355 -0.055933964 0.039283838 -0.06612933
-0.0297266 0.08125984 0.10266608 0.101143256 -0.035270188 -0.04463584 0.0496834 -0.029516501
0.050625093 -0.03501835 -0.08780878 0.0699866 -0.09622675 -0.052032027 -0.028504858 0.04296076
0.07757154 -0.09964054 0.023195235 -0.010454319 0.0040222877 -0.018598294 -0.028830886 -0.0025943364
0.01901918 -0.06459848 0.03229215 0.09968653 0.0209131 -0.1088794 0.022918126 -0.02710158
0.049039315 -0.008103913 0.085923284 -0.074771985 0.048952043 0.088078216 0.09413868 0.10432416
-0.092829 0.056183834 -0.015671581 0.05151083 -0.09949042 -0.0059228027 0.05113012 0.030423295
-0.055261392 -0.100992225 -0.044197004 0.018597618 0.0122585315 0.061931398 0.10709189 0.03395992
-0.021276627 0.025491351 -0.031081336 -0.08834333 -0.0579515 -0.0036317327 -0.10780529 0.10648131
-0.06676318 -0.02215603 0.05001242 -0.077187896 -0.055548295 0.10591734 0.032248866 -0.1048983
0.016534843 0.0056679994 -0.101042986 -0.00558512 -0.09865843 -0.07379232 0.0020947452 -0.057826996
0.015314804 0.006063796 -0.025712429 -0.03632647 -0.05977781 -0.09914658 -0.09655545 0.051593438
-0.034514118 0.07551757 0.076626375 0.04546056 0.0063457056 0.0066080787 0.026942754 -0.015578309
-0.08039914 -0.04135905 0.095569104 0.0009618659 -0.10718799 -0.0031349119 -0.025985012 0.047123726
0.08441127 -0.066072226 -0.08874714 0.027955802 0.041378573 -0.044878416 0.028102415 0.08055543
0.0019274387 0.057598468 -0.05662245 0.0786416 -0.0424626 0.00448879 -0.10750385 -0.10705473
0.082144186 0.053882778 0.0629613 -0.06418142 0.08595073 -0.07134525 0.051604636 0.079239026
-0.0046603363 0.026982712 0.030715415 -0.023817727 -0.046969544 0.09405966 -0.07642651 0.04257097
00000000: b3ee 9a3d 3941 2d3a 27e1 f23c 6aa7 aabc
00000010: c3f1 1c3d 32f9 733d 9323 0a3c 639d 0cbd
00000020: 5c41 b23d 7d96 fc3c 6325 43bc 07f3 48bd
00000030: 3956 78bd 14a3 873c 3276 a43c 83e2 503d
00000040: fa34 90bd 1105 0ebb cb75 913d f3c0 b33d
00000050: 7a58 8fbc 7d6c 57bd 57a1 8d3c db49 593d
00000060: a89a 273d 119f 3b3b 2b97 403c e4be 5dbd
00000070: 5bff 073d 020d a03d ef09 853d 993f 87bc
00000080: cfa0 98bd 2c84 853d 713b 293d a3f7 32bd
00000090: 9558 103b 2bc8 5c3d 2cd0 72bd fb9f de3d
000000a0: e158 643d b8a5 fabc 6a6f 51bd 595b b13d
000000b0: 390e a9bd c881 1ebd 50a3 993d d85b ab3d
000000c0: ac3b 73bd 0e7c 8e3d e432 2cbd fcf0 cc3d
000000d0: 7cb5 e8bb 1a1d c03d 5d0c bebd ce7f 19bb
000000e0: e5a4 b83d 4345 6a3b 1c32 5ebd c430 b63d
000000f0: 035f 76bd f43b 56bd 8879 103d 7179 18bd
00000100: 1b47 713d 7b33 7abd add5 55bd 13d6 e13c
00000110: eff1 a23c 32e7 87bd 9bde 9c3d 2097 79bd
00000120: 21aa d1bc 7a25 973d 6a58 943d 1e40 a3bd
00000130: 9165 373d 3a42 9e3c c912 b73d cbcc 6dbc
00000140: 54ac dabd c53d 9a3d df72 9bbc 3532 b1bc
00000150: 815b 93bd ad1a 0c3c 478d dd3d 39f5 7d3d
00000160: 1622 8abd 7a57 a2bd d502 abbd ceb9 4b3c
00000170: c678 5d3c 5430 d8bd dac5 c53c 989c 95bd
00000180: 096a f13c 86bf c13d 1350 483d 072f 37bd
00000190: 8b91 cd3d d4fc 52bd 1bf2 53bd 53fc 1abc
000001a0: 682b 7a3c 01d3 823d a79c 33bd 63b9 4e3c
000001b0: bb74 a8bd 1315 9c3d e373 2a3d 16c9 743c
000001c0: 92c6 6ebd 3d9d 5e3c 9c2f 63bd 5652 a83d
000001d0: 570a 02bc 031b 65bd 17e8 203d d06e 87bd
000001e0: 3385 f3bc 8f6b a63d 9842 d23d 3224 cf3d
000001f0: 7977 10bd 12d4 36bd d280 4b3d 97cc f1bc
00000200: 425c 4f3d 676f 0fbd 17d5 b3bd 2255 8f3d
00000210: 8812 c5bd 891f 55bd 0583 e9bc 9ff7 2f3d
00000220: d4dd 9e3d 5710 ccbd ef03 be3c 9848 2bbc
00000230: 65cd 833b 735b 98bc c02e ecbc be05 2abb
00000240: 1dce 9b3c 354c 84bd c644 043d 7428 cc3d
00000250: f351 ab3c 2afc debd cbbe bb3c 2204 debc
00000260: 73dd 483d 46c6 04bc 8cf8 af3d 0e22 99bd
00000270: f081 483d 5a62 b43d c8cb c03d e8a7 d53d
00000280: 211d bebd 0521 663d b061 80bc 05fd 523d
00000290: a2c1 cbbd 1214 c2bb d16d 513d 463a f93c
000002a0: c559 62bd 03d5 cebd eb07 35bd 085a 983c
000002b0: 02d8 483c c7ab 7d3d fe52 db3d 8f19 0b3d
000002c0: 524c aebc 3dd3 d03c 499e febc 59ed b4bd
000002d0: 8d5e 6dbd 5d02 6ebb 05c9 dcbd e012 da3d
000002e0: 22bb 88bd 9080 b5bc d3d9 4c3d b014 9ebd
000002f0: 9c86 63bd 31eb d83d 6317 043d ebd4 d6bd
00000300: 1474 873c a0ba b93b a0ef cebd 6203 b7bb
00000310: 6e0d cabd 6e20 97bd fe47 093b 00dc 6cbd
00000320: f2ea 7a3c cfb2 c63b dfa2 d2bc 11cb 14bd
00000330: 94d9 74bd 5d0d cbbd ddbe c5bd a453 533d
00000340: ad5e 0dbd f5a8 9a3d 4aee 9c3d da34 3a3d
00000350: a3ef cf3b 9588 d83b 0db7 dc3c 2a3c 7fbc
00000360: 4ea8 a4bd 1b68 29bd bcb9 c33d ba25 7c3a
00000370: 6085 dbbd 1873 4dbb 85de d4bc cf04 413d
00000380: d1df ac3d e050 87bd 0fc1 b5bd 9103 e53c
00000390: 947c 293d 6ed2 37bd 0937 e63c 3ffa a43d
000003a0: 1ca2 fc3a 5fec 6b3d f1ec 67bd d90e a13d
000003b0: 43ed 2dbd b316 933b fa2a dcbd 833f dbbd
000003c0: 363b a83d 30b4 5c3d dbf1 803d 8c71 83bd
000003d0: f006 b03d 751d 92bd 625f 533d 1248 a23d
000003e0: bcb5 98bb d90a dd3c e59e fb3c 651d c3bc
000003f0: 2363 40bd 5aa2 c03d 8185 9cbd e65e 2e3d

fc3.bias f4 [17]
-0.013426387 -0.016472032 -0.06331869 -0.06869296 0.07419608 0.04527689 0.016894937 0.035445612
-0.054347795 -0.001394433 0.106149 0.03017869 -0.08875147 0.040155582 0.009146915 0.07363943
-0.0545763
00000000: 59fa 5bbc 5bf0 86bc 3bad 81bd e5ae 8cbd
00000010: 1df4 973d 4374 393d 4067 8a3c 6b2f 113d
00000020: cb9b 5ebd 68c5 b6ba a664 d93d 4d39 f73c
00000030: 55c3 b5bd 2e7a 243d f1dc 153c 45d0 963d
00000040: 668b 5fbd
