Classifier/weights/HASY_weights.pth (torch, 191639 bytes, 10 tensors)

conv1.weight f4 [6, 1, 5, 5]
000000 38 9e 0f 3d 5d 37 01 be 28 a6 b3 bd 9b 06 0c be
       0.035063 -0.12618776 -0.08771926 -0.13674395
000010 0d 30 21 bf 33 24 6c 3d 4c 7f 93 3e a5 b8 6d 3e
       -0.62963945 0.05765171 0.28808057 0.23214968
000020 10 2c b6 3e cd f2 82 bd 72 6e b3 3c 50 e6 25 3e
       0.35580492 -0.06393967 0.02190325 0.16201138
000030 f7 c6 05 3f 1b df 24 3f 82 03 6a 3d c3 70 ac be
       0.5225672 0.6440293 0.05713225 -0.3367978
000040 ea 79 a4 be 3f 8e 9c be df 6d b6 3e ab fe b9 3e
       -0.32124263 -0.30577275 0.356307 0.3632711
000050 d8 e5 aa be a2 08 8d be c0 10 13 bf 6b f2 a6 be
       -0.33378482 -0.2754565 -0.57447433 -0.32606825
000060 14 6d 66 3e 7b f3 e3 bc f6 57 bc be 0e c8 5f be
       0.22502548 -0.027826061 -0.3678586 -0.21853659
000070 03 05 c8 3e 1b 9e a2 3e bd 3e c5 be bc 9f 77 be
       0.39066324 0.3176125 -0.38524428 -0.24182028
000080 b8 3a 96 3e 5d 6b de 3e f4 69 81 3d 17 0f 8b 3e
       0.29341674 0.43441287 0.06319037 0.2715995
000090 b0 41 df 3e 68 b3 2a 3e 01 29 7c be a0 96 32 be
       0.43604803 0.1667 -0.24625017 -0.17440271
0000a0 fb 6e cf 3d 09 dc 82 3e 37 8f 81 be 0e 6b 0b bf
       0.1012859 0.25558499 -0.25304577 -0.5446023
0000b0 d1 b3 dc be c1 51 62 bc 0d 59 3b bc 69 7a a1 be
       -0.4310594 -0.013813437 -0.011434806 -0.31538704
0000c0 0a 6b 8b 3d c8 60 03 3e 86 a9 fc be 24 79 e3 be
       0.068075255 0.12829888 -0.49348086 -0.4442836
0000d0 b1 33 aa be 11 fe 68 bc df b9 97 3e d7 96 24 bf
       -0.33242562 -0.01422073 0.29633996 -0.64292663
0000e0 b0 29 f6 be 8d a5 48 be 85 46 d0 3e cf 83 3c 3f
       -0.4807868 -0.19594403 0.40678802 0.73638624
0000f0 2c 09 1c bf df b0 f9 be 04 c0 3a 3e ee d1 b0 3e
       -0.60951495 -0.48767754 0.1823731 0.34535164
000100 56 9a 24 3f f1 17 23 bf 83 07 a8 be 80 43 6d 3e
       0.64298 -0.63708407 -0.3281823 0.2317028
000110 94 d4 2e 3f 0b 82 a6 3e f9 cc 0a be f8 0d 05 be
       0.6829312 0.3252109 -0.13554753 -0.1299361
000120 17 f7 b6 3e 62 2c a8 3e 87 18 f6 3d 47 f0 bd 3e
       0.3573539 0.3284636 0.12016397 0.3709738
000130 4a 36 e9 3e 45 f2 bf 3e 4f e6 5a 3e 57 a3 7a 3e
       0.45549232 0.37489524 0.21376918 0.24476372
000140 f2 94 d3 3e 20 36 2d 3f 82 d1 39 3f ed 1a f4 3e
       0.41324574 0.67660713 0.7258531 0.47676793
000150 d5 4a bf 3e fe 56 37 be 54 d8 05 bd 86 f0 26 3e
       0.3736178 -0.17904279 -0.03267701 0.1630269
000160 9e 81 07 bd 55 38 b8 3c dd 40 17 bf f6 3b 1d bf
       -0.033082597 0.022487799 -0.5908335 -0.6141962
000170 e9 c9 26 bf 81 06 9a be 54 74 3d be 73 1b f7 be
       -0.6515184 -0.30083087 -0.18501407 -0.4826313
000180 b5 2b 06 bf 46 e2 c8 be 79 ce 5b be 24 be 32 3d
       -0.5241044 -0.39235133 -0.21465482 0.043638363
000190 d8 48 2f be cf b2 e0 be 1b 22 f1 be f9 04 d4 bd
       -0.17117631 -0.4388642 -0.47096333 -0.10352511
0001a0 27 8c 10 be 56 45 f0 3d 0d 2d 11 3e f1 62 61 be
       -0.14115964 0.11731975 0.14177342 -0.220104
0001b0 f2 a3 01 bf 17 9a 82 be 1b c0 15 bd ed 1c 58 3e
       -0.50640786 -0.25508186 -0.03656016 0.21104784
0001c0 f4 fd 0c 3d bf 08 5f be 3e b6 c9 be c7 45 35 bd
       0.034421876 -0.2178068 -0.39396852 -0.044255998
0001d0 2d eb 11 be b5 50 44 3e 32 45 2d 3e 1b de 3d 3e
       -0.14249869 0.19171412 0.16920927 0.18541758
0001e0 2c ea 94 3e 55 e1 9e 3e a5 73 a5 3e 8d 43 0d 3f
       0.2908491 0.3103129 0.32314792 0.551812
0001f0 7f 24 e2 3e 20 b0 0a bf b0 8b 1a bf a0 f1 fb be
       0.4416847 -0.54174995 -0.60369396 -0.49207783
000200 a3 85 83 be fe 62 aa be eb 40 01 bf 66 e9 ea be
       -0.25687894 -0.3327865 -0.5048968 -0.45881194
000210 3d 26 27 bf 38 38 0e bf 71 d7 e0 be 3f 56 02 3e
       -0.6529272 -0.55554533 -0.4391437 0.12728213
000220 5f 13 31 3d de 07 02 3c 3e 6b b3 bd b2 dd 77 be
       0.043231364 0.007936446 -0.08760689 -0.24205664
000230 38 01 5b 3e cf e6 58 3d 9b 55 03 3e ea 90 bc 3d
       0.21387184 0.05295449 0.12825625 0.09207328
000240 76 82 24 3e 95 22 10 3e 9e a8 16 3e 74 ab 8c 3e
       0.16065392 0.14075692 0.1471276 0.27474558
000250 a7 a7 63 3e 74 25 ac 3e
       0.22231923 0.33622324

conv1.bias f4 [6]
000000 d8 23 08 3e 88 2e 36 3e b8 a1 6f 3e 08 7f 01 3f
       0.13294923 0.17791188 0.23401535 0.5058446
000010 87 89 c0 3d de 65 19 be
       0.09401231 -0.14980265

conv2.weight f4 [16, 6, 5, 5]
000000 9d cc 89 bd a0 ff 35 bd 67 05 58 bd 90 7d 05 bc
       -0.0672848 -0.044433236 -0.052739527 -0.008147612
000010 e3 e3 b2 3d 85 c2 9d bd 9a 40 27 bd 08 77 8e 3c
       0.08734872 -0.07703117 -0.040833093 0.017390743
000020 63 a5 45 bd cc 34 07 bd 03 ac b8 bb 87 93 75 3b
       -0.04825343 -0.033009335 -0.00563574 0.0037471966
000030 1d 59 0a 3d 9e e2 f3 3c e5 48 a9 bb d6 99 1e 3c
       0.03377639 0.029771145 -0.0051661604 0.009680232
000040 5e 46 20 3d a9 54 46 bd 5e 6d 67 bc 81 5a 32 3d
       0.039129607 -0.048420582 -0.014125196 0.043543343
000050 00 39 86 bd 18 b6 96 3d 14 bc 7a 3b 4d 20 af 3c
       -0.06553841 0.073589504 0.0038259076 0.021377707
000060 73 22 d6 bc 98 69 78 bd 03 84 89 bd 25 b6 82 3c
       -0.026139474 -0.060647577 -0.06714632 0.015955994
000070 54 0c 82 bd 45 17 98 3d d7 c1 88 bd eb f1 4b 3d
       -0.06350008 0.07426313 -0.06677597 0.049791258
000080 77 a3 8a bd 1c 93 c6 3d 7a a4 f4 3d 24 6b 99 bc
       -0.0676946 0.09696028 0.11945434 -0.018727846
000090 68 72 8b bc a7 eb 81 3d 8a f4 fa 3a 6a 66 2d bc
       -0.017022327 0.06343775 0.0019146365 -0.010583499
0000a0 f9 9d 80 bd eb 14 5a 3c 11 7e a7 bc 87 12 b1 3c
       -0.06280131 0.013310651 -0.020445855 0.02161528
0000b0 e6 81 00 3d 40 02 ca 3d ef 61 eb 3c 94 21 a9 bc
       0.03137388 0.098637104 0.028733222 -0.020645894
0000c0 bd 1d 55 bd ff 8a f5 bc 61 21 4f bd 8f 46 c3 bd
       -0.052030314 -0.029973505 -0.050568942 -0.09534942
0000d0 50 df 96 bd e7 fd 6d 3d 48 63 76 3d 2c 7d b0 bd
       -0.07366812 0.05810347 0.060153276 -0.08617625
0000e0 d3 6b 66 3c 03 cd 94 bd d2 28 62 bd d3 ad 30 3d
       0.014063793 -0.072656654 -0.05521471 0.04313452
0000f0 76 f6 2e bd 4f e5 87 3d ce b1 70 bd f5 fd a6 3d
       -0.042715512 0.06635534 -0.058763318 0.08153907
000100 f8 5c e9 3c 16 8d 29 bb 6b 99 51 3d bf 02 97 3d
       0.028486714 -0.0025871447 0.0511717 0.07373571
000110 f9 7c d9 3b 67 b6 29 3d bd 95 3e bd b2 42 12 bd
       0.0066372124 0.041433718 -0.04652952 -0.035708137
000120 6f 85 f6 bc 5e bd f1 3d ec 42 94 bd b8 07 e2 bc
       -0.030092923 0.11803697 -0.07239327 -0.027591571
000130 9c c5 fa bb 70 1b 5f 3c 5f 48 ad 3d 7c d3 5b 3d
       -0.0076529514 0.013617381 0.08461069 0.053668484
000140 f2 67 88 bd 84 70 59 3d f9 c9 34 bd 6c 90 9c bc
       -0.06660451 0.05308582 -0.04413793 -0.019111834
000150 44 d9 ab 3d b0 e9 d7 bc e7 33 bd bc e4 06 a5 3d
       0.083910495 -0.026356548 -0.023096038 0.08057955
000160 a6 2b 54 3c aa 5b 9e 3d 74 24 86 3d fc c3 1c bd
       0.01294986 0.07732327 0.06549922 -0.038272843
000170 56 33 b8 bc e8 42 86 3d 78 60 b6 bd ee 3f 42 bd
       -0.022485416 0.0655573 -0.08905119 -0.04742425
000180 48 94 70 3d 7e 18 d2 bd a0 09 2f 3d 57 2b 94 bc
       0.058735162 -0.10258578 0.04273379 -0.018087072
000190 8f 0f 7d bd 54 1e 74 3d d3 2b a0 3c 92 28 76 3d
       -0.061782416 0.059599236 0.019552147 0.060097285
0001a0 d3 64 db bc 84 5b 74 bd 7a e6 29 3d 91 7e 8e bc
       -0.026781475 -0.05965759 0.041479565 -0.017394336
0001b0 03 0d 10 3d c1 4e 71 3d 92 b5 67 3d b2 d1 ab 3c
       0.03516866 0.058912996 0.056569643 0.020974014
0001c0 f9 7c d6 bc 5b 2d 98 3c 32 60 9c 3d c8 13 89 bd
       -0.026182638 0.018576315 0.07635535 -0.06693226
0001d0 ae 49 9d bd 86 d5 8e 3d f6 d9 17 bd b2 d7 25 3b
       -0.07680069 0.0697432 -0.037073098 0.0025305566
0001e0 fb 1f 70 bd b1 7d 11 3d f7 2a 27 3c cb 53 71 3c
       -0.05862425 0.03552026 0.010203115 0.01472945
0001f0 ce 04 5b 3d 73 e2 58 3d 76 16 19 3b 5e ae 29 3c
       0.05347138 0.052950334 0.0023359335 0.010356514
000200 2a 4d 2f bd 97 e0 97 bc 4e dd 5e bd d5 ca a3 bd
       -0.0427982 -0.01853971 -0.05441027 -0.079976715
000210 ca 96 1f bd 0e 2f fd 3b 7e 6b 70 bd 71 2f 36 bd
       -0.038962163 0.0077265566 -0.058696263 -0.044478837
000220 71 00 31 3d e8 d6 96 bd 34 83 83 bd 14 c9 fa bc
       0.04321331 -0.07365209 -0.064215094 -0.03061346
000230 bc 5d 8e 3c b3 6d 8e bd 12 25 34 bc fe 9e fc 3c
       0.01737868 -0.06954517 -0.010995166 0.030837532
000240 9f 7e bf 3d 91 38 3d bd 48 d4 9d bc ba 70 89 bd
       0.09350323 -0.046196524 -0.019266263 -0.06710954
000250 07 8c f7 3c 9d d8 c6 3d 89 39 cd bd e1 b4 13 bd
       0.030218137 0.097092845 -0.100207396 -0.03606117
000260 8b 88 b1 bd 32 b2 24 3c c9 72 05 bd b0 64 c8 bd
       -0.08668622 0.010052251 -0.03258017 -0.097848296
000270 73 57 bc bd 46 0c 0b be e0 40 04 be 94 07 e4 bd
       -0.09196367 -0.135789 -0.12915373 -0.11134258
000280 7c 89 2e 3d f8 ab 30 bd 33 9e 22 be 1d 06 02 be
       0.042611584 -0.043132752 -0.1588066 -0.12697645
000290 56 d3 50 3c 34 5a 99 3c c1 e4 43 bd fd d6 f2 bc
       0.012745699 0.01871977 -0.04782558 -0.02964353
0002a0 be 7e b0 3b 52 df 1e bd 38 e7 74 bd 02 ce d4 bc
       0.0053862026 -0.038787194 -0.05979082 -0.025977138
0002b0 a4 fd d3 3c 1b 88 a9 bd 54 25 d5 3c ce 28 16 3c
       0.025877781 -0.08277913 0.026018776 0.009165002
0002c0 01 4d bc bc ac 6e 9c 3c f8 dd b0 bc 26 c4 6d 3d
       -0.022985937 0.019095741 -0.021590218 0.05804839
0002d0 17 7d 88 bd bb 95 00 be 1d c5 b8 bd 81 af 93 3c
       -0.06664484 -0.12557118 -0.090219714 0.018028023
0002e0 92 40 0b bd ad 6e 8b bd 8b 91 92 3b b1 6e 92 bd
       -0.033997126 -0.06808219 0.0044729165 -0.07150019
0002f0 64 d1 08 be 40 91 a8 bd ea 27 6a bd e6 46 7e bd
       -0.13361126 -0.08230829 -0.05716697 -0.062079333
000300 1d 6b ba bd 5e 5d 12 3e 8a a4 a3 3d 40 3f 82 bd
       -0.091024615 0.1429343 0.07990368 -0.0635972
000310 6d a8 1d 3d 2e 3a a1 3c c9 09 29 3a 9f 89 bb bc
       0.0384907 0.019681063 0.00064482965 -0.022892771
000320 55 13 aa bd 80 2d 5e bd 58 93 60 bd 88 bf e6 bd
       -0.083044685 -0.05424261 -0.054828018 -0.112670004
000330 2a f5 68 be 75 b2 57 be 72 b6 32 be a4 e5 19 be
       -0.22749773 -0.2106417 -0.1745241 -0.15029007
000340 7f 68 3d be 26 1d e5 3c 70 c1 3e be c5 eb 30 be
       -0.18496893 0.027968 -0.18628478 -0.17277439
000350 46 01 c9 bd 32 e8 1c 3e 6c f0 5a 3e 2f af c6 3c
       -0.09814696 0.1532295 0.21380776 0.024253456
000360 6d ef fa bc 1d db 37 3e a2 be 68 3e 8b 17 9f bc
       -0.030631745 0.17954679 0.2272897 -0.019420406
000370 33 d4 0a 3d 7d 2b 2c 3e d9 87 6b 3e c2 1f f3 3d
       0.033893775 0.16813464 0.2300104 0.11871292
000380 a0 79 be bd f9 14 bd bd 4c 22 5b bd b5 92 4b bd
       -0.09300542 -0.09232516 -0.053499505 -0.049700458
000390 4b 5b 80 bc 57 8d eb 3d ae fe 26 be 53 96 b0 bd
       -0.015668532 0.11501568 -0.1630809 -0.08622422
0003a0 b6 ee 40 bd b5 97 01 bc 54 b2 c7 bd 6c 87 b4 3b
       -0.047102652 -0.007909705 -0.0975081 0.0055093076
0003b0 64 b3 8a bd ee 40 6b bc 3b 65 b7 bd 40 89 b0 bc
       -0.06772497 -0.014358742 -0.08954855 -0.02154982
0003c0 cc 21 e0 bc f1 d0 e8 bd 2a fc 07 be 60 d8 1c 3c
       -0.027359866 -0.113679774 -0.13279787 0.009573072
0003d0 07 a0 28 3d 86 36 c0 bc 00 84 1a be e1 7d 15 be
       0.04116824 -0.023463499 -0.15089417 -0.145988
0003e0 0a 26 1c be af d0 07 be ad 12 9a 3c 75 16 c2 bd
       -0.15248886 -0.132632 0.018807733 -0.094769396
0003f0 40 b4 e8 3c 04 2c b7 3b 2e 43 7d bd 3e c8 6e bd
       0.028406262 0.005589964 -0.061831646 -0.058296435

conv2.bias f4 [16]
000000 cd 80 b1 3d da 93 92 bd 77 01 61 bd 97 c8 6f 3c
       0.08667145 -0.07157107 -0.054933038 0.014635227
000010 eb 70 ac bd b3 5e b2 3c 67 68 46 bd af 3f 9d ba
       -0.08419975 0.021773672 -0.04843941 -0.0011997129
000020 2e c0 04 3c 72 21 28 3d 3f 66 6b bd 8f 0b 9b 3d
       0.00810246 0.04104752 -0.057470556 0.07570564
000030 1a 69 13 3d 3a a9 2e bd e5 aa 22 bd e9 f1 bd bd
       0.035988905 -0.042641856 -0.03971376 -0.09274656

fc1.weight f4 [120, 256]
000000 18 73 6a bd f8 30 28 3d e0 ea a1 3c ef 57 7d bd
       -0.05723867 0.041062325 0.019765317 -0.061851438
000010 1e d1 4e bd 62 d2 1e bd 25 05 88 bd b2 3e c8 3b
       -0.0504924 -0.038774855 -0.06641606 0.0061109895
000020 8f 6f 49 bd 97 ca 5f bd 94 67 f8 bb 99 22 eb 3c
       -0.049178656 -0.054636564 -0.007580707 0.02870302
000030 ba c0 03 3d 4c 87 08 3b 74 1b 83 bb c1 dd bf bc
       0.03216622 0.0020832596 -0.0040010754 -0.02342117
000040 19 c3 94 3d 5a 62 05 3c 87 e8 7d bd 9d 14 af bc
       0.072637744 0.008141125 -0.061989333 -0.021372134
000050 31 70 7a bd 49 cf cc bc 26 58 82 bd 24 fe 07 bd
       -0.06114215 -0.025001185 -0.06364469 -0.03320135
000060 06 b4 03 3d 00 b1 62 3c 68 9f 34 bd 91 6d 02 3e
       0.032154106 0.013836145 -0.044097334 0.12737109
000070 ea 10 2e bc 3b 69 10 bc b9 84 39 bd a2 5b 9a 3d
       -0.01062415 -0.008814151 -0.04529259 0.07537009
000080 8f 7a 7c 3d ff 76 83 bd 64 db 60 bd 8d 0f a2 3c
       0.06164032 -0.06419181 -0.054896727 0.019782806
000090 45 f2 12 bc 13 93 7a 3d 0b f2 ab 3c 9e 26 b2 3d
       -0.008968894 0.061175417 0.020989439 0.08698772
0000a0 54 e5 65 3b dd 56 17 3d 3c 7c ac bc 60 83 24 bd
       0.0035079317 0.036948074 -0.021055333 -0.04016435
0000b0 df cd d0 3b 8b 48 3b 3d 94 34 63 3d 09 99 b5 bb
       0.006372198 0.04572348 0.055470064 -0.005541925
0000c0 09 c0 ea bc 9f f7 35 3d c5 04 84 3c d6 48 34 ba
       -0.028656023 0.044425603 0.016115556 -0.00068773085
0000d0 1b 1a 52 bd b1 d9 4a 3d 9a 13 48 3d b1 03 35 3d
       -0.051294427 0.049524013 0.04884682 0.044192974
0000e0 26 c2 d6 bc e8 c7 c1 bd d6 e2 dc bc ef f4 da bc
       -0.026215624 -0.09461957 -0.026963633 -0.026728122
0000f0 8f c4 5c bd 63 c3 5e bc 90 a6 fc 3c e1 cf 20 39
       -0.05389839 -0.0135963885 0.030841142 0.0001533623
000100 4b 4d 83 bc a3 d6 f3 bb 62 d0 94 3d c5 93 1b bb
       -0.016028067 -0.007441358 0.07266308 -0.00237392
000110 ba f8 8c 3b e7 61 8f 3d a4 3b c9 3d be 5f 8f 3d
       0.0043021115 0.07001095 0.09825829 0.07000683
000120 dc 91 22 3c c4 bb 8f 3c 3c d2 94 3d a0 d7 8c 3d
       0.009922471 0.017545588 0.072666615 0.06877065
000130 0f 59 db ba b9 57 86 3d 85 0e 71 3d 93 aa 87 bd
       -0.0016734916 0.065597005 0.058851738 -0.06624331
000140 5f cd 5c 3c 5b cc 0e bd b3 55 b9 bc 43 f8 1d bd
       0.013476699 -0.034862857 -0.022623872 -0.03856684
000150 32 4e 2f 3d 47 ee 66 bd 8b 6e a4 bd 5d 7d c0 bd
       0.042799182 -0.056379583 -0.08028897 -0.09398911
000160 c7 f4 a5 3d d9 33 cc 3c 97 cf bf 3d a6 18 ef 3d
       0.08103328 0.024927067 0.093657665 0.11674623
000170 c1 ec 2e bd 54 8d d3 bc 36 03 2b 3c ea 8f 86 3d
       -0.042706255 -0.025824226 0.010437777 0.06570418
000180 31 fe b4 bc de f3 7d 3d 60 0d e3 3b c5 6d 20 3d
       -0.022093864 0.062000148 0.0069290847 0.039167184
000190 15 4e 27 3d b1 2c 81 3b e9 ec 27 bd 94 66 a9 bc
       0.04084595 0.003942095 -0.04099742 -0.020678796
0001a0 93 1d 8c 3d c8 eb 73 3b 68 8d ee bc c7 fd ba 3c
       0.06841578 0.0037219394 -0.029120162 0.022826089
0001b0 f0 6c 76 3c eb 6a d4 3a 28 4c 21 3d 54 e4 6d 3c
       0.015040621 0.001620618 0.03937927 0.01451977
0001c0 80 5b 10 bd 79 22 2a bd eb 38 fa 3c 76 d6 df 3d
       -0.03524351 -0.041536782 0.030544719 0.10929577
0001d0 9e 9d 28 3d 24 24 78 3d 5e 48 d5 3c 77 a5 a7 3c
       0.04116594 0.06058134 0.026035484 0.020464642
0001e0 ba 53 c2 bd f5 c6 2a 3c e1 bd 82 bd fe 1f b8 bd
       -0.09488626 0.010423412 -0.06383873 -0.08990477
0001f0 cd 28 80 bd a0 83 1e 3e e2 10 97 3d ef 37 aa bd
       -0.06257782 0.15479898 0.07376267 -0.0831145
000200 9b e5 7a bd 6d 58 f9 bb 19 b3 a4 3c a6 88 ba 3c
       -0.061254125 -0.007609418 0.020104932 0.022770237
000210 1d 4f 65 3d ef ac 7a 3d fb dc f3 bc 14 d0 5b bd
       0.05598365 0.06120008 -0.029768458 -0.053665236
000220 f1 6c ad 3c 75 68 74 3c 5b ea 66 3d 8f 55 5d 3d
       0.021170111 0.014917483 0.056375843 0.054036673
000230 d7 38 9b 3b 54 07 4d 3c 2d fa 77 3d f1 22 66 bd
       0.0047370004 0.012513954 0.06054132 -0.056185666
000240 9f 3e 22 3d bd ed ec 3c f8 cd aa 3c ec 3c be 3d
       0.0396105 0.028921956 0.020850167 0.09288964
000250 8d 83 2a 3c d3 02 65 bc 7c ef 1a 3d 9a 0d e4 3d
       0.010407341 -0.013977724 0.037826046 0.11135407
000260 91 bc d6 bd 2b 5d 0d bd 3f 59 8f 3c 0d 5a 07 3d
       -0.10485185 -0.03451268 0.01749861 0.033044863
000270 13 eb a7 bd f8 d7 8c bd 79 48 20 bd d1 c4 26 bd
       -0.08199134 -0.0687713 -0.039131615 -0.040715043
000280 06 4d 8c bc 09 08 8a bd 6f fd e5 3a 2e 5c 9e bc
       -0.017126571 -0.06739814 0.0017546843 -0.019331064
000290 84 56 80 bb 18 ea 37 3d 55 fa 3c 3d c8 0c b2 3d
       -0.0039165635 0.044900984 0.046137173 0.08693844
0002a0 97 68 b7 bc 43 54 9e bc b3 49 75 3d 0f e8 0e 3e
       -0.02238874 -0.019327288 0.05988474 0.13955711
0002b0 50 44 8f bd 2b 9e db bc 52 4a 75 bd 10 b5 b4 bc
       -0.069954515 -0.026808819 -0.05988533 -0.022058994
0002c0 91 1e 01 3d 5a 7d 37 3d c7 72 f9 3c 17 b4 73 3c
       0.03152329 0.04479728 0.030450238 0.01487448
0002d0 d3 54 5f bd a9 fe 62 3d 80 49 c9 3c 9a 8d 9f 3b
       -0.054524254 0.055418644 0.02457118 0.004869175
0002e0 05 f0 3f 3d 2b 79 8f bb 42 1e 30 bd 8c a1 98 bd
       0.04685976 -0.004378458 -0.042997606 -0.074526876
0002f0 e2 90 0c 3d 36 d7 54 3c e1 80 d8 39 81 2f 37 3c
       0.03431786 0.012990763 0.00041294753 0.011180759
000300 ea 15 c6 bb 17 d3 50 3c e2 55 c7 ba 1b 64 a1 3a
       -0.006045093 0.01274564 -0.001520809 0.0012313159
000310 6d aa 0b 3d 07 e7 55 bb 9f 94 85 b8 06 98 04 bc
       0.034098078 -0.0032638924 -6.369617e-05 -0.008092886
000320 e5 35 0c bd 67 05 65 bb 4f e0 cb 3d af 96 07 bd
       -0.034231085 -0.0034945847 0.09954893 -0.033102687
000330 e4 8e c0 bd 87 6c 57 3d 57 f9 a5 3d 20 bb 76 3d
       -0.09402254 0.052593734 0.081041984 0.06023705
000340 cf 91 77 bd 50 26 39 bd db 50 b7 39 94 dd 41 3d
       -0.06044179 -0.045202553 0.00034964722 0.047330454
000350 7a 9e 85 3a 43 cf a8 bd 5d 65 92 3d f8 d7 ed 3d
       0.0010194324 -0.08242657 0.0714824 0.116134584
000360 2b ca 96 3c 7a dd 83 bc b4 c7 00 bd a6 99 8e 3d
       0.018406948 -0.01609682 -0.03144045 0.069629
000370 7c a2 ce bd cb e9 a6 bc 88 bc e8 3c c6 52 72 bd
       -0.10089585 -0.020375153 0.028410211 -0.05916097
000380 88 c0 a0 bc e4 d6 e9 bc 79 0f f2 bb 99 d1 77 bc
       -0.019623056 -0.02854485 -0.0073870984 -0.015125656
000390 75 95 2a bd e0 62 91 3d 41 a5 b8 bd a7 00 a3 3c
       -0.04164644 0.07098937 -0.09015895 0.019897772
0003a0 a2 9d 55 bd d5 ab 8a bd 6f 3a 82 3c 88 0d cc bd
       -0.052152283 -0.067710556 0.015897004 -0.099635184
0003b0 b9 54 a7 3d e0 7e 0f 3d 36 95 60 3d 20 92 c6 3c
       0.081704564 0.035033107 0.0548298 0.0242396
0003c0 1a 28 65 bc fd 06 f9 3c 47 8b 70 3c 98 63 09 3d
       -0.013986612 0.03039884 0.014681644 0.033542246
0003d0 ce f4 b2 3c 2b b0 21 bd ed 59 61 3d 2c 49 4f 3c
       0.021845248 -0.039474647 0.0550174 0.012651723
0003e0 c3 e4 cd 3c a5 5d 93 3b 81 bf 5a 3d a4 a2 7b 3d
       0.025133496 0.0044972473 0.05340529 0.061434403
0003f0 e6 e3 76 bd 77 9c 9a 3b 66 3b d5 3c ec 53 87 3c
       -0.060275935 0.004718359 0.0260293 0.01651951

fc1.bias f4 [120]
000000 27 b2 3a 3d a0 74 6f bd f5 52 a2 3c 82 56 10 bb
       0.045580056 -0.05846083 0.019814948 -0.002202422
000010 1b 5c 3e 3d c4 3a c4 bc ac 7e 0f 3d 9f 8c c5 3c
       0.046474557 -0.023953803 0.035032913 0.024114905
000020 21 40 7a 3d b1 ed dd bc 53 c9 61 bc 0b c4 56 3d
       0.061096314 -0.02709088 -0.01378091 0.052433055
000030 9b 20 64 bd c6 4b 17 3d 21 ed 84 3c 5e e5 39 bd
       -0.055695157 0.036937498 0.016226353 -0.045384757
000040 3f b9 3a bc b3 6e ec 3c 1b 66 0e 3d 05 bf c4 3c
       -0.011396705 0.02886138 0.034765344 0.024016866
000050 36 92 08 3d d0 9e 41 3d 7e df 46 bd 90 d7 33 3d
       0.033342563 0.047270596 -0.048552983 0.04390675
000060 d4 bf 24 bd f7 5c b4 3c d2 7c 5f bd 8c 8c 91 3d
       -0.040222004 0.022016985 -0.054562397 0.07106885
000070 ba a5 45 3d 43 54 78 3c b8 9c f6 bc f4 d0 43 bc
       0.048253752 0.015156808 -0.030104026 -0.011951674
000080 d3 51 69 bd fa ec 6f bd ee a0 05 bd a0 43 b1 3c
       -0.0569628 -0.058575608 -0.032624178 0.021638691
000090 9f 58 87 bd 20 e2 38 3d 90 f6 47 bd 07 24 0a bd
       -0.066087 0.045137525 -0.048819125 -0.033725765
0000a0 14 a0 f1 3c 7f 7e 15 3c 47 cf 4e 3c c3 c5 9e 3c
       0.029495277 0.009124397 0.012622661 0.01938141
0000b0 5f 72 43 3d 94 11 ee bb af 02 8e bd 41 7c bf bc
       0.047716495 -0.007265279 -0.069341056 -0.023374679
0000c0 6d a1 27 3d c8 09 bd bc 35 30 6b bc 12 5c e6 bc
       0.040925432 -0.023075953 -0.014354755 -0.028120074
0000d0 b2 05 42 bd 4e 44 d0 bc f9 73 56 bd 18 b0 3c 3d
       -0.047368713 -0.025423195 -0.052356694 0.046066374
0000e0 b0 63 b1 b9 9a b9 1f 3d 8e 0a 85 3d 48 ad 2f 3d
       -0.00033834344 0.038995363 0.06496154 0.042889863
0000f0 c2 cb 27 bd 27 94 a0 bb a7 1c ad b9 1b da 35 3d
       -0.040965803 -0.0049004736 -0.0003301848 0.044397455
000100 fc 1e 92 bc 5b 91 09 3d 49 1e 02 bd 9f 09 b2 3b
       -0.01783704 0.033585887 -0.031767163 0.005433276
000110 3a 69 3c bc 85 45 65 bd 1c f6 7a bd 93 d9 c8 3b
       -0.011499697 -0.055974502 -0.061269864 0.0061294525
000120 b2 3d 8b 3c 96 19 83 3c 6e 4f 1d 3d 37 03 aa 3c
       0.016997192 0.016003411 0.03840583 0.020753486
000130 27 88 50 3d 00 c1 81 3d 91 a9 a3 bc c8 a0 2c 3d
       0.050911095 0.0633564 -0.019978317 0.04214552
000140 b8 b6 ac 3d 4d fe 9d 3d bb 57 df bc f1 05 29 bd
       0.08433288 0.0771452 -0.027263513 -0.04126543
000150 0a 9d da bc 3d 57 26 3d 56 25 70 bd 02 6c 56 3d
       -0.02668621 0.04061054 -0.058629356 0.052349098
000160 e9 0d 5f 3d 65 95 cd bc 6e ba 7b 3b 1e 50 ba 3c
       0.054456625 -0.02509565 0.0038410681 0.022743281
000170 eb 04 e1 bb d0 b1 97 3d 37 57 6a 3c c6 63 9b 3d
       -0.0068670413 0.07406962 0.01430302 0.0758739
000180 87 34 a9 3c 86 02 93 bc c5 1d 07 bd c6 03 f8 bb
       0.02065493 -0.01794554 -0.032987375 -0.007568809
000190 d6 68 7f bd 7f 01 15 bd b3 57 24 3d e9 3c 64 3d
       -0.06235584 -0.03637838 0.0401227 0.05572215
0001a0 34 97 87 3c 87 2b 22 3b 75 41 56 3c 20 94 7f 3d
       0.016551591 0.0024745183 0.01307713 0.062397122
0001b0 0e ae 98 bc bc 44 d6 3c 9a 8e 39 bd 26 9b 9f bb
       -0.018637683 0.026155822 -0.04530201 -0.00487079
0001c0 7b ba 2c bc 39 64 58 bd db 54 01 bd 1b eb ce 3c
       -0.010542507 -0.052829955 -0.031575065 0.025258591
0001d0 8a a8 7f bd df a2 b0 3c 78 bd 43 bb 4a 51 d1 3c
       -0.06241659 0.021562038 -0.002986757 0.025551457

fc2.weight f4 [84, 120]
000000 4b d1 c8 bd 03 15 37 bd 32 38 57 3d 6c 0b b4 3d
       -0.098055445 -0.044697773 0.052543826 0.08791241
000010 f0 1e 6f 3d 73 06 9a bd 98 31 1f bb 9c 64 19 bd
       0.058379114 -0.07520761 -0.0024291035 -0.037449464
000020 b6 c3 65 3c c0 b0 7c 3c 57 15 3f be df 90 e0 bd
       0.014023712 0.015423 -0.18660484 -0.10965132
000030 90 ce 68 3d cd 0e 0b 3d 3d 67 b8 3c 61 7e 9c bd
       0.05683762 0.033949662 0.022510165 -0.07641292
000040 fc 8b 96 3d 9d f4 91 bd 4f 64 8d bd 40 0b e7 3d
       0.07350919 -0.071267344 -0.06903898 0.11281443
000050 6a 9f 0a be d7 c8 b9 bd d5 d1 da 3d 36 50 84 3c
       -0.13537374 -0.0907151 0.106845535 0.016151529
000060 c5 17 9d 3d 20 b0 dc 3d 7f ef 16 bd 87 ae 92 bd
       0.07670549 0.10775781 -0.036849495 -0.07162195
000070 fd 7b fe 3d ab b9 c9 bd 2b 54 02 bd 67 44 9c 3d
       0.12425993 -0.098498665 -0.03181855 0.07630234
000080 84 bc 23 be a0 86 23 3d 0a 28 12 bc 87 64 d6 3b
       -0.15989882 0.03992331 -0.008920679 0.0065427455
000090 3b e3 28 bc 9c 4d cb bd 4a ce fb bd b4 2a d4 bc
       -0.010308082 -0.09926912 -0.12295206 -0.025899269
0000a0 f1 28 54 bd 8f 23 03 3a e1 64 58 bd 91 9f a6 bd
       -0.051796857 0.0005002552 -0.05283058 -0.081359036
0000b0 5c 17 48 bd 05 eb cb bd c5 68 8e bc e5 47 0c 3d
       -0.048850402 -0.09956936 -0.017383942 0.03424825
0000c0 34 c0 94 3d e2 49 c0 bd 64 73 10 be ae 0c 4e 3c
       0.07263222 -0.09389092 -0.14106518 0.012576265
0000d0 4a 5e e9 bc 41 2f 06 bd d0 7a 9f 3d cb f1 5a 3d
       -0.028487343 -0.03275991 0.077870965 0.053453248
0000e0 55 fc 93 bd 81 bd eb bd 15 3a d3 3c d2 76 1a bd
       -0.07225863 -0.115107544 0.025784532 -0.037710972
0000f0 e7 8c bd 3c 51 65 cb 3d 54 c5 93 3d d6 58 bb 3d
       0.023138477 0.09931434 0.07215372 0.091478035
000100 4f 85 ce 3c 3b ec 84 3d 3a 40 da 3d 99 f0 84 bd
       0.02521005 0.0649037 0.106567815 -0.06491203
000110 a9 bf 2b bc 22 1b c8 bc 09 61 59 bd 7b 3a ca 3d
       -0.010482707 -0.024427 -0.053071056 0.098744355
000120 5b 74 51 bd 44 c0 8f 3d a7 f6 01 be 71 8d 27 bd
       -0.051136356 0.07019094 -0.12691747 -0.040906373
000130 e3 72 88 bc ee 13 b4 3d 6d 22 41 bd ac f0 57 bc
       -0.016656345 0.08792864 -0.04715197 -0.013179939
000140 1f 5a 1c bd cf 4e a1 bd e1 cc 8a bd 9a 00 89 bd
       -0.038171884 -0.0787636 -0.06777359 -0.06689568
000150 ab 27 a1 bd 4a 0f ac 3d ab c0 07 3d 9b d8 26 bc
       -0.07868894 0.08401354 0.033142727 -0.010183479
000160 ee 20 f1 3c 04 ec 24 3d 0b dc 6b 3d 31 0d 5a 3d
       0.029434647 0.040264145 0.057582896 0.053235237
000170 a1 bc ed 3c d5 db b0 3d 6c 7c e6 bd 0e 9e c4 bc
       0.02902061 0.0863568 -0.112542 -0.024001148
000180 5e f3 e4 bd cd e0 2e bd a8 2c ba 3c 68 06 b0 3d
       -0.11179231 -0.042694855 0.022726372 0.08594972
000190 c3 cd c5 bd ba c2 8c 3d 67 a5 44 3d 5f 0d d3 3d
       -0.096583866 0.06873079 0.048009302 0.10305285
0001a0 64 95 f7 3d 7c c3 9e 3d b4 62 b5 bc b4 32 57 bd
       0.12089041 0.077521294 -0.022141792 -0.05253859
0001b0 e5 02 9f 3d 87 b5 c6 bc eb d5 0e bc f8 d7 5b 3d
       0.07764224 -0.02425648 -0.008717994 0.05367276
0001c0 3c b8 99 3d 2d e8 2f bd 75 48 92 bd cc 0b 7f bd
       0.07505843 -0.04294603 -0.07142726 -0.06226711
0001d0 07 8b 96 bd e7 7f c1 3c 35 83 d1 3d a6 8a 57 bb
       -0.07350736 0.023620559 0.10230104 -0.0032889037
0001e0 84 ee 77 3d 58 d4 85 bc 0a 15 c3 3d ae 70 73 bd
       0.0605302 -0.016336605 0.09525497 -0.05943363
0001f0 6e d6 d4 bc ea fe 06 3d d8 c3 01 be 1f 55 0b 3d
       -0.025981154 0.03295795 -0.12672365 0.034016725
000200 89 30 ad 3d 3f 67 55 bb d5 8e d1 3d b7 34 13 3d
       0.08456523 -0.003256276 0.10232321 0.035938945
000210 3e 85 6a bd 62 18 54 3c f5 03 53 bc a5 79 c9 3d
       -0.057255976 0.012945266 -0.012879361 0.09837655
000220 70 18 a3 bd df 12 ce 3d d6 fc 27 bb 40 b6 08 bc
       -0.079636455 0.10062193 -0.002563288 -0.008344233
000230 9b 29 75 3d 50 66 30 3c 66 8e 2a be c4 77 a9 bb
       0.05985413 0.010766581 -0.16655883 -0.005171748
000240 de 5e 80 bd 6c 1f 1e bd e1 44 98 3d 08 d1 3a 3d
       -0.062680945 -0.038604185 0.074350126 0.045609504
000250 8a 97 f0 3b da d4 e0 bd 16 81 bc 3d 3a 13 a3 3d
       0.0073422836 -0.10978098 0.09204309 0.079626516
000260 e3 ba 9c 3d 46 1e aa 3b 39 1d f0 3c c0 2f 56 bd
       0.07652833 0.005191597 0.02931081 -0.05229163
000270 4e 94 6c bd dc 6f dd bd d8 92 59 3d 55 e2 7e 3d
       -0.057758622 -0.10812351 0.053118557 0.062227566
000280 55 24 bc bd 00 ac bf 3d 58 ad c0 bc 4e 44 61 3d
       -0.09186617 0.09358978 -0.023520157 0.05499678
000290 0a b8 7b 3c 5b 57 aa bb b1 95 f3 3d a9 f6 81 bd
       0.015363703 -0.005198402 0.11893786 -0.06345875
0002a0 0c 64 8f 3d 7e 54 70 3d aa ff 2d 3d 9a 45 8a bc
       0.07001504 0.058674328 0.04248015 -0.016878892
0002b0 bc 7f 60 bd be 2a ce bd f8 bf b9 3d 5c 2f 15 be
       -0.054809317 -0.10066746 0.09069818 -0.14568847
0002c0 29 b5 01 bd 17 32 7c 3c e9 9f 17 bd d8 b1 c4 3c
       -0.03166691 0.015392802 -0.037017737 0.024010584
0002d0 d9 0f 85 bd 48 63 12 3d 5a f1 b3 3c b1 8e 7e 3d
       -0.06497163 0.035739213 0.021965671 0.0621478
0002e0 9d e0 c4 3d 26 f3 29 bd 4c ae a2 3d 78 39 de 3d
       0.09613154 -0.04149165 0.07943401 0.10850805
0002f0 91 d9 8b bd b6 d3 de 3c 6d e0 e3 bc 14 d5 21 3e
       -0.06828607 0.027200561 -0.027816975 0.15803939
000300 2f 53 b3 bd 70 c0 e1 3c eb 1e 12 3e bf 51 02 be
       -0.087561004 0.027557582 0.14269607 -0.12726496
000310 7a f1 66 3c 55 d7 8b 3c f5 c9 65 bd b0 27 8a bd
       0.014095658 0.017070452 -0.056100804 -0.06745851
000320 cd 86 0d 3e 77 2c 05 3e be f4 ec 3d a5 69 02 be
       0.13820954 0.13005243 0.11570118 -0.12735613
000330 d5 51 b0 3d 38 91 46 bc c7 73 bb bd 83 97 08 3e
       0.08609358 -0.012119584 -0.09152942 0.13339047
000340 8c 43 c9 3d 32 68 f3 3d 73 81 30 bd 01 0b 25 bd
       0.09827337 0.11885108 -0.043092202 -0.040293697
000350 25 0a ee bd 8f e5 0b be 67 77 10 3d 5a 47 9b 3d
       -0.11623029 -0.13661788 0.03527012 0.075819686
000360 70 26 a9 3d 1f e1 9d 3d 4b 3a 26 be ca e3 a9 3c
       0.082592845 0.07708954 -0.16233175 0.020738501
000370 66 ba c2 bd 4a c1 2e bd e5 7a 2b bc b6 73 0c 3d
       -0.09508209 -0.042664804 -0.010466312 0.034290038
000380 00 30 46 3c 83 a3 23 be 18 ae d6 3d fa 5c 2c 3e
       0.012096405 -0.15980344 0.104824245 0.16832343
000390 8a 02 0c bb de c3 cd 3d 7e 31 08 3b 18 4b ac 3d
       -0.0021363818 0.10047124 0.0020781453 0.084127605
0003a0 1a 9e 68 bd d5 7b 94 3d 18 54 97 3d 99 c0 a1 3d
       -0.056791402 0.072501816 0.073890865 0.07898063
0003b0 87 79 8d 3a 02 74 5f 3d 80 49 da 3d 79 05 2a bd
       0.0010793664 0.054553993 0.1065855 -0.041509125
0003c0 35 0a 3f bd 6e c4 29 bc 09 76 9b bd a6 d0 08 bd
       -0.046640594 -0.010361774 -0.07590873 -0.033402108
0003d0 7d 37 fe bc 4e 54 67 3d 7d 14 fe bd 66 3c f1 bd
       -0.031032318 0.056476884 -0.124062516 -0.11779098
0003e0 9c 3b 80 3b a9 78 45 3d b7 b2 18 be 0e 75 b9 bd
       0.003913356 0.048210774 -0.14911924 -0.090555295
0003f0 66 64 0e 3c 34 c0 f7 3d 38 75 42 bd 38 03 9b bb
       0.008690929 0.12097207 -0.04747507 -0.0047306083

fc2.bias f4 [84]
000000 a6 c0 9d 3d d5 21 89 bc 6b 77 40 bd d0 aa 92 bd
       0.077027604 -0.016739765 -0.046988886 -0.07161486
000010 47 be 16 3e db 5c ac bd e6 c8 40 3e 27 da 62 3d
       0.14721023 -0.08416148 0.18826637 0.055383828
000020 bc dd 1a bd 29 9f ec ba 08 65 c8 bc a9 09 9e 3d
       -0.03780912 -0.0018052805 -0.024462238 0.07716686
000030 5e 1d 8a bd ec b0 06 3e 8d 9b 29 3d 8c f1 a5 3c
       -0.067438826 0.13153428 0.04140811 0.02025678
000040 0b a2 53 3d 4e 97 c6 bd 01 80 ca 3c cd 79 31 3a
       0.051668208 -0.09696828 0.02471924 0.0006770164
000050 a6 17 02 bd 18 12 92 3d 46 04 cb 3d cc a8 27 3e
       -0.031760834 0.07132357 0.099129245 0.16372985
000060 59 53 0f 3d f2 19 74 3d e8 af b6 3d 95 f1 34 3d
       0.034991596 0.059595056 0.0892027 0.044175703
000070 a5 a0 2d 3d 6b 23 78 3d c3 47 51 3d 4d 7f 68 bc
       0.04238953 0.060580652 0.051093828 -0.014190507
000080 64 1d 1e 3d 8a 0e 23 3e d1 97 a9 3c bc ff 10 bd
       0.038602248 0.15923515 0.020702275 -0.035400137
000090 b3 31 f6 3d 72 8e e5 3a ab af 2d 3e 62 aa 0f bd
       0.12021198 0.0017513765 0.16961543 -0.0350746
0000a0 1f 13 a5 bd d6 0d 0a 3b 95 41 a7 bc 92 74 c0 3b
       -0.08060288 0.0021065376 -0.020417014 0.0058732713
0000b0 a9 c5 03 3e da c7 90 bd 1a fa b4 bd 1a ae 41 bd
       0.1286837 -0.07069369 -0.088367656 -0.047285177
0000c0 44 21 44 3d 52 86 24 3c b2 77 2c bc 99 ba 93 3d
       0.047883287 0.01004179 -0.010526584 0.07213325
0000d0 d7 19 1d 3d 81 11 8d bb 0e 86 b4 bd 12 ec ac ba
       0.03835472 -0.004305065 -0.088146314 -0.0013192913
0000e0 4e 92 ae 3c 8d ea 1e bd 34 24 8e bc c0 08 54 bd
       0.021309998 -0.038797904 -0.017351247 -0.051766157
0000f0 bb a8 76 bc 5e aa 0c bd 9b 1d e9 3d ce 08 74 3c
       -0.015054877 -0.034342162 0.113826 0.014894677
000100 5a d4 8f bc a9 50 c8 3d 08 e0 8d bc 91 36 e7 bc
       -0.017557312 0.0978101 -0.01731874 -0.028224261
000110 d8 ef 64 bd b6 6a a6 bd 2d 11 88 bc db 64 9b 3c
       -0.055892795 -0.08125822 -0.016609753 0.01896899
000120 4a ff d9 3d 4c 9e 61 bd 67 08 89 bd d8 f5 4d bd
       0.10644396 -0.055082604 -0.06691056 -0.050283283
000130 b3 1a 1b bd 02 eb af bd 4d 25 a5 bc f9 fa 7f bd
       -0.03786726 -0.08589746 -0.020159388 -0.062495206
000140 e3 49 6b 3d 4c f0 d7 3d ea 7a b1 3c ae a6 0f 3d
       0.05744351 0.1054388 0.021665055 0.035071068

fc3.weight f4 [17, 84]
000000 30 9a a4 bd a9 04 5f bd 58 ab 87 3c 13 89 b5 3d
       -0.080372214 -0.054447804 0.016561195 0.088640355
000010 be 03 46 3d 99 28 b0 3d 34 e5 1b 3d 40 08 c0 bd
       0.048343413 0.086014934 0.038060382 -0.093765736
000020 54 19 bb bc 35 66 e3 bb d1 2b 41 bd 67 67 f5 bc
       -0.022839226 -0.0069396743 -0.047160927 -0.029956533
000030 38 c5 97 3d db 44 d7 3c 7c 99 86 bd 67 d0 be bb
       0.07410663 0.02627795 -0.065722436 -0.0058231833
000040 23 49 8e 3d 8e 74 10 bd d9 f9 b4 3d 20 eb a0 3d
       0.069475435 -0.035267405 0.08836717 0.078573465
000050 c6 32 a0 bd 4b 31 9c 3c 9c d5 d1 bd c9 05 a5 3b
       -0.07822184 0.019066473 -0.10245821 0.00503609
000060 cf 07 b7 bd 99 e3 b8 bc e6 d0 ce 3a 04 a7 90 bd
       -0.08937036 -0.022569465 0.0015778809 -0.07063106
000070 f2 3e f7 3c 23 7f b3 3d da 60 b4 3d 24 d5 af 3c
       0.030181382 0.08764484 0.088075355 0.021463938
000080 61 a9 e6 3c 34 1a 84 bd 5a b6 cb bd 93 1e db bd
       0.028156938 -0.0645031 -0.0994689 -0.10699191
000090 17 83 dd 3d 61 b4 86 bd 14 03 b0 bd f9 08 95 bc
       0.10816019 -0.06577373 -0.08594337 -0.018192755
0000a0 81 9b 86 3d 1b b1 4a bc e3 5a da 3c f7 dd 52 3d
       0.06572629 -0.012371327 0.026654666 0.051481213
0000b0 a4 a9 9b 3b a3 2b 58 bd 05 77 95 bd 31 a4 64 bd
       0.0047504473 -0.05277599 -0.07298092 -0.055820648
0000c0 07 f0 2a 3d 65 26 a5 bd 93 b1 03 bb 3f 14 ac bd
       0.041732814 -0.08063964 -0.0020094856 -0.08402299
0000d0 f7 fb 81 3c 3c ae de 3d 92 ef a1 3d 89 4a b9 3d
       0.015867217 0.10873076 0.079070225 0.090474196
0000e0 8c 46 91 bc 07 de cd bd 38 b5 d7 3d 5d c6 32 bd
       -0.017733835 -0.10052114 0.105326116 -0.043646205
0000f0 f9 93 a7 3d 1b 53 20 bd 2c 3e 1b 3c f9 8a 8f 3d
       0.081825204 -0.039141756 0.009475272 0.07008929
000100 33 03 bb 3d b1 c8 6b bd 15 f5 0d bd c5 41 24 bd
       0.091314696 -0.05756444 -0.034657557 -0.040101785
000110 11 94 b7 bd 1a 31 b6 3d 75 18 7c bd 17 a6 af 3c
       -0.08963788 0.08896084 -0.06154676 0.021441502
000120 2d 7f 4e bd f3 02 ea 3c 05 54 0a 3d eb ec cc 3d
       -0.050414253 0.02856586 0.033771534 0.10006126
000130 12 71 e1 bb 31 db 8e 3d f0 49 af 3d 85 c1 c3 3d
       -0.006879934 0.06975401 0.08559024 0.09558395
000140 cf c9 df bc 03 0a 36 bc 6e eb a6 ba ae 68 97 3c
       -0.02731791 -0.011110785 -0.0012734958 0.018482532
000150 79 23 df 3c a6 f9 72 bd c2 8b 84 3d 61 76 15 bd
       0.027238594 -0.059320115 0.06471969 -0.036489848
000160 8d f6 90 bd c6 2f 7d 3d 3f 70 25 bd 36 17 c9 bd
       -0.07078276 0.06181314 -0.04039025 -0.0981888
000170 d0 f3 08 bc 0a 85 a9 3d b1 8c 60 3d 85 dd 9d bd
       -0.008358911 0.08277328 0.054821674 -0.07708267
000180 69 cf cf 3d bb 68 aa 3d cd 78 a0 bd 9b 31 87 3d
       0.10146982 0.08320757 -0.07835541 0.06601258
000190 17 cf 9d 3d e7 54 b8 3d 19 eb 60 bd d3 3a b6 bd
       0.07705515 0.09000569 -0.054911707 -0.088979386
0001a0 35 18 87 bc ed 0d cf 3d 3d 60 da bd 51 71 d1 bd
       -0.016491035 0.10110078 -0.10662887 -0.102266915
0001b0 71 3d e7 bc 22 75 99 3d 13 66 50 3c 66 ff 48 3d
       -0.02822754 0.074930444 0.012719649 0.049071692
0001c0 6b d9 5d bd 7c 53 f7 3b 68 ca e0 bc 03 a3 fc 3c
       -0.054162424 0.007547794 -0.027440265 0.030839449
0001d0 4c ed ae 3d a4 fb 86 bd b8 3b 09 3d 42 5a 67 bd
       0.085413545 -0.065909654 0.033504218 -0.05648256
0001e0 a9 45 27 3d 94 d9 d5 3d 93 b6 a9 bd 6c db 72 3d
       0.040837917 0.1044189 -0.082867764 0.05929129
0001f0 1c 59 38 3d b8 1c 6c 3c a8 ff c4 3d 74 b5 42 bd
       0.045006856 0.014411144 0.09619075 -0.04753633
000200 0f e4 a7 bc 17 47 d4 3d 1e 6e 3c 3d 52 b3 c8 bc
       -0.020494489 0.10365122 0.046003453 -0.02449957
000210 ed 84 a6 bd f0 76 1a bc dd b6 a7 3c 21 93 6d bc
       -0.08130822 -0.009427771 0.020472938 -0.01450041
000220 79 f2 61 3c c3 fd 20 bd 34 09 cb bd 41 6c d4 3c
       0.01379072 -0.039304506 -0.09913865 0.025930526
000230 6f d5 0f 3b 99 27 85 bb ce 83 1d bd fa d9 13 3d
       0.0021947285 -0.0040635583 -0.038455777 0.03609655
000240 b7 95 dd bd 10 cb 8c 3d fe e8 d4 bd ca 0e cd bd
       -0.108195715 0.068746686 -0.10396002 -0.100125864
000250 9d 68 ac 3c 47 a1 d5 3d 05 5d dd bd b0 30 86 3d
       0.021045977 0.10431152 -0.10808758 0.06552255
000260 40 6a b5 3c df 4c 8a bb a1 d0 26 3d df 8d 48 bd
       0.02214539 -0.0042205895 0.040726308 -0.048963424
000270 7e b1 2f 3d ac 6a 6e b9 42 e0 44 3c d4 91 9b 3d
       0.04289388 -0.00022737187 0.012016358 0.07596174
000280 39 67 6e 3d ce 59 98 bd 36 f4 af 3c 23 99 ea 3c
       0.05820391 -0.07439004 0.021478754 0.028637474
000290 78 a0 be 3d fc d3 b3 3d 73 31 db bd 62 b6 9b 3d
       0.09307951 0.08780667 -0.10702791 0.07603146
0002a0 80 14 cf 3d b8 1c 23 3d f1 61 59 bd 26 3f 32 bd
       0.10111332 0.03982231 -0.05307192 -0.043517254
0002b0 64 92 87 bd 2f c5 d6 bd fb 04 91 bd 30 aa 88 bd
       -0.06619719 -0.104868285 -0.07081028 -0.06673086
0002c0 30 9d 8b 3d f2 20 ca 3c 2c 18 b6 3c b1 6c 46 3d
       0.068170905 0.024673913 0.022228323 0.0484435
0002d0 90 f0 c9 3d dc d5 47 3d f6 fb 96 bd 5e f3 21 bd
       0.09860337 0.048787937 -0.073722765 -0.039538734
0002e0 8c 71 be bd a1 88 38 3d a6 54 87 bd 68 9e 7a bc
       -0.09299001 0.045052174 -0.06607942 -0.015296556
0002f0 71 53 c4 bd f0 83 db bd d5 1c 9d bd 74 cf f1 3c
       -0.09586228 -0.107185245 -0.07671515 0.029517867
000300 91 b2 7e 3d 3f bf 94 3d 15 d2 28 3d 63 39 15 3c
       0.062182013 0.0726304 0.041215975 0.00910792
000310 7b 1b cf 3d 1e 35 fa bc 4a fe 49 3d b6 05 00 3c
       0.10112663 -0.030542906 0.049314775 0.007813862
000320 cd b7 d7 3d 96 5b 6f bd 2b a9 76 bc 64 4e 6d 3c
       0.10533104 -0.058436953 -0.015054981 0.014484022
000330 04 5b 35 3d 34 67 c0 3d 89 14 41 3b 43 de cf bc
       0.044276252 0.093946844 0.0029461703 -0.025374537
000340 76 ce 78 3d 36 df 8b 3c 59 ed 46 3d 37 72 b9 bd
       0.06074377 0.017074209 0.048566196 -0.09054988
000350 8a dd 4b bc 95 aa dd bb cc 38 d8 bd 2a 5c bb 3d
       -0.012442956 -0.0067647197 -0.10557708 0.09148438
000360 d7 0a ab bd d1 9d db bd cd 56 1f bd 0f f5 c4 bd
       -0.08351677 -0.107234605 -0.03890114 -0.09617054
000370 78 ef 93 bc b4 8f ac bd 3d dd a4 bd 1f d8 1b bb
       -0.018058524 -0.08425847 -0.0805001 -0.0023779941
000380 0a cd 93 3d af f7 9b bc 5d e0 4a bd 55 a3 5b bd
       0.072168425 -0.019039003 -0.049530376 -0.053622562
000390 b6 bc a1 bd e1 9f 80 bc e1 b7 6f bd 25 90 df bc
       -0.07897322 -0.015701236 -0.05852497 -0.027290413
0003a0 8c 2f ad 3c e7 17 de bd 86 1e 83 3d a2 d1 12 3d
       0.021140836 -0.10844403 0.06402306 0.035844453
0003b0 92 0b 9d bd b1 2d c6 bd 50 c5 bb bd 7e 1b 27 3d
       -0.076682225 -0.09676684 -0.09168494 0.040797703
0003c0 93 fd 7b 3c b8 ca b0 3d a1 74 42 bd c7 e1 ba 3d
       0.015380281 0.086324155 -0.047474507 0.09125095
0003d0 df 24 c0 bd ff 9d d3 bd 2f 6e c1 bd cb f4 1f 3d
       -0.093820326 -0.1033287 -0.09444844 0.039051812
0003e0 ae 72 be bb 76 f7 d3 bd 38 2f ca bd 01 96 87 bd
       -0.0058120107 -0.10349934 -0.098722875 -0.06620408
0003f0 b4 65 6f 3d fb c1 33 3d 18 e5 9d bd 3f 60 21 3c
       0.0584466 0.043886166 -0.07709712 0.009849607

fc3.bias f4 [17]
000000 90 bc a3 bd 45 3f 03 3d 89 6c 6b bd 81 24 ca 3d
       -0.0799495 0.03204276 -0.057476554 0.09870244
000010 d2 6f 68 3c bb 69 59 bc 31 45 20 bd 6e 89 f1 3c
       0.014186816 -0.013269837 -0.039128486 0.029484477
000020 67 9b 3a bd 51 09 1c bd ba 9c 05 bd 36 d6 c8 3b
       -0.04555836 -0.038094822 -0.03262017 0.0061290516
000030 fc 2a 1a bd 73 bb a3 bd 72 45 a0 bd 31 04 ba 3c
       -0.03763865 -0.079947375 -0.07825746 0.022707077
000040 5b 97 d9 bd
       -0.10624572
