Classifier/weights/HASY_weights.pth (torch, 636945 bytes, 10 tensors)

conv1.weight f4 [6, 1, 5, 5]
-0.12313295 0.19361278 0.0741236 0.20600738 -0.16637887 0.52249265 0.7071783 0.56009257
0.5915249 0.29746607 0.19838634 0.3068477 0.20393659 0.38763392 0.27843058 -0.38786885
-0.698472 -0.613109 -0.28082442 -0.028621955 -0.52642417 -0.5623834 -0.7628127 -0.66179913
-0.1977157 0.1325686 -0.036522686 -0.34849054 -0.039431132 -0.09446437 -0.31324914 -0.4151767
-0.16459563 -0.46175027 -0.33186343 -0.37514472 -0.18123226 -0.47590196 -0.37449333 -0.14046112
-0.09018368 -0.4526966 -0.2725303 -0.38027316 -0.1295402 0.16904366 -0.021929799 -0.103611365
-0.018244801 0.08297377 -0.09813714 0.0930085 0.2716294 0.03988015 0.09958313 0.45748228
0.262114 0.1155282 0.034710415 0.20103814 0.2799728 0.11366611 0.17792451 0.20837104
-0.047948197 -0.2669153 -0.21432021 -0.053370427 -0.31940907 -0.22981828 -0.28680256 -0.31605765
-0.49050996 -0.063514344 -0.013933247 -0.14156468 -0.18787947 0.0060092513 -0.1591845 0.21820337
-0.23307016 -0.28908825 -0.17639025 -0.27107507 -0.24891168 -0.30250543 -0.26676765 -0.46070006
-0.39729193 -0.29749346 -0.34133354 -0.35824472 -0.3225562 -0.2328659 0.014323624 0.057900604
-0.07144252 -0.22833683 0.1167993 -0.043461937 0.0733222 -0.17171836 -0.45066327 -0.575166
-0.03127727 0.4105795 0.21104787 -0.5424834 -0.31564102 -0.33682984 0.48587608 0.09239795
-0.12615655 -0.63721347 -0.5092955 0.51054925 0.43718666 0.16246343 -0.19815959 -0.32071134
0.25178415 0.42424905 0.39241016 0.06850171 -0.004888288 -0.17834653 -0.060035907 0.05493765
-0.048665237 -0.20480296 -0.002345863 0.12107488 0.3737873 0.16301367 -0.13519272 0.4382468
0.6545418 0.2718145 -0.16457202 -0.4521017 0.215876 0.5540294 -0.15406477 -0.49626747
-0.89170605 0.30164227 0.21415673 -0.06605755 -0.562574 -0.7708618
00000000: 212d fcbd 6e42 463e 1dce 973d 99f3 523e
00000010: 395f 2abe 14c2 053f a309 353f 3a62 0f3f
00000020: 2d6e 173f 794d 983e ca25 4b3e 241b 9d3e
00000030: c1d4 503e f477 c63e 748e 8e3e bf96 c6be
00000040: 10cf 32bf b6f4 1cbf 38c8 8fbe 9778 eabc
00000050: bcc3 06bf 5cf8 0fbf b147 43bf ab6b 29bf
00000060: fc75 4abe 10c0 073e d098 15bd 5a6d b2be
00000070: 8a82 21bd 8976 c1bd 3162 a0be 0a92 d4be
00000080: c28b 28be 886a ecbe 01ea a9be f812 c0be
00000090: f394 39be 6ca9 f3be 97bd bfbe 0ad5 0fbe
000000a0: 39b2 b8bd d9c7 e7be 1789 8bbe 2ab3 c2be
000000b0: 30a6 04be c819 2d3e 1fa6 b3bc 3232 d4bd
000000c0: 1f76 95bc 27ee a93d 20fc c8bd 3e7b be3d
000000d0: 0213 8b3e 5e59 233d 3df2 cb3d 1e3b ea3e
000000e0: ce33 863e 0d9a ec3d 822c 0e3d f1dc 4d3e
000000f0: 9858 8f3e c7c9 e83d d831 363e 385f 553e
00000100: 5465 44bd 1fa9 88be c276 5bbe f39a 5abd
00000110: 9689 a3be 7c55 6bbe c9d7 92be 4fd2 a1be
00000120: 1f24 fbbe cf13 82bd 4648 64bc 55f6 10be
00000130: 7a63 40be 41e9 c43b 4301 23be b470 5f3e
00000140: f2a9 6ebe 6003 94be a59f 34be 5aca 8abe
00000150: b4e2 7ebe fee1 9abe c595 88be e1e0 ebbe
00000160: d969 cbbe 1051 98be 45c3 aebe da6b b7be
00000170: 1626 a5be 6674 6ebe a2ad 6a3c 2f29 6d3d
00000180: 7550 92bd 21d1 69be 7934 ef3d 2505 32bd
00000190: f329 963d f0d6 2fbe 56bd e6be 143e 13bf
000001a0: 981c 00bd 7a37 d23e ef1c 583e 31e0 0abf
000001b0: b39b a1be f674 acbe c0c4 f83e 233b bd3d
000001c0: 2f2f 01be 6c20 23bf 3161 02bf 5bb3 023f
000001d0: eed6 df3e d05c 263e 59ea 4abe 4734 a4be
000001e0: dae9 803e 2c37 d93e fce9 c83e a04a 8c3d
000001f0: ef2d a0bb 79a0 36be 36e8 75bd 4d06 613d
00000200: 3355 47bd deb7 51be 0dbd 19bb 1bf6 f73d
00000210: 0d61 bf3e 0eed 263e f66f 0abe e261 e03e
00000220: 0d90 273f 452b 8b3e 9185 28be e079 e7be
00000230: 990e 5d3e dfd4 0d3f 28c3 1dbe c516 febe
00000240: d946 64bf db70 9a3e e74b 5b3e 2e49 87bd
00000250: da04 10bf 3357 45bf

conv1.bias f4 [6]
0.4790139 0.19828339 0.044189405 0.15157637 0.33577573 0.58484185
00000000: 4f41 f53e cd0a 4b3e f3ff 343d d636 1b3e
00000010: ccea ab3e 32b8 153f

conv2.weight f4 [16, 6, 5, 5]
-0.10507333 -0.1106358 -0.13439758 -0.00869363 -0.11095913 -0.024117026 -0.08374167 -0.09613711
-0.028868578 -0.04754742 0.11591995 0.16580266 0.22242287 0.1713402 0.18922704 0.00924493
0.07535429 0.3169457 0.38700733 0.2877507 -0.076178856 -0.021850621 -0.051116876 -0.032214507
-0.042525247 0.03803556 -0.015645599 0.024042187 0.088457935 -0.023720223 0.077562176 0.0137264235
-0.017125541 0.14856483 0.032514192 -0.17298253 -0.110871226 -0.13441889 -0.13662669 -0.10100232
-0.11145059 0.010284484 -0.05928112 -0.11027558 -0.13050805 0.0075245122 0.005880098 0.042047147
0.08848829 -0.04821576 0.027274732 -0.08186052 -0.0899624 -0.06971956 -0.014406236 -0.035459317
-0.080427505 0.035181038 -0.06850331 -0.018413557 0.04796426 0.088226326 0.098840445 0.08309251
0.10756057 -0.030611817 0.049577244 0.096344754 0.18356918 0.18116769 -0.10731795 -0.07680872
-0.02991756 0.05941885 -0.064289495 0.023861976 0.09399669 0.010628498 0.06398839 0.001012449
0.050455995 0.05842974 -0.0072334628 0.09083609 0.10762865 -0.0394073 -0.12558332 -0.21237415
-0.13110554 -0.020112537 0.007616242 -0.058651663 -0.09244988 -0.1476917 0.021280525 0.05243365
0.0047454108 0.09758686 0.0962894 -0.012127639 -0.03507379 0.007193772 -0.045483913 -0.11309826
-0.058854852 0.02821819 0.08423893 0.04170348 0.009224603 0.045475777 0.077271454 0.052839093
-0.045296993 0.09364005 0.009596866 0.038374882 -0.065857306 0.015552694 -0.14385703 -0.11603029
-0.024839278 -0.03219418 0.009710418 -0.092337266 -0.12063499 -0.014197419 -0.12051131 -0.099085346
-0.11051405 -0.14850271 -0.04470137 -0.020089686 -0.06013409 -0.069780566 -0.074656084 0.1056407
0.0868916 0.054715943 -0.0058507468 0.02164879 -0.042617224 0.0182781 0.07256644 0.11120983
0.04696472 -0.029485013 -0.056361184 -0.053386044 -0.006343523 0.04454802 0.022366585 -0.06821371
-0.21820512 -0.17530903 0.03222105 0.0051143016 -0.01806305 0.20215781 0.25228572 0.44102252
0.013150794 0.102618605 0.19901565 0.2576918 0.15315925 -0.08073772 -0.07395553 -0.086492896
-0.15181075 -0.0992581 0.1073138 -0.008148696 0.011156009 0.00011114956 -0.030840019 0.058229573
0.060306247 0.05799447 0.014054424 -0.121519305 0.0016017943 -0.016711354 -0.17345096 -0.1610767
-0.06987849 0.06735608 -0.04405416 -0.04219341 0.0097645875 0.028070701 -0.013646167 0.092551865
0.20619321 0.16662873 -0.004139776 0.022325242 -0.005108738 0.06534294 -0.00926793 0.01290761
0.029254291 -0.068632506 0.04108593 -0.044356845 0.04189579 -0.041343007 -0.06945121 0.13917154
0.09986927 0.21211967 -0.058356572 0.10674486 0.10986304 0.18797137 0.14968027 -0.027818985
0.02363423 -0.07974214 -0.064294755 0.028964028 0.057192255 0.02472053 -0.0024123504 -0.06793658
0.060705066 0.009803639 0.02725286 -0.0053298087 0.034530215 -0.09960293 -0.031635657 -0.07493205
-0.082261615 -0.19148041 -0.05557505 -0.04423417 -0.001726247 -0.029840728 0.111944474 0.046339177
0.1230503 0.07265 0.067641765 0.113719516 0.034061015 -0.016567705 -0.009071759 -0.011283813
0.044301014 0.06195061 0.11256084 0.08213677 0.014453425 0.025595276 0.019184556 0.03154468
00000000: b030 d7bd 0695 e2bd 859f 09be ba6f 0ebc
00000010: 8a3e e3bd 1291 c5bc c180 abbd 88e3 c4bd
00000020: cc7d ecbc 15c1 42bd 7067 ed3d 2cc8 293e
00000030: d2c2 633e ce73 2f3e bcc4 413e 0c78 173c
00000040: 5a53 9a3d b546 a23e d325 c63e 0f54 933e
00000050: a903 9cbd 1300 b3bc ee5f 51bd 5cf3 03bd
00000060: f42e 2ebd 2dcb 1b3d 332b 80bc 1ff4 c43c
00000070: 6f29 b53d ea50 c2bc ebd8 9e3d cbe4 603c
00000080: dd4a 8cbc 6121 183e 9a2d 053d 5522 31be
00000090: 7410 e3bd 1ba5 09be dee7 0bbe 4eda cebd
000000a0: 3540 e4bd 4180 283c c2d0 72bd 2ad8 e1bd
000000b0: e7a3 05be 2f90 f63b d6ad c03b a139 2c3d
000000c0: 5939 b53d e47d 45bd 426f df3c 7da6 a7bd
000000d0: 353e b8bd 21c9 8ebd 2208 6cbc ca3d 11bd
000000e0: 2db7 a4bd fe19 103d 774b 8cbd 07d8 96bc
000000f0: 2c76 443d 01b0 b43d dc6c ca3d 682c aa3d
00000100: b748 dc3d a2c5 fabc 8211 4b3d 6650 c53d
00000110: 8ff9 3b3e 0684 393e 83c9 dbbd e44d 9dbd
00000120: ac15 f5bc 2e61 733d 36aa 83bd 317a c33c
00000130: 5681 c03d 2723 2e3c 580c 833d 27b4 843a
00000140: f2aa 4e3d 0654 6f3d af06 edbb 4608 ba3d
00000150: 696c dc3d 8d69 21bd ea98 00be 9c78 59be
00000160: 8840 06be 0cc3 a4bc ab91 f93b ba3c 70bd
00000170: 5d56 bdbd 7e3c 17be 7f54 ae3c abc4 563d
00000180: 647f 9b3b 9fdb c73d 6033 c53d 01b3 46bc
00000190: 89a9 0fbd bcb9 eb3b 574d 3abd 0fa0 e7bd
000001a0: c911 71bd d529 e73c 7685 ac3d 45d1 2a3d
000001b0: ca22 173c cf44 3a3d 7f40 9e3d ce6d 583d
000001c0: 5789 39bd 5bc6 bf3d 2c3c 1d3c fb2e 1d3d
000001d0: 32e0 86bd bad0 7e3c 424f 13be 4aa1 edbd
000001e0: be7b cbbc 0bde 03bd 7218 1f3c 521b bdbd
000001f0: 7a0f f7bd 4b9c 68bc a2ce f6bd 42ed cabd
00000200: 3155 e2bd 1811 18be c918 37bd 2093 a4bc
00000210: 2a4f 76bd 1de9 8ebd 4ae5 98bd 275a d83d
00000220: 39f4 b13d d31d 603d 9fb7 bfbb ce58 b13c
00000230: 668f 2ebd f4bb 953c b79d 943d fbc1 e33d
00000240: 145e 403d 8e8a f1bc fcda 66bd 53ab 5abd
00000250: 54dd cfbb fc77 363d 213a b73c a1b3 8bbd
00000260: 2a71 5fbe 3684 33be 38fa 033d df95 a73b
00000270: f6f8 93bc 7502 4f3e 982b 813e b4cd e13e
00000280: 6e76 573c b429 d23d c2ca 4b3e 2ef0 833e
00000290: c7d5 1c3e d159 a5bd ff75 97bd 3023 b1bd
000002a0: 4774 1bbe d547 cbbd 56c7 db3d 1c82 05bc
000002b0: b1c7 363c f718 e938 35a4 fcbc 2282 6e3d
000002c0: af03 773d 9c8b 6d3d 8744 663c 1ddf f8bd
000002d0: 4cf3 d13a 40e6 88bc 219d 31be 4af1 24be
000002e0: 741c 8fbd fcf1 893d 2372 34bd ffd2 2cbd
000002f0: a6fb 1f3c 87f4 e53c 2c94 5fbc d58b bd3d
00000300: 5024 533e b9a0 2a3e f5a6 87bb 6de3 b63c
00000310: 3367 a7bb 85d2 853d 84d8 17bc 717a 533c
00000320: b2a6 ef3c 338f 8cbd b849 283d 86af 35bd
00000330: eb9a 2b3d 4957 29bd 703c 8ebd fc82 0e3e
00000340: 4388 cc3d e635 593e 4d07 6fbd 0d9d da3d
00000350: e0ff e03d 917b 403e c945 193e a4e4 e3bc
00000360: 939c c13c d94f a3bd f8ac 83bd f845 ed3c
00000370: 6d42 6a3d b582 ca3c 8618 1ebb 5522 8bbd
00000380: e0a5 783d 719f 203c 6441 df3c ada5 aebb
00000390: 8e6f 0d3d 9ffc cbbd 6494 01bd fa75 99bd
000003a0: c778 a8bd 7113 44be aaa2 63bd e42e 35bd
000003b0: 3d43 e2ba 8b74 f4bc 2543 e53d 26ce 3d3d
000003c0: cc01 fc3d 86c9 943d c487 8a3d c7e5 e83d
000003d0: 9083 0b3d ffb8 87bc b7a1 14bc bedf 38bc
000003e0: fb74 353d ecbf 7d3d 4c86 e63d 5337 a83d
000003f0: 0fce 6c3c 2fad d13c ee28 9d3c ff34 013d

conv2.bias f4 [16]
0.0006907718 0.018683981 0.06659599 -0.0023628145 0.03258499 -0.05327955 0.033638723 -0.0076134587
-0.011123919 0.027894478 -0.055465333 0.031216754 0.11828053 0.059218 -0.07122632 0.0060694814
00000000: e914 353a 260f 993c 7a63 883d 73d9 1abb
00000010: d777 053d a83b 5abd c2c8 093d 527a f9bb
00000020: 1941 36bc f682 e43c 9e2f 63bd 47ba ff3c
00000030: 103d f23d 938e 723d 1bdf 91bd 80e2 c63b

fc1.weight f4 [120, 256]
0.080644816 0.036366366 0.07943254 0.024214918 -0.032784108 0.0035029917 -0.037564576 -0.06850833
-0.062504284 -0.045375217 -0.0061644176 0.021853385 -0.005635381 0.028336179 -0.02146236 0.00021290824
-0.055757318 -0.023792535 -0.0149430735 -0.047102418 0.06375323 0.026153963 0.04462834 -0.021115268
0.01986374 -0.008077654 -0.06584074 -0.03487676 -0.067834884 0.014605712 -0.05754142 -0.00052755506
-0.004341782 0.05071076 0.0027329896 0.03047956 0.039014265 -0.04919875 -0.010186064 0.040169604
-0.0039244764 0.004360681 0.019406961 -0.04198901 0.07068276 0.009385285 -0.02167979 0.015040299
0.0265973 -0.008847569 -0.04375877 0.011192587 0.043858405 -0.020960815 0.014848355 -0.00073639635
0.05449937 -0.055475917 0.035851553 0.063309506 -0.047427446 -0.011244032 0.012016151 -0.038012303
-0.031913523 -0.03803003 -0.0602359 0.0494248 -0.01990149 -0.059361823 -0.056342527 -0.015026209
-0.043525133 -0.027057378 -0.045585662 0.018385164 -0.054199494 0.050448023 -0.03781414 0.039094105
0.04818632 0.016356144 0.02604301 -0.04806504 -0.054290466 0.032347824 -0.025379147 0.0691293
0.013149289 0.003093206 -0.07015089 0.03839729 -0.029641736 -0.061540786 0.05496453 0.002944727
0.04420145 0.020685375 0.068417355 0.04421954 -0.041107476 -0.020195179 -0.09727982 -0.042891257
0.011743682 0.056335498 -0.04194052 -0.020674668 -0.029756838 -0.005606147 0.013035888 -0.029069755
-0.056376286 0.066059 0.038144294 0.018295975 0.0067021246 -0.0037647341 0.02061108 -0.0012557801
-0.067978136 -0.040024173 0.002601009 0.011861773 0.030185027 -0.05979876 0.017300548 0.013958195
-0.05848971 -0.039633308 -0.015928501 0.02998017 0.018918402 -0.047148574 0.05426429 -0.010683399
0.021316713 0.024352632 0.01532054 -0.0268277 -0.06839148 -0.036196597 -0.033375572 0.023198834
0.049787804 0.061002206 0.080072656 0.09467609 -0.027051102 0.029997116 -0.0005532375 -0.02215876
-0.00066902087 0.08504263 0.06373287 0.0074829855 -0.016404003 -0.03332637 0.013906875 0.0192159
0.051285326 -0.0043337727 -0.014705258 0.026279468 -0.024976153 -0.038321555 -0.008772322 0.009356757
-0.009166454 0.029138358 0.023589903 -0.01606336 -0.007467314 -0.04766518 0.06086386 0.010613745
-0.039786503 -0.01675877 0.05796413 0.013694859 -0.06208994 0.028348025 -0.02746687 0.006048832
0.0020279258 -0.00048215705 -0.0238059 0.04489608 -0.026405554 0.048429992 0.05610812 -0.031963922
0.021569602 -0.055816848 0.013236416 0.036929723 -0.009378396 0.020675177 0.032552265 0.028201
0.034168605 0.028213918 -0.015793562 -0.039978955 0.020821044 0.027998766 -0.016789127 0.022685487
-0.007989566 0.010013697 -0.022405293 -0.02480371 0.039833043 0.028599488 0.07560514 0.028049506
-0.062454037 -0.039217122 -0.02771905 0.009963771 -0.048802417 0.010037188 -0.06495501 -0.053617872
-0.016005464 0.051051423 -0.034560405 -0.07515921 -0.022607744 -0.019462133 -0.06361538 -0.02063467
-0.03436659 0.069308124 -0.00036923552 0.011794026 0.013538371 -0.023930708 0.0033379267 0.075658634
0.053574957 0.06570854 0.057081535 0.06504926 -0.0527721 0.032470357 -0.049855597 0.068480596
-0.05807962 -0.02682522 0.019064147 0.03592217 -0.07691554 -0.018340386 0.025172623 0.0013633342
00000000: 1c29 a53d e6f4 143d 87ad a23d 5d5e c63c
00000010: a148 06bd 7392 653b 50dd 19bd 184e 8cbd
00000020: 3f02 80bd 5ddb 39bd e2fe c9bb df05 b33c
00000030: 01a9 b8bb 4621 e83c d5d1 afbc 1f40 5f39
00000040: c961 64bd 90e8 c2bc cbd3 74bc 77ee 40bd
00000050: 0e91 823d d640 d63c 35cc 363d edf9 acbc
00000060: 48b9 a23c 2358 04bc 83d7 86bd efda 0ebd
00000070: 04ed 8abd cc4c 6f3c 8db0 6bbd 9f4b 0aba
00000080: 8245 8ebb 16b6 4f3d f51b 333b 45b0 f93c
00000090: 6ccd 1f3d a184 49bd 73e3 26bc e288 243d
000000a0: e598 80bb 0be4 8e3b 59fb 9e3c abfc 2bbd
000000b0: 1fc2 903d bdc4 193c d199 b1bc 966b 763c
000000c0: 95e2 d93c 65f5 10bc 653c 33bd 1d61 373c
000000d0: dfa4 333d 04b6 abbc 8446 733c b90a 41ba
000000e0: bb3a 5f3d b73a 63bd 14d9 123d 6aa8 813d
000000f0: 4843 42bd e338 38bc 64df 443c cab2 1bbd
00000100: c1b7 02bd 60c5 1bbd ebb9 76bd a971 4a3d
00000110: 7308 a3bc 6225 73bd 6cc7 66bd 7d30 76bc
00000120: 6947 32bd 6fa7 ddbc 08b8 3abd 7c9c 963c
00000130: 4a00 5ebd 96a2 4e3d 00e3 1abd 2421 203d
00000140: 055f 453d 52fd 853c 2758 d53c d9df 44bd
00000150: ae5f 5ebd 277f 043d eee7 cfbc aa93 8d3d
00000160: 1e70 573c 63b7 4a3b 45ab 8fbd 7a46 1d3d
00000170: 3ad3 f2bc 3112 7cbd 7d22 613d 52fc 403b
00000180: 940c 353d 6074 a93c 661e 8c3d 8c1f 353d
00000190: 5060 28bd 5c70 a5bc a43a c7bd beae 2fbd
000001a0: 9368 403c 0dc0 663d d3c9 2bbd ec5d a9bc
000001b0: 9dc4 f3bc c5b3 b7bb 7a94 553c b223 eebc
000001c0: d2ea 66bd f149 873d 313d 1c3d 71e1 953c
000001d0: 7f9d db3b c2b9 76bb 91d8 a83c fd98 a4ba
000001e0: 1f38 8bbd 63f0 23bd b175 2a3b e257 423c
000001f0: 9746 f73c 8bef 74bd e1b9 8d3c eab0 643c
00000200: e892 6fbd 8956 22bd 7d7c 82bc f998 f53c
00000210: c4fa 9a3c dd1e 41bd 3b44 5e3d 6c09 2fbc
00000220: 63a0 ae3c 2c7f c73c 0103 7b3c c4c5 dbbc
00000230: d510 8cbd e242 14bd d3b4 08bd 7b0b be3c
00000240: 4cee 4b3d 73dd 793d 22fd a33d 8ae5 c13d
00000250: 469a ddbc 83bc f53c 2407 11ba 4a86 b5bc
00000260: 3b61 2fba d52a ae3d 6186 823d d533 f53b
00000270: b061 86bc 3b81 08bd a9d9 633c aa6a 9d3c
00000280: 9010 523d 5202 8ebb 53ee 70bc 0a48 d73c
00000290: ca9a ccbc 10f7 1cbd c9b9 0fbc 154d 193c
000002a0: e52e 16bc 91b3 ee3c 9d3f c13c 4f97 83bc
000002b0: 5fb0 f4bb 903c 43bd 624c 793d 46e5 2d3c
000002c0: 2cf7 22bd b049 89bc cc6b 6d3d 6760 603c
000002d0: 0552 7ebd 1e3a e83c 3402 e1bc 4835 c63b
000002e0: f3e6 043b 06ca fcb9 9704 c3bc f4e4 373d
000002f0: 7650 d8bc 875e 463d a1d1 653d 9aec 02bd
00000300: bcb2 b03c 35a0 64bd 8ddd 583c 9f43 173d
00000310: d8a7 19bc fd5e a93c 8655 053d c905 e73c
00000320: 61f4 0b3d e020 e73c 8061 81bc f9c0 23bd
00000330: e590 aa3c ab5d e53c 5a89 89bc ead6 b93c
00000340: abe6 02bc 7d10 243c 4e8b b7bc 2631 cbbc
00000350: f927 233d 7949 ea3c ded6 9a3d 14c8 e53c
00000360: cecf 7fbd 22a2 20bd 1013 e3bc 163f 233c
00000370: 0be5 47bd 0573 243c 2207 85bd 6a9e 5bbd
00000380: e41d 83bc 4c1b 513d 368f 0dbd 12ed 99bd
00000390: e033 b9bc 0d6f 9fbc c848 82bd 0a0a a9bc
000003a0: fbc3 0cbd 6bf1 8d3d f495 c1b9 bb3b 413c
000003b0: 0bd0 5d3c 550a c4bc 1ec1 5a3b eaf2 9a3d
000003c0: 6a71 5b3d 3392 863d 54ce 693d 8c38 853d
000003d0: 8f27 58bd a3ff 043d 6235 4cbd 8e3f 8c3d
000003e0: e5e4 6dbd 90c0 dbbc 6a2c 9c3c 2023 133d
000003f0: e585 9dbd 943e 96bc d136 ce3c e8b1 b23a

fc1.bias f4 [120]
0.014264757 0.05127777 0.010209484 0.03241168 -0.029509693 -0.004859366 -0.03959448 0.040972285
0.015283226 -0.034396004 -0.035926882 -0.048888724 -0.044113398 -0.041536234 0.054891665 0.038304858
0.029665602 -0.009034265 0.014250513 0.05439778 -0.029880086 0.05387239 -0.059300967 -0.022098452
-0.009768803 0.0057944497 -0.043961804 0.032965716 0.044033054 0.021430854 -0.042471617 0.057998095
-0.013174255 -0.04436597 0.037185233 -0.013740555 0.02883208 0.071557306 0.03931651 -0.030326841
0.05268771 -0.060968243 0.03080626 0.0109632565 0.067928895 -0.010291178 -0.0072479863 0.040199332
-0.013493588 -0.042592857 -0.026598638 -0.022824762 -0.022109644 -0.035570733 -0.057912882 0.011444084
-0.049948636 0.06310157 -0.016293062 -0.027972184 0.06655862 0.0612301 0.022508612 0.0013563831
0.026182434 -0.03738572 -0.038582787 0.061907034 -0.008134785 -0.02155064 0.065572456 0.044370797
0.008294698 0.023730189 0.0037359498 -0.039409336 0.059033185 0.06787418 0.065165766 0.043018445
0.04763273 -0.04607394 -0.019464672 0.058345523 0.012091828 -0.021729426 0.01769073 0.046678603
-0.011432903 0.021061683 -0.031500503 -0.05289658 0.0046293796 0.02746123 -0.0104571665 -0.06361678
0.07162198 -0.027276162 -0.020322805 0.0382355 -0.05071869 0.035564568 0.031052854 -0.057742056
0.03513593 0.0020946686 -0.022190139 0.003907625 -0.023305846 0.015669255 0.049266566 0.023475727
0.000719438 0.05730353 0.023053603 -0.059774246 -0.057119414 0.0012775849 0.003631566 -0.042459168
00000000: bab6 693c a408 523d ae45 273c 1cc2 043d
00000010: 50be f1bc 513b 9fbb d22d 22bd 8ed2 273d
00000020: 7f66 7a3c d3e2 0cbd 1128 13bd 8b3f 48bd
00000030: 40b0 34bd e621 2abd 15d6 603d 8ee5 1c3d
00000040: 4705 f33c 7404 14bc fc7a 693c 35d0 5e3d
00000050: 15c7 f4bc 4ca9 5c3d 92e5 72bd d007 b5bc
00000060: 540d 20bc 5edf bd3b 4b11 34bd 0f07 073d
00000070: 015c 343d c28f af3c b8f6 2dbd 698f 6d3d
00000080: d5d8 57bc 17b9 35bd 8b4f 183d 1120 61bc
00000090: 4131 ec3c a38c 923d 590a 213d ff6f f8bc
000000a0: 11cf 573d d6b9 79bd 695d fc3c 3b9f 333c
000000b0: 4e1e 8b3d 549c 28bc 8480 edbb 0ea8 243d
000000c0: 3614 5dbc d975 2ebd 63e5 d9bc fffa babc
000000d0: 491f b5bc 9eb2 11bd 0f36 6dbd f87f 3b3c
000000e0: f196 4cbd 653b 813d 0779 85bc ec25 e5bc
000000f0: e34f 883d 6acc 7a3d fb63 b83c aac8 b13a
00000100: 8b7c d63c c521 19bd fc08 1ebd 3b92 7d3d
00000110: c347 05bc f88a b0bc da4a 863d 27be 353d
00000120: 7ce6 073c d065 c23c d6d6 743b af6b 21bd
00000130: c8cc 713d 9e01 8b3d a175 853d 1c34 303d
00000140: 8a1a 433d 07b8 3cbd 6074 9fbc b7fb 6e3d
00000150: cd1c 463c e901 b2bc 26ec 903c 1032 3f3d
00000160: 1251 3bbc 8d89 ac3c ac06 01bd 16aa 58bd
00000170: 0db2 973b 60f6 e03c 8954 2bbc 8449 82bd
00000180: 8bae 923d 4272 dfbc 037c a6bc d49c 1c3d
00000190: 67be 4fbd 27ac 113d 8e62 fe3c ef82 6cbd
000001a0: b1ea 0f3d b546 093b 18c8 b5bc 890b 803b
000001b0: e7eb bebc cf5c 803c bdcb 493d 2b50 c03c
000001c0: ab98 3c3a 1bb7 6a3d e9da bc3c d7d5 74bd
000001d0: 0cf6 69bd a374 a73a 91ff 6d3b aae9 2dbd

fc2.weight f4 [84, 120]
-0.058920097 0.079412006 0.0067067393 0.083969764 0.107716665 0.03258195 -0.03813663 -0.05553704
0.059736203 0.10107083 -0.034310218 -0.06761806 0.100442305 0.065632895 -0.04452326 -0.06559418
0.0059625003 0.06425017 0.0132324565 -0.0076495614 0.020778364 0.088271104 0.07923165 -0.07974352
-0.007765622 -0.07101744 0.006828419 0.08541389 0.08435691 -0.027271422 -0.10267105 0.07416799
0.07868357 -0.06282387 0.07497641 0.034267705 -0.08746304 -0.11108213 -0.08157946 0.015797013
-0.0064262766 0.07105242 0.025361884 0.071704306 -0.07077901 -0.02337223 0.019409286 -0.075491525
-0.07594972 0.015016077 -0.0057168514 0.0100539075 0.08388981 0.04283104 0.074953675 0.019980375
0.037761293 -0.06718212 -0.0068487856 0.049145635 -0.089254834 0.081283204 0.020734001 -0.082651354
0.054677416 0.028766671 -0.08687862 -0.017840035 -0.07200561 0.04170568 -0.036136966 -0.0029469503
-0.05294897 0.099879526 -0.08868651 -0.017607978 0.047909334 0.013843184 -0.042859245 -0.015776867
-0.030883843 0.011953463 0.05838192 0.11327732 0.07881977 -0.08155032 -0.081390746 0.065260686
0.03582953 0.019940281 0.0478197 -0.04860627 0.020144999 -0.06946228 -0.03557724 -0.10572746
-0.11457401 -0.0056495294 0.0992475 -0.069717206 -0.019433 -0.06363002 -0.11756045 -0.10426706
-0.036791325 0.08764781 -0.079513036 -0.02966442 0.08045042 0.021587914 0.07803375 -0.060312606
-0.063933596 -0.015801286 0.06572599 -0.020015258 -0.022728128 0.03888536 0.058159374 0.07284072
0.02237064 0.004946941 0.03934767 -0.008988484 -0.014345565 0.08298696 0.06983792 -0.044930812
-0.07272981 0.0009272456 -0.08971784 0.007993931 -0.10278094 -0.0871808 -0.08872629 -0.07396214
-0.08603494 -0.023012988 0.12206588 0.048531476 -0.057951383 -0.0881311 -0.070474654 0.0565922
-0.05967593 0.03448842 0.04844995 0.07470559 0.030899597 0.17281476 0.055845357 0.020508
0.06178694 -0.038982075 -0.08510257 0.00538275 0.0941839 0.12462452 -0.07438907 0.06455028
0.07199842 -0.029919017 -0.065239266 -0.13745882 0.07326442 -0.0491772 -0.08073172 -0.011092237
0.04703094 0.17039688 -0.100460365 0.06275359 0.05176554 0.032238126 -0.024829771 -0.093787774
-3.5697227e-05 -0.04161452 -0.09042108 0.066835344 -0.1478377 -0.056382652 -0.025388261 -0.006686515
0.14678001 0.018874867 0.009330808 -0.15575048 -0.06438671 0.05304741 -0.08629257 -0.07832148
0.04073821 0.10334746 0.023299202 0.11882747 -0.021640752 -0.06631528 0.051693708 0.1561709
0.078938484 -0.030960022 0.08638607 -0.032211598 0.0080381865 0.069653794 0.010325566 -0.12583426
-0.09803821 -0.15455145 0.016692622 -0.12690179 0.03545349 0.093294434 -0.080367535 0.034745652
-0.033224393 0.0071167657 0.0057591307 0.050571524 0.0011538038 -0.076977946 0.02354794 -0.088472
0.05133181 -0.0022352012 0.0239503 0.10126267 -0.029607704 0.06458314 -0.09943777 -0.052425753
-0.15691286 -0.03185171 -0.070301324 0.075965695 0.034424316 -0.016011618 0.036995046 0.011924044
-0.04511024 -0.0677031 -0.041258857 -0.025954068 0.074384026 0.08918748 -0.051335383 0.013185763
0.09130758 0.08405959 0.107106715 -0.0686481 0.10042458 -0.057305932 -0.035597567 -0.08521965
00000000: 3356 71bd c3a2 a23d 35c4 db3b 57f8 ab3d
00000010: 8e9a dc3d a774 053d 2835 1cbd cf7a 63bd
00000020: f3ad 743d 39fe ce3d df88 0cbd 567b 8abd
00000030: b2b4 cd3d 8a6a 863d 065e 36bd 3e56 86bd
00000040: 1461 c33b 9895 833d f2cc 583c 2ca9 fabb
00000050: 6337 aa3c 7bc7 b43d 3444 a23d 9250 a3bd
00000060: c276 febb 9771 91bd eec0 df3b 7aed ae3d
00000070: 51c3 ac3d 5168 dfbc 3345 d2bd 63e5 973d
00000080: da24 a13d cda9 80bd 3b8d 993d 4b5c 0c3d
00000090: d31f b3bd 077f e3bd 2213 a7bd bd68 813c
000000a0: 8493 d2bb ee83 913d bac3 cf3c b5d9 923d
000000b0: 96f4 90bd 1e77 bfbc 3900 9f3c 4d9b 9abd
000000c0: 878b 9bbd fe05 763c 6d54 bbbb 25b9 243c
000000d0: 6cce ab3d 9a6f 2f3d 5081 993d e2ad a33c
000000e0: 96ab 1a3d c896 89bd c76b e0bb ef4c 493d
000000f0: 3dcb b6bd cf77 a63d 5ada a93c 1d45 a9bd
00000100: 6df5 5f3d 15a8 eb3c 6bed b1bd 4425 92bc
00000110: ad77 93bd 93d3 2a3d 5b04 14bd 9f21 41bb
00000120: 05e1 58bd a38d cc3d 46a1 b5bd 9b3e 90bc
00000130: 943c 443d 86ce 623c 2d8d 2fbd 7d3e 81bc
00000140: 1d00 fdbc 75d8 433c e121 6f3d f1fd e73d
00000150: 426c a13d db03 a7bd 31b0 a6bd 65a7 853d
00000160: fcc1 123d cd59 a33c 97de 433d 5e17 47bd
00000170: 2007 a53c 3d42 8ebd 71b9 11bd a387 d8bd
00000180: c7a5 eabd b01f b9bb 4642 cb3d e5c7 8ebd
00000190: f431 9fbc 7550 82bd 89c3 f0bd f889 d5bd
000001a0: 80b2 16bd b280 b33d bbd7 a2bd cc02 f3bc
000001b0: 31c3 a43d 23d9 b03c 29d0 9f3d 5a0a 77bd
000001c0: 9eef 82bd b371 81bc 599b 863d 0af7 a3bc
000001d0: 5730 babc 4146 1f3d 8638 6e3d 842d 953d
000001e0: a242 b73c f319 a23b 062b 213d 6f44 13bc
000001f0: a909 6bbc 11f5 a93d 2f07 8f3d 5f09 38bd
00000200: 5ef3 94bd 6612 733a fdbd b7bd faf8 023c
00000210: d07e d2bd d98b b2bd 21b6 b5bd 7679 97bd
00000220: 1633 b0bd bc85 bcbc adfd f93d f1c8 463d
00000230: 6e5e 6dbd 147e b4bd 0455 90bd 39cd 673d
00000240: bf6e 74bd bb43 0d3d 7473 463d 3fff 983d
00000250: 2721 fd3c 5af6 303e 1abe 643d 6500 a83c
00000260: 4d14 7d3d abab 1fbd 424a aebd c861 b03b
00000270: 7de3 c03d 243b ff3d 4c59 98bd f032 843d
00000280: e873 933d ba18 f5bc 2a9c 85bd 01c2 0cbe
00000290: a80b 963d 086e 49bd ac56 a5bd 37bc 35bc
000002a0: 84a3 403d 857c 2e3e 2abe cdbd f484 803d
000002b0: 1a08 543d 200c 043d ce67 cbbc ce13 c0bd
000002c0: 9bb9 15b8 fd73 2abd b02e b9bd f8e0 883d
000002d0: c462 17be 7ff1 66bd 0bfb cfbc 8e1a dbbb
000002e0: 804d 163e 779f 9a3c 3fe0 183c 0e7d 1fbe
000002f0: 2edd 83bd 3e48 593d 29ba b0bd 0367 a0bd
00000300: 1cdd 263d d5a7 d33d f8dd be3c d15b f33d
00000310: f247 b1bc 4ed0 87bd c8bc 533d 44eb 1f3e
00000320: 80aa a13d df9f fdbc 2eeb b03d 4ff0 03bd
00000330: 99b2 033c a6a6 8e3d 902c 293c b2da 00be
00000340: 42c8 c8bd bc42 1ebe f7be 883c 8bf2 01be
00000350: ae37 113d 2711 bf3d bc97 a4bd 7551 0e3d
00000360: 4d16 08bd c233 e93b 17b7 bc3b 1624 4f3d
00000370: 3b3b 973a 9da6 9dbd 9ce7 c03c cf30 b5bd
00000380: 4e41 523d 747c 12bb 6b33 c43c cd62 cf3d
00000390: db8b f2bc 2a44 843d 08a6 cbbd 63bc 56bd
000003a0: c4ad 20be f076 02bd 24fa 8fbd e793 9b3d
000003b0: 8300 0d3d cc2a 83bc 1e88 173d 115d 433c
000003c0: 84c5 38bd eca7 8abd 0cff 28bd a09d d4bc
000003d0: a756 983d eda7 b63d 0d45 52bd 1909 583c
000003e0: 78ff ba3d 6f27 ac3d c45a db3d 6097 8cbd
000003f0: 67ab cd3d a0b9 6abd c1ce 11bd a487 aebd

fc2.bias f4 [84]
-0.00053973234 0.040182125 0.077467345 0.100813314 0.014548228 -0.03522159 0.01466736 0.10244562
0.06542103 0.031865414 0.06219506 0.052215274 0.08789773 0.07380574 -0.011351133 -0.060447812
-0.08116904 0.031432625 -0.068985865 0.033762924 -0.06081665 0.025006473 0.053290244 -0.046356075
0.016067456 0.02393791 -0.073640354 0.052110452 0.011846758 -0.07062253 0.09686151 0.0058612395
0.06671836 -0.0899876 0.07813137 0.09635284 -0.062120654 -0.078385845 0.050840408 0.089384615
-0.031320978 0.02004077 0.06457989 0.033658102 0.071319774 -0.0043887375 0.03974558 0.053200584
0.000472488 -0.073315784 -0.044202395 0.035213068 -0.05530355 0.04588377 0.06863768 -0.07415724
0.071294695 0.038622692 -0.05152401 -0.04180093 -0.07653801 0.021582052 -0.07579462 -0.026815709
0.0026351525 0.06478791 0.019302601 0.028434733 0.07151022 0.101506665 -0.032555677 0.023991706
0.04292089 0.026309123 -0.016488113 0.051726885 0.05726033 0.07127098 0.01828097 -0.07210099
-0.011364388 -0.051202346 0.0148654925 -0.06128093
00000000: d37c 0dba 0396 243d 33a7 9e3d 3677 ce3d
00000010: b15b 6e3c 8444 10bd 5e4f 703c 02cf d13d
00000020: 76fb 853d 4f85 023d 3fc0 7e3d afdf 553d
00000030: ba03 b43d 7727 973d 1afa 39bc 2098 77bd
00000040: f43b a6bd 7fbf 003d 7648 8dbd fe4a 0a3d
00000050: e11a 79bd 60da cc3c df46 5a3d dedf 3dbd
00000060: e69f 833c 7019 c43c c1d0 96bd c571 553d
00000070: e818 423c 8ca2 90bd 545f c63d a40f c03b
00000080: a3a3 883d 6b4b b8bd 5703 a03d a354 c53d
00000090: 3a72 7ebd c288 a0bd 083e 503d 480f b73d
000000a0: 6d4a 00bd 8a2c a43c 7642 843d 14dd 093d
000000b0: 1a10 923d 66cf 8fbb 43cc 223d dbe8 593d
000000c0: 44b8 f739 9626 96bd 920d 35bd 943b 103d
000000d0: fa85 62bd 9ff0 3b3d e991 8c3d c0df 97bd
000000e0: f402 923d d432 1e3d d70a 53bd 7437 2bbd
000000f0: f6bf 9cbd d8cc b03c 363a 9bbd 9eac dbbc
00000100: 86b2 2c3b 86af 843d 7d20 9e3c f5ef e83c
00000110: f373 923d bae2 cf3d 1a59 05bd 418a c43c
00000120: d1cd 2f3d 3b86 d73c 1412 87bc 92df 533d
00000130: cf89 6a3d 85f6 913d f9c1 953c afa9 93bd
00000140: b331 3abc 8db9 51bd 658e 733c b601 7bbd

fc3.weight f4 [14, 84]
-0.08679057 0.036403935 -0.083725266 -0.09506732 0.06660199 -0.10945543 -0.001189686 0.10356629
0.031874947 -0.011588066 -0.080495626 0.02940074 -0.10019792 -0.080411226 0.009372251 -0.04469445
-0.010874481 -0.030442784 -0.038976133 0.14345485 0.0723326 0.051597394 -0.0044731214 0.06699367
-0.0682273 0.046796277 0.057520494 0.20101064 0.06650342 -0.032276794 -0.14113487 -0.2204841
-0.026556738 0.07489042 -0.06786237 -0.046332475 0.0039568976 -0.09686118 -0.13017534 -0.02436746
0.021172667 -0.10628561 0.057534344 0.04510018 0.006399579 0.1570156 0.101780914 -0.119963944
-0.056409687 0.013439862 0.11819732 -0.00011980518 -0.057478946 0.20280303 0.11888707 0.024465146
-0.01879729 0.08352869 -0.09687555 -0.04120825 0.07731517 0.1314893 0.10082465 0.10716115
-0.054968752 -0.0070675956 -0.14657588 0.11773752 -0.09224046 -0.13834462 -0.0641217 -0.17426029
-0.013152946 -0.035415288 -0.05221698 -0.005330818 0.22692756 -0.11250259 0.07578252 0.0897325
0.047467705 0.11427362 -0.03515708 -0.1533503 0.062999144 0.021035926 -0.12338466 0.12709
0.09769998 0.20223881 -0.040112976 0.090363525 0.18535805 0.13383491 -0.0023726271 0.03189496
-0.10550217 0.089002214 0.08470366 -0.020510202 0.113556944 -0.017484235 0.0543797 -0.034995098
-0.006920313 -0.076873496 -0.08598454 0.12763222 0.071176134 0.06802511 -0.06861635 0.11279407
-0.19796559 -0.15879983 0.107898325 0.12282397 -0.0077678133 0.059856996 -0.078782834 -0.06503737
-0.15005301 0.087775655 0.1606761 -0.16858132 0.0069121523 0.12676805 0.258651 0.080932535
-0.037430927 0.096929505 -0.09563064 0.06433766 -0.013392105 0.07479903 -0.0702292 0.15821464
-0.0039267885 -0.07696996 -0.033660777 -0.10237996 0.06558685 -0.13858302 0.014243707 0.0902113
0.026226023 -0.10620808 -0.060122095 -0.03972575 0.009468148 0.041961893 0.043546073 0.1758377
0.050774094 -0.043091636 0.02810603 -0.24098504 -0.16231675 -0.14419493 -0.10888498 -0.05822877
0.24360871 0.005076252 0.07887861 -0.07491292 0.032161668 0.101428516 -0.059296586 -0.11685241
-0.08686661 -0.052222926 0.101189874 0.19931404 -0.007156954 -0.025986686 0.07991208 0.15070342
0.06648911 -0.11677776 -0.13012092 0.20812136 -0.028847141 -0.029842438 0.04340666 0.075594224
0.088980906 -0.014664697 0.006256967 -0.013559743 0.07686709 0.21904403 -0.011014852 0.10700173
0.031504292 -0.039452944 -0.041867018 -0.029968558 0.077047 -0.07805334 -0.02089456 -0.13850154
-0.059164383 -0.09591804 0.044057656 -0.19754475 0.090622485 -0.099021986 -0.10645979 0.060456768
0.052448604 0.15817554 0.07457916 -0.10840664 -0.027295081 0.21999516 0.08093947 0.018484844
0.020518785 0.048304327 0.10164494 0.05894511 0.15108491 -0.1748044 -0.24678077 0.035813678
0.27353406 0.10789186 0.004899697 -0.06461173 -0.05304088 -0.017100148 -0.06438838 -0.07433635
-0.021316918 -0.036466967 0.00045801763 -0.07255847 0.028376233 -0.11283156 -0.16818562 -0.12374658
-0.062913045 0.20337082 -0.04562191 0.1029169 -0.0446653 -0.11136538 -0.23428579 0.10534836
-0.023304502 -0.009007125 0.021608548 0.011272589 -0.050143924 -0.08339642 0.09476335 -0.0016029734
00000000: 41bf b1bd 4b1c 153d 2778 abbd a8b2 c2bd
00000010: a066 883d 2b2a e0bd 3def 9bba 901a d43d
00000020: 4e8f 023d dfdb 3dbc e4da a4bd d2d9 f03c
00000030: 9134 cdbd a4ae a4bd 128e 193c 8711 37bd
00000040: e12a 32bc 2563 f9bc 70a5 1fbd d4e5 123e
00000050: 1d23 943d ca57 533d 4393 92bb fa33 893d
00000060: c1ba 8bbd 74ad 3f3d 9c9a 6b3d bcd5 4d3e
00000070: f232 883d ac34 04bd a985 10be 95c6 61be
00000080: 848d d9bc 2660 993d 6dfb 8abd 1fc7 3dbd
00000090: dda8 813b 285f c6bd af4c 05be 449e c7bc
000000a0: 4d72 ad3c 45ac d9bd 22a9 6b3d f7ba 383d
000000b0: 8fb3 d13b b3c8 203e 8372 d03d a8af f5bd
000000c0: d80d 67bd de32 5c3c 7011 f23d eb3f fbb8
000000d0: 0b6f 6bbd 99ab 4f3e 107b f33d 216b c83c
000000e0: c6fc 99bc 1711 ab3d b066 c6bd fbc9 28bd
000000f0: 6a57 9e3d 22a5 063e 277d ce3d 4e77 db3d
00000100: ea26 61bd 4a97 e7bb fd17 16be 5e20 f13d
00000110: 91e8 bcbd 36aa 0dbe 3d52 83bd 4a71 32be
00000120: 747f 57bc 9f0f 11bd 79e1 55bd 24ae aebb
00000130: b35f 683e c267 e6bd de33 9b3d acc5 b73d
00000140: 7f6d 423d 4a08 ea3d df00 10bd dc07 1dbe
00000150: b205 813d 8953 ac3c 19b1 fcbd e223 023e
00000160: ed16 c83d b117 4f3e 814d 24bd 8310 b93d
00000170: 80ce 3d3e 050c 093e 147e 1bbb 4aa4 023d
00000180: 8611 d8bd cb46 b63d 1d79 ad3d 0305 a8bc
00000190: 8b90 e83d 193b 8fbc 40bd 5e3d 0557 0fbd
000001a0: cbc3 e2bb da6f 9dbd aa18 b0bd 05b2 023e
000001b0: cbc4 913d c050 8b3d bb86 8cbd 9400 e73d
000001c0: 7eb7 4abe 6c9c 22be ccf9 dc3d 228b fb3d
000001d0: 2489 febb 9c2c 753d e558 a1bd 5032 85bd
000001e0: 7fa7 19be b9c3 b33d 4788 243e 95a0 2cbe
000001f0: 567f e23b 7ccf 013e e76d 843e f5bf a53d
00000200: 2c51 19bd fa82 c63d ffd9 c3bd 77c3 833d
00000210: 8f6a 5bbc 3c30 993d 54d4 8fbd 0503 223e
00000220: 4aac 80bb 6da2 9dbd e2df 09bd 96ac d1bd
00000230: 6652 863d b5e8 0dbe 705e 693c b4c0 b83d
00000240: f5d7 d63c 9f83 d9bd 9642 76bd 78b7 22bd
00000250: 4b20 1b3c 3ce0 2b3d 5e5d 323d cc0e 343e
00000260: 7ff8 4f3d db80 30bd 9e3e e63c c8c4 76be
00000270: 5d36 26be d6a7 13be 17ff debd 4a81 6ebd
00000280: 9074 793e b056 a63b 1c8b a13d f26b 99bd
00000290: f4bb 033d c1b9 cf3d fae0 72bd 5150 efbd
000002a0: 1fe7 b1bd b5e7 55bd a33c cf3d fb18 4c3e
000002b0: e284 eabb 08e2 d4bc f2a8 a33d ff51 1a3e
000002c0: 712b 883d 2e29 efbd 6b3e 05be c41d 553e
000002d0: d750 ecbc 2178 f4bc 2fcb 313d 25d1 9a3d
000002e0: 9f3b b63d 3344 70bc 3e07 cd3b af29 5ebc
000002f0: 7e6c 9d3d 144d 603e a377 34bc b923 db3d
00000300: a50a 013d 6999 21bd c07c 2bbd 9f80 f5bc
00000310: d1ca 9d3d 6eda 9fbd 112b abbc 59d3 0dbe
00000320: 5a56 72bd ad70 c4bd cd75 343d 2c49 4abe
00000330: 4898 b93d 0acc cabd 9707 dabd 84a1 773d
00000340: 59d4 563d c5f8 213e f5bc 983d 4d04 debd
00000350: ef99 dfbc 6946 613e 98c3 a53d 876d 973c
00000360: 0317 a83c c2da 453d 392b d03d 6d70 713d
00000370: 01b6 1a3e edff 32be 19b4 7cbe 5db1 123d
00000380: a80c 8c3e 68f6 dc3d a38d a03b 2853 84bd
00000390: 6541 59bd 9c15 8cbc 0ede 83bd a83d 98bd
000003a0: d1a0 aebc 635e 15bd 1622 f039 8999 94bd
000003b0: 4675 e83c 3c14 e7bd da38 2cbe d96e fdbd
000003c0: 8ed8 80bd 7140 503e 0ade 3abd 18c6 d23d
000003d0: f6f2 36bd 8813 e4bd 9de8 6fbe e2c0 d73d
000003e0: 15e9 bebc 9f92 13bc 6904 b13c aab0 383c
000003f0: b763 4dbd becb aabd 4a13 c23d dd1a d2ba

fc3.bias f4 [14]
-0.047390323 0.022087492 0.0048392215 0.017959787 0.038479418 -0.0399222 -0.02996676 0.003361337
0.020842463 -0.0980597 -0.08236605 -0.056416612 -0.056776837 0.04407593
00000000: 5b1c 42bd d4f0 b43c 5592 9e3b 6720 933c
00000010: 989c 1d3d 7685 23bd da7c f5bc e049 5c3b
00000020: d0bd aa3c 86d3 c8bd 88af a8bd 1b15 67bd
00000030: d48e 68bd f688 343d
