playground/MNIST_Pytorch_net.pth (torch, 181089 bytes, 10 tensors)

conv1.weight f4 [6, 1, 5, 5]
-0.14078002 -0.115294494 -0.2904065 -0.30304998 -0.028109277 -0.20484506 -0.10014934 -0.15248664
-0.28327292 -0.0675207 0.14054114 -0.21820103 -0.23158112 0.068548985 -0.36936677 0.29771596
-0.026207952 -0.016446685 0.0033907264 0.23604846 0.2977849 0.5321452 0.6134438 0.32454613
0.26431313 0.20392464 0.62677926 0.21466663 -0.036675293 -0.49086365 0.5555777 0.39448223
0.07706277 -0.4869695 -0.4446619 0.41324025 0.39880645 -0.16236883 -0.41969123 -0.059912764
0.4123437 0.13250855 -0.11397317 -0.08703471 -0.36434937 0.14875448 0.020824475 0.036584634
-0.17497626 -0.21476056 -0.1593265 -0.28834683 -0.3029379 -0.057157557 0.25153053 -0.14984608
-0.38367373 -0.1704685 -0.115084596 0.32060415 -0.38781548 -0.3082456 -0.20483832 0.077497296
0.39765498 -0.08527674 -0.32456276 0.10175896 0.28034464 0.34160876 -0.0035173818 0.22092724
0.2773323 0.436926 0.4204131 0.3090728 0.50615364 0.17562546 -0.12788843 -0.21762632
0.27015272 0.17978626 0.42681152 0.0001864917 -0.24101494 -0.1698478 -0.110678874 0.4096301
0.4270195 -0.083759375 -0.49424788 -0.16797379 -0.054828614 0.16575195 0.33452758 -0.3160045
-0.016742624 -0.021969756 0.0497774 -0.086973436 0.35628587 0.15905137 -0.43050325 -0.40671903
-0.0082379095 0.46395972 0.22272755 -0.30871537 -0.27688745 0.029746205 0.56326574 0.053500064
-0.16328897 -0.12477995 -0.3052798 0.28633344 0.1830096 0.36344013 0.16155761 -0.047563337
0.33401918 0.18853202 0.35470128 0.44724756 0.10439532 -0.32443136 -0.13143289 0.3060127
0.058060512 0.16693859 0.16803253 0.554887 0.5801204 0.36667117 0.11447846 0.27804005
0.4477024 -0.052633062 -0.008817078 0.14999083 0.07628429 -0.14193593 -0.39714068 -0.40078202
-0.08301083 -0.13000044 -0.19605653 -0.3368789 -0.20907843 -0.32336503
00000000: a328 10be 851f ecbd 29b0 94be 5e29 9bbe
00000010: 6d45 e6bc e7c2 51be 191b cdbd 7525 1cbe
00000020: 2609 91be 4b48 8abd 04ea 0f3e 1770 5fbe
00000030: 9a23 6dbe 6963 8c3d a41d bdbe 3a6e 983e
00000040: 0fb2 d6bc 33bb 86bc f336 5e3b b0b6 713e
00000050: 4377 983e ab3a 083f a70a 1d3f e92a a63e
00000060: 0d54 873e 9fd1 503e 9b74 203f 92d1 5b3e
00000070: d538 16bd 7b52 fbbe 573a 0e3f 93f9 c93e
00000080: 16d3 9d3d 1154 f9be b9aa e3be 3a94 d33e
00000090: 5c30 cc3e 0444 26be c5e1 d6be 1667 75bd
000000a0: b71e d33e 52b0 073e c46a e9bd 413f b2bd
000000b0: 008c babe 1853 183e 1798 aa3c c5d9 153d
000000c0: fa2c 33be 31ea 5bbe 7c26 23be 32a2 93be
000000d0: ad1a 9bbe 0b1e 6abd 9cc8 803e 4071 19be
000000e0: e270 c4be 4b8f 2ebe 79b1 ebbd 3a26 a43e
000000f0: c08f c6be 5ed2 9dbe 23c1 51be e7b6 9e3d
00000100: 6f99 cb3e 92a5 aebd 172d a6be 0067 d03d
00000110: 5589 8f3e 58e7 ae3e e083 66bb c03a 623e
00000120: 80fe 8d3e c4b4 df3e 6340 d73e ca3e 9e3e
00000130: 4993 013f 29d7 333e 2ff5 02be 6fd9 5ebe
00000140: 7551 8a3e e419 383e 0a87 da3e fc8c 4339
00000150: 9fcc 76be 95ec 2dbe 9bab e2bd 09bb d13e
00000160: 4da2 da3e 098a abbd 0f0e fdbe 5201 2cbe
00000170: f893 60bd e1ba 293e 3347 ab3e 58cb a1be
00000180: d427 89bc ebf9 b3bc 63e3 4b3d 211f b2bd
00000190: 1a6b b63e 5dde 223e ec6a dcbe 7a3d d0be
000001a0: 4cf8 06bc 218c ed3e b112 643e f10f 9ebe
000001b0: 31c4 8dbe 50ae f33c 2f32 103f e222 5b3d
000001c0: 3935 27be a18c ffbd a24d 9cbe 4c9a 923e
000001d0: de66 3b3e d314 ba3e 5c6f 253e c6d1 42bd
000001e0: 9004 ab3e 8a0e 413e 689b b53e a2fd e43e
000001f0: 37cd d53d de1b a6be 5896 06be b2ad 9c3e
00000200: dcd0 6d3d f3f1 2a3e b810 2c3e 130d 0e3f
00000210: c582 143f 53bc bb3e af73 ea3d 445b 8e3e
00000220: 4039 e53e c495 57bd 8175 10bc 3297 193e
00000230: f03a 9c3d a757 11be 0656 cbbe 4d33 cdbe
00000240: 9501 aabd d61e 05be 0bc3 48be 647b acbe
00000250: a818 56be 1a90 a5be

conv1.bias f4 [6]
0.2877057 0.30663213 0.32807475 0.48583028 0.43598622 0.5298381
00000000: 294e 933e e3fe 9c3e 6af9 a73e bfbe f83e
00000010: 9639 df3e 78a3 073f

conv2.weight f4 [16, 6, 5, 5]
0.02194957 -0.045451254 0.07495542 0.09207318 0.10725338 0.15099314 0.2148601 0.26217842
0.23830774 0.18153079 0.06526833 0.17271262 0.17016576 0.18903866 0.14154841 0.0009945409
0.032450296 -0.04414476 -0.058098495 0.004829264 -0.08377679 -0.10695798 -0.04898137 0.0147321755
-0.030078359 -0.01486655 0.028921263 -0.03824005 -0.030675417 -0.029707102 -0.118710004 -0.11275595
-0.04998604 -0.09865776 -0.16354859 -0.08330534 -0.10484053 -0.08315668 0.08767517 0.01551791
-0.04490964 -0.015886333 0.07411711 0.12827088 -0.043875486 -0.011868617 -0.11995308 -0.086566046
-0.031306684 -0.07174354 0.0586188 -0.047221728 0.0214353 -0.073076874 -0.012605667 0.13755675
0.0642811 0.16905665 0.122492656 0.08417299 0.13662095 0.015455526 0.010914454 -0.09900569
-0.01945367 -0.027369237 -0.2076443 -0.2043741 -0.08412251 -0.083409905 -0.17709263 -0.18499333
0.02864896 0.0015111696 0.0073777963 0.033644553 -0.024153953 0.041310877 0.02530186 0.07241461
-0.06116164 0.043338995 0.002588276 -0.06651755 -0.06416438 0.00811782 0.04462514 -0.07963379
0.014942191 0.12300891 0.044062223 -0.00030442054 0.1046044 0.18755622 0.14031072 0.05259099
0.077351965 0.18637702 0.046699006 -0.020517554 -0.04074865 -0.035942268 0.13301174 0.124809854
0.05230436 0.11074423 0.09053541 0.0600985 -0.012721999 0.039934766 0.17574725 0.039294805
-0.07562801 0.056296248 -0.061216768 0.046869025 -0.014272568 -0.020734385 -0.024031868 -0.069102846
-3.8575785e-05 -0.108182564 -0.13922182 -0.13721652 -0.1348396 -0.043178003 0.044525046 0.13376904
0.001520353 0.10793079 -0.04260729 0.08507703 0.09651232 0.22217561 0.058476653 0.02476897
0.24515551 0.35147777 0.37171677 0.1391434 0.13922873 0.26237717 0.35588327 0.14708968
0.15724437 0.20200168 0.090139166 -0.073315434 -0.02004367 0.030810438 0.0053254436 0.012768791
-0.052278258 -0.061437726 0.024254054 -0.14218037 -0.10560888 0.00866633 -0.057302095 -0.00070032664
-0.09435169 -0.08924344 -0.0045774397 -0.09242636 -0.012116897 -0.13816455 -0.039729904 -0.0716041
-0.002287757 0.024820859 0.05335613 -0.07195163 0.03379268 -0.003872526 0.019046979 -0.0053316727
0.20632076 0.059473176 -0.020099975 0.0915537 0.0054029087 0.2723868 0.21569562 -0.062901795
0.15909551 0.14782967 0.2249833 -0.0033813722 0.040096827 0.04213494 -0.0040947506 0.010043729
0.032784775 -0.03766306 0.050747417 -0.122036695 -0.006073827 -0.0047453474 0.07025161 -0.05126274
0.05827445 0.020102283 -0.07270239 0.097893886 -0.055588983 0.010705242 -0.09464642 0.18153775
0.07186678 -0.010020645 0.016066091 -0.022025835 0.11611064 0.07536441 0.0099213505 0.124680355
-0.07819267 0.10340378 0.04865536 0.04856384 -0.0026404245 -0.106945686 -0.06394918 0.04746819
-0.09010583 -0.028935842 9.1790425e-05 -0.0845204 -0.06135546 -0.083187364 0.095101245 0.005679793
-0.020699639 -0.043775495 0.024728602 -0.029220073 0.05551502 -0.039538905 -0.1275645 0.06666693
0.05112083 -0.028066657 -0.034977324 -0.035611752 0.06974494 0.048394255 0.01139357 0.06382876
0.09277949 0.039479446 -0.054468833 -0.007938447 0.07810746 0.044810805 -0.042302884 -0.09318807
00000000: 96cf b33c 182b 3abd 3a82 993d dd90 bc3d
00000010: a9a7 db3d f29d 1a3e 4904 5c3e 403c 863e
00000020: f206 743e 35e3 393e 67ab 853d 94db 303e
00000030: ef3f 2e3e 5a93 413e 11f2 103e 415b 823a
00000040: 9aea 043d 23d1 34bd b0f8 6dbd cd3e 9e3b
00000050: 2a93 abbd c90c dbbd b0a0 48bd 395f 713c
00000060: e466 f6bc d592 73bc 49ec ec3c 99a1 1cbd
00000070: 034b fbbc 4f5c f3bc 3b1e f3bd 97ec e6bd
00000080: 29be 4cbd 140d cabd 4879 27be fd9b aabd
00000090: a2b6 d6bd 0d4e aabd 0a8f b33d d53e 7e3c
000000a0: 2cf3 37bd 0e24 82bc b6ca 973d 7159 033e
000000b0: c8b6 33bd 9674 42bc f6a9 f5bd 8a49 b1bd
000000c0: 703b 00bd 47ee 92bd 441a 703d 926b 41bd
000000d0: 1599 af3c 54a9 95bd 0088 4ebc addb 0c3e
000000e0: cfa5 833d 301d 2d3e 6edd fa3d e362 ac3d
000000f0: 5de6 0b3e 2d39 7d3c 8ad2 323c 7fc3 cabd
00000100: 4e5d 9fbc 7335 e0bc b5a0 54be 7247 51be
00000110: 6c48 acbd d0d2 aabd c557 35be e46e 3dbe
00000120: 39b1 ea3c 7012 c63a 71c1 f13b dfce 093d
00000130: 83de c5bc 9835 293d d945 cf3c 1c4e 943d
00000140: a184 7abd 3b84 313d 11a0 293b 5a3a 88bd
00000150: 9d68 83bd 9b00 053c dac8 363d 0a17 a3bd
00000160: 17d0 743c 18ec fb3d 977a 343d a29a 9fb9
00000170: d53a d63d bd0e 403e 9dad 0f3e a669 573d
00000180: b56a 9e3d 9ed9 3e3e 7547 3f3d 6e14 a8bc
00000190: 0ee8 26bd 3338 13bd 3b34 083e 4f9c ff3d
000001a0: 193d 563d dfcd e23d a16a b93d d829 763d
000001b0: ee6f 50bc a392 233d 16f7 333e 97f3 203d
000001c0: dce2 9abd e596 663d 6fbe 7abd bcf9 3f3d
000001d0: 7dd7 69bc 28db a9bc 7bde c4bc cb85 8dbd
000001e0: 6fcc 21b8 d28e ddbd 2a90 0ebe 7d82 0cbe
000001f0: 6413 0abe 6bdb 30bd e55f 363d c0fa 083e
00000200: 9546 c73a d10a dd3d fb84 2ebd de3c ae3d
00000210: 40a8 c53d 0182 633e 3785 6f3d 4ce8 ca3c
00000220: 0c0a 7b3e e5f4 b33e a951 be3e 9c7b 0e3e
00000230: fa91 0e3e 4d56 863e 5536 b63e ad9e 163e
00000240: ab04 213e 87d9 4e3e e29a b83d 6726 96bd
00000250: 9f32 a4bc 2c66 fc3c 0f81 ae3b 3134 513c
00000260: ba21 56bd 20a6 7bbd 70b0 c63c bb97 11be
00000270: 7849 d8bd 39fd 0d3c 9ab5 6abd 2096 37ba
00000280: 753b c1bd 44c5 b6bd 59fe 95bb 084a bdbd
00000290: f385 46bc 027b 0dbe d3bb 22bd 2ca5 92bd
000002a0: 31ee 15bb 1d55 cb3c f58b 5a3d 605b 93bd
000002b0: 316a 0a3d 35ca 7dbb 6908 9c3c 50b5 aebb
000002c0: c045 533e 259a 733d b4a8 a4bc 8280 bb3d
000002d0: e20a b13b 4876 8b3e 50df 5c3e a8d2 80bd
000002e0: efe9 223e a960 173e 0662 663e 039a 5dbb
000002f0: 923c 243d b095 2c3d 422d 86bb 748e 243c
00000300: 5449 063d 9544 1abd 86dc 4f3d 60ee f9bd
00000310: f406 c7bb dc7e 9bbb 13e0 8f3d e1f8 51bd
00000320: 31b1 6e3d 8bad a43c fee4 94bd 977c c83d
00000330: 46b1 63bd 0a65 2f3c fbd5 c1bd 08e5 393e
00000340: e42e 933d a22d 24bc 099d 833c 866f b4bc
00000350: 6acb ed3d a858 9a3d 298d 223c 6a58 ff3d
00000360: 7b23 a0bd 5cc5 d33d d84a 473d e1ea 463d
00000370: f90a 2dbb 5706 dbbd caf7 82bd 016e 423d
00000380: 6889 b8bd dc0a edbc 9c7f c038 0819 adbd
00000390: dd4f 7bbd 235e aabd 71c4 c23d 8f1d ba3b
000003a0: 4a92 a9bc ef4d 33bd a393 ca3c ef5e efbc
000003b0: b863 633d 8cf3 21bd 45a0 02be ac88 883d
000003c0: 1364 513d 0cec e5bc 6244 0fbd a1dd 11bd
000003d0: 6fd6 8e3d 0e39 463d 19ac 3a3c a7b8 823d
000003e0: 2c03 be3d 33b5 213d b61a 5fbd 4310 02bc
000003f0: cef6 9f3d 898b 373d ca45 2dbd 63d9 bebd

conv2.bias f4 [16]
0.06013624 0.044465836 -0.014589594 -0.023202363 -0.016639354 -0.022401528 -0.06108535 0.07768561
0.0052603264 -0.016185347 0.0701905 0.06433771 0.11988745 0.00027969942 0.036931515 0.04718517
00000000: 6b51 763d cf21 363d 3109 6fbc e212 bebc
00000010: 414f 88bc 6983 b7bc a234 7abd a219 9f3d
00000020: d15e ac3b 2297 84bc 09c0 8f3d 7dc3 833d
00000030: 8d87 f53d 9fa4 9239 8045 173d 3d45 413d

fc1.weight f4 [120, 256]
-0.03087207 0.029220106 0.058974482 0.011446552 0.032096438 -0.059730817 0.05180127 -0.03167206
-0.053809643 0.02635429 0.02664149 -0.00087097974 -0.048506122 -0.039163902 -0.046173446 -0.030138109
-0.042462457 -0.04505239 0.003702205 -0.024996908 -0.013585661 -0.0099090375 0.0038504223 -0.022798048
-0.023453845 -0.008349245 -0.019117163 0.051078044 0.057633262 -0.008298625 0.04897363 0.00519436
-0.014528583 -0.024917359 0.018840445 0.038841084 -0.019927226 0.04146615 -0.009142659 -0.012080446
0.021808155 0.049835265 0.030726379 0.04898593 -0.0045401207 -0.050851867 -0.014399168 -0.019463018
-0.017755443 -0.035636753 -0.044798993 -0.029854141 -0.046013605 -0.023521958 -0.01155116 -0.052303474
-0.04856563 0.018262433 -0.04756053 0.05277415 0.028896008 -0.022130877 0.0067689666 0.0068197167
-0.03439771 -0.006224193 -0.034451496 -0.030084366 -0.025122598 0.032731105 -0.007868408 0.056451492
-0.057106376 -0.057244346 -0.050081126 -0.01777379 0.044346422 0.049636353 -0.05610228 0.020757426
0.031976577 -0.016716283 0.0032971331 -0.030602617 0.048784394 -0.00029270945 -0.035895873 -0.05261924
-0.059349906 -0.016622225 -0.012011156 -0.03835105 0.04301154 -0.026014514 0.005802916 0.024534632
-0.060959473 0.035895385 0.018930102 0.016096639 0.04763886 0.028035069 0.04210744 -0.01406037
0.057437964 -0.034474805 0.028384645 0.025504665 -0.04240215 0.04771481 0.05328376 -0.022935037
-0.039464004 -0.020606328 0.03062879 0.06293567 -0.026868565 0.054352753 0.02080432 -0.035947785
-0.026656797 0.018014392 -0.041183073 0.03767128 0.046314627 -0.03674872 -0.033498403 -0.0049012364
0.013430601 0.013006646 -0.032524247 0.026365813 -0.0077379304 0.056000274 0.030783286 0.0018670292
-0.05782969 0.035712074 -0.023794692 -0.026691992 -0.044351924 0.008122565 -0.024446141 -0.018344732
-0.051938966 -0.020960866 0.019630404 -0.028020963 -0.052520003 -0.055398878 -0.043630075 0.04193329
-0.052073736 0.052574273 0.061258566 0.04321182 0.004448162 0.047401402 -0.010596141 0.033353575
-0.060024306 0.0101295225 -0.029549526 0.038812935 0.06212222 0.026265563 -0.045450643 -0.016553335
0.032907736 -0.046659227 -0.015482084 0.05129731 -0.029892094 0.052760612 -0.022036934 -0.012776348
0.03890332 -0.002479082 0.009858963 -0.03996007 -0.056948077 -0.04974796 0.050082177 0.057794355
-0.017367022 -0.0077277804 -0.033455905 -0.024845062 0.033982843 0.0641498 0.049486328 -0.051662907
-0.008918832 -0.018593762 -0.045655485 0.062484678 0.03385278 0.005766301 0.041015357 0.005110885
-0.038892023 0.032814223 -0.043940093 0.03664778 0.005348953 -0.021208502 -0.022196999 -0.039059486
-0.010054684 0.019210152 -0.052782908 -0.048237525 -0.02338818 -0.059138857 -0.040389996 -0.017107315
-0.051697414 -0.041187882 -0.046558656 0.0044834143 0.04494449 0.0051395306 0.014671142 -0.053808585
0.042745203 -0.03667181 0.049145367 0.03713287 -0.00079258403 -0.016705185 -0.024868418 -0.021810576
-0.024272736 -0.03300856 -0.04002811 0.030399559 -0.023644807 -0.01275785 0.0021379485 0.0010039348
-0.060457226 -0.034166485 -0.05952854 -0.036362868 -0.0082504125 0.025212707 0.029703198 -0.018736143
-0.048592962 0.010591846 0.026043344 -0.04482255 -0.04759566 0.045229692 -0.049645714 0.012834665
00000000: 6ce7 fcbc 015f ef3c 3a8f 713d 528a 3b3c
00000010: 8e77 033d 4da8 74bd 922d 543d 90ba 01bd
00000020: 8067 5cbd f4e4 d73c 413f da3c 7652 64ba
00000030: 5bae 46bd 546a 20bd 5e20 3dbd 32e4 f6bc
00000040: 1ded 2dbd db88 38bd b1a0 723b 51c6 ccbc
00000050: 6496 5ebc 8459 22bc 5e57 7c3b f9c2 babc
00000060: 4722 c0bc 46cb 08bc 999b 9cbc 3637 513d
00000070: db10 6c3d f5f6 07bc 9398 483d 7335 aa3b
00000080: 4b09 6ebc 7d1f ccbc 4757 9a3c d417 1f3d
00000090: 6c3e a3bc 69d8 293d 17cb 15bc 10ed 45bc
000000a0: 04a7 b23c 1020 4c3d e3b5 fb3c 78a5 483d
000000b0: 4bc5 94bb 0c4a 50bd 7dea 6bbc e870 9fbc
000000c0: dd73 91bc d8f7 11bd 267f 37bd ac90 f4bc
000000d0: c378 3cbd 1fb1 c0bc 1441 3dbc 2b3c 56bd
000000e0: c1ec 46bd 199b 953c d5ce 42bd b529 583d
000000f0: 52b7 ec3c d04b b5bc 35ce dd3b ee77 df3b
00000100: 9de4 0cbd 51f4 cbbb 031d 0dbd 7d73 f6bc
00000110: e8cd cdbc 0d11 063d 7fea 00bc ae39 673d
00000120: 60e8 69bd 0c79 6abd de21 4dbd 579a 91bc
00000130: 98a4 353d 7d4f 4b3d 81cb 65bd 7a0b aa3c
00000140: dff9 023d 96f0 88bc b714 583b 57b2 fabc
00000150: 25d2 473d cc76 99b9 8d07 13bd 4687 57bd
00000160: e318 73bd 552b 88bc 71ca 44bc fe15 1dbd
00000170: de2c 303d 641c d5bc 6326 be3b dafc c83c
00000180: a4b0 79bd 0a07 133d 4d13 9b3c 19dd 833c
00000190: f720 433d cda9 e53c da78 2c3d 775d 66bc
000001a0: 1244 6b3d 7435 0dbd ea86 e83c 29ef d03c
000001b0: e0ad 2dbd 9b70 433d 1240 5a3d 42e2 bbbc
000001c0: 02a5 21bd 9ace a8bc 3ae9 fa3c 6be4 803d
000001d0: 771b dcbc fea0 5e3d d26d aa3c fc3d 13bd
000001e0: 5b5f dabc eb92 933c 95af 28bd 334d 1a3d
000001f0: 68b4 3d3d d385 16bd 9f35 09bd 8d9a a0bb
00000200: 060c 5c3c d419 553c 2538 05bd 1efd d73c
00000210: 778e fdbb 8b60 653d 3b2d fc3c 1bb7 f43a
00000220: d3de 6cbd d346 123d 16ed c2bc 2aa9 dabc
00000230: 5daa 35bd 8214 053c 4643 c8bc b147 96bc
00000240: f4bd 54bd 1fb6 abbc f1cf a03c 388c e5bc
00000250: 371f 57bd efe9 62bd 73b5 32bd 3ec2 2b3d
00000260: 454b 55bd 1f58 573d 43ea 7a3d e1fe 303d
00000270: e3c1 913b f927 423d 709b 2dbc c29d 083d
00000280: 0cdc 75bd 4cf6 253c d911 f2bc 50fa 1e3d
00000290: de73 7e3d e12a d73c 742a 3abd dc9a 87bc
000002a0: 43ca 063d bf1d 3fbd 91a8 7dbc 211d 523d
000002b0: 44e0 f4bc 831b 583d cd86 b4bc e353 51bc
000002c0: 1659 1f3d 1878 22bb 7d87 213c 2cad 23bd
000002d0: 6342 69bd 84c4 4bbd f822 4d3d c6b9 6c3d
000002e0: 4945 8ebc 5239 fdbb 0f09 09bd df87 cbbc
000002f0: 9831 0b3d f860 833d 2db2 4a3d 7c9c 53bd
00000300: 4b20 12bc f251 98bc 3f01 3bbd efef 7f3d
00000310: 36a9 0a3d 3df3 bc3b b8ff 273d 3679 a73b
00000320: 3e4d 1fbd 3568 063d 87fa 33bd fc1b 163d
00000330: 4546 af3b 74bd adbc 7bd6 b5bc d7fc 1fbd
00000340: 67bc 24bc 9c5e 9d3c e432 58bd b694 45bd
00000350: 9298 bfbc 963b 72bd fb6f 25bd a424 8cbc
00000360: abc0 53bd a0b4 28bd 4ab4 3ebd 9be9 923b
00000370: b717 383d 8269 a83b 3b5f 703c 6466 5cbd
00000380: 9815 2f3d 2e35 16bd a74c 493d a318 183d
00000390: 6ac5 4fba 50d9 88bc dab8 cbbc 18ac b2bc
000003a0: 9ed7 c6bc fc33 07bd 84f4 23bd 7f08 f93c
000003b0: c1b2 c1bc 4d06 51bc d31c 0c3b 7696 833a
000003c0: ffa1 77bd 28f2 0bbd 33d4 73bd 3bf1 14bd
000003d0: bd2c 07bc e18a ce3c 1f54 f33c 8a7c 99bc
000003e0: 6a09 47bd 6c89 2d3c da58 d53c da97 37bd
000003f0: abf3 42bd c542 393d 4e59 4bbd 7d48 523c

fc1.bias f4 [120]
0.055129614 0.05963916 -0.041475806 0.024730217 0.067584254 -0.033059485 0.0022603758 0.022342743
-0.026333828 0.01347995 0.02871214 0.000459674 0.0707293 0.04583835 0.031265035 0.037121363
0.010411078 0.049736094 0.016284337 -0.037987415 0.035629362 -0.057731666 -0.013662253 -0.04591417
0.01688946 0.014367691 0.032707 -0.035938628 -0.0022125903 0.017504552 -0.014456878 0.009793001
0.046210486 0.044990823 -0.0042037964 -0.057497263 0.01361525 0.015039241 -0.033452857 -0.017248347
-0.00960777 -0.027564103 0.024176536 0.012333608 0.017500421 -0.00068713765 -0.043992255 0.014801874
-0.010003698 -0.022856576 -0.03610742 -0.013005258 -0.0022722841 -0.05639482 0.011274753 -0.05863192
-0.005430666 0.003464782 -0.018611172 0.019091966 -0.023716776 0.044232573 -0.019629626 -0.05461312
-0.058181934 -0.024736807 0.0072731944 -0.003461217 0.0131394435 0.040572967 0.011503876 0.050649
-0.0517353 0.03752198 0.03171531 -0.036057614 0.045599557 -0.025034292 0.051489532 -0.029418485
0.05663659 -0.05026726 0.024564426 0.019255536 -0.026887778 0.023585295 0.02356783 -0.0072100856
-0.028518192 -0.047192145 -0.06372899 -0.06031414 -0.013823771 0.07586475 0.020745188 0.0024837048
0.050923973 0.07142988 -0.006249151 -0.027629426 0.031864066 -0.018024456 -0.057905722 0.053074166
-0.011898078 -0.021906879 0.005813493 0.054493945 0.058090042 0.041197617 0.06657228 -0.0065996624
-0.045375157 -0.0158001 -0.021392414 -0.063044704 -0.0043788436 -0.058394223 0.027643131 0.010496868
00000000: 97cf 613d 3148 743d 89e2 29bd 0697 ca3c
00000010: 9d69 8a3d 6269 07bd d022 143b 2108 b73c
00000020: 0aba d7bc 02db 5c3c b935 eb3c 6600 f139
00000030: 86da 903d fec0 3b3d c40f 003d 920c 183d
00000040: 3a93 2a3c 13b8 4b3d bb66 853c b198 1bbd
00000050: 18f0 113d 0a78 6cbd a4d7 5fbc 7f10 3cbd
00000060: c45b 8a3c 7766 6b3c c6f7 053d 6234 13bd
00000070: 1b01 11bb b565 8f3c 8bdc 6cbc d372 203c
00000080: 3547 3d3d 4c48 383d 00c0 89bb 4082 6bbd
00000090: 7f12 5f3c 2667 763c dd05 09bd 684c 8dbc
000000a0: e869 1dbc 1dce e1bc df0d c63c e712 4a3c
000000b0: 0b5d 8f3c 0721 34ba 3931 34bd 8f83 723c
000000c0: 8de6 23bc b73d bbbc 60e5 13bd 0114 55bc
000000d0: 9aea 14bb 41fe 66bd beb9 383c 0628 70bd
000000e0: baf3 b1bb 6511 633b 7576 98bc c166 9c3c
000000f0: af49 c2bc 372d 353d 4fce a0bc 02b2 5fbd
00000100: 2e50 6ebd d8a4 cabc fa53 ee3b 96d5 62bb
00000110: d246 573c d72f 263d c17a 3c3c 5375 4f3d
00000120: 65e8 53bd a6b0 193d eae7 013d 26b1 13bd
00000130: 9ac6 3a3d b714 cdbc b0e6 523d 09ff f0bc
00000140: c5fb 673d 0be5 4dbd 563b c93c c9bd 9d3c
00000150: c243 dcbc f335 c13c 5211 c13c 9542 ecbb
00000160: fc9e e9bc 8d4c 41bd 5884 82bd f60b 77bd
00000170: 197d 62bc fa5e 9b3d d0f1 a93c a7c5 223b
00000180: a895 503d d449 923d aec5 ccbb 1b57 e2bc
00000190: e583 023d 06a8 93bc 8d2e 6dbd 4c64 593d
000001a0: 28f0 42bc 0e76 b3bc 1d7f be3b 0b35 5f3d
000001b0: d3ef 6d3d d5be 283d 0c57 883d fb41 d8bb
000001c0: 4ddb 39bd 366f 81bc 253f afbc 951d 81bd
000001d0: 677c 8fbb c82e 6fbd d973 e23c 0efb 2b3c

fc2.weight f4 [84, 120]
0.03472948 0.03801943 0.08920241 0.07692038 -0.07071826 0.045500323 -0.056728255 0.047632072
-0.0007239755 0.09375703 0.046006344 0.08350402 0.021826062 0.020038566 -0.12802324 0.026470305
0.041447338 0.0012236609 0.06371864 -0.012425422 0.041817736 -0.08673142 0.07813559 0.033885624
0.06553888 -0.034040734 -0.0749016 -0.07261082 -0.054716863 -0.0063930927 0.10600086 -0.017441867
-0.017978402 0.038290933 -0.062301774 0.00187779 0.044883348 0.028641066 0.0377708 -0.0488753
0.10715803 -0.0600693 -0.027959254 -0.06643558 0.009685239 0.07411796 -0.08054203 -0.035235435
0.028459365 0.07833329 -0.06770477 0.04512094 0.008862596 0.030661026 -0.0821627 0.08772422
-0.059707023 0.06997619 -0.086874954 -0.050975673 -0.08425608 -0.08212511 0.08447715 -0.08755776
-0.09123757 0.083215944 0.058437925 -0.036189362 -0.05395798 -0.059560094 -0.006466315 0.009868982
0.039930336 0.039747983 0.059488792 -0.04979576 -0.04122198 -0.0016753305 0.07752543 -0.009044779
0.033605263 0.052222796 0.09435232 0.14578886 -0.0057940446 -0.041730426 -0.13579856 0.010686502
0.014731626 -0.014733811 0.065775536 -0.060428 0.05760326 0.11736105 -0.014146583 0.0872967
0.114312716 0.13153 0.06831583 -0.0628873 0.060345564 -0.080850385 -0.1374596 0.094483405
-0.06191587 -0.028141731 0.012873529 0.084696785 -0.038953055 -0.05233505 -0.058941074 0.09735332
-0.0672 0.014830479 -0.0003562322 -0.063998915 -0.05122442 -0.058592234 -0.1218753 0.03413857
-0.0024178491 0.0535171 -0.029562857 0.03969715 -0.017561294 0.08191276 0.033290427 0.06492916
0.056462266 0.03337828 0.013376903 0.111850984 0.062550455 -0.06600021 -0.0011882182 -0.04689955
0.068286866 0.08253861 -0.06491234 0.047738776 -0.005789057 -0.03706026 0.0046321284 0.059867613
-0.04462648 0.0100968825 0.06671945 -0.0032629506 0.024896735 0.07462636 0.07615442 0.07642326
-0.08999909 0.03595249 0.009042861 -0.07784588 -0.09432996 -0.030846624 -0.08298704 0.009299736
0.0073665758 0.05134195 0.056031846 0.022548197 0.014215222 0.020370064 -0.04740449 -0.06187681
0.042765535 -0.011800151 -0.010656159 -0.09606979 -0.031688027 0.07481446 -0.051772676 -0.0840625
0.010205221 0.0646625 0.065478854 0.076496825 0.025650242 0.079875946 0.053847145 0.08136107
-0.05688456 0.015859475 0.06481508 0.017546806 -0.04028479 -0.038955484 -0.10451084 -0.015185452
-0.024339676 -0.03850531 -0.006297252 -0.088153 0.052185453 -0.010404126 -0.026798204 -0.07609066
-0.0259808 0.0652743 0.04359854 -0.010706994 0.0077591953 -0.03980154 -0.060409658 -0.006533925
0.09787261 0.016378425 0.06533065 -0.0058613103 0.0186432 0.025782466 0.09718242 0.027279848
0.013378916 0.06047107 -0.012848441 0.08614755 0.06639239 -0.0084129935 0.0091447355 -0.07764836
0.07409587 0.044605955 -0.030453231 -0.055317044 -0.04097542 0.05761489 0.08228403 -0.04550284
0.07208177 -0.0022615294 -0.050326906 0.0268931 0.06106843 0.07494344 0.04751929 -0.02922975
0.02245252 -0.054010004 0.089357145 0.021652177 -0.04194256 -0.039316796 -0.15944706 0.054519337
-0.048167653 0.022640103 -0.09489051 0.07083866 0.017928977 -0.013688403 -0.0504423 -0.110127896
00000000: 8040 0e3d 43ba 1b3d c1af b63d 6f88 9d3d
00000010: bcd4 90bd 8c5e 3a3d e35b 68bd d919 433d
00000020: 2cc9 3dba b003 c03d 2671 3c3d 2804 ab3d
00000030: 92cc b23c eb27 a43c 8618 03be 41d8 d83c
00000040: afc4 293d 3f63 a03a eb7e 823d ff93 4bbc
00000050: 1349 2b3d 3ea0 b1bd 8d05 a03d a7cb 0a3d
00000060: 4039 863d 4c6e 0bbd 0366 99bd fbb4 94bd
00000070: ca1e 60bd 267d d1bb fb16 d93d 3fe2 8ebc
00000080: 7147 93bc f4d6 1c3d 2530 7fbd 2d20 f63a
00000090: 9ad7 373d aba0 ea3c 8eb5 1a3d 7731 48bd
000000a0: ab75 db3d 3a0b 76bd ce0a e5bc 610f 88bd
000000b0: d6ae 1e3c 28cb 973d 38f3 a4bd 0853 10bd
000000c0: 9d23 e93c 346d a03d cca8 8abd bcd0 383d
000000d0: 6c34 113c d52c fb3c eb44 a8bd c1a8 b33d
000000e0: 5a8f 74bd ad4f 8f3d 7feb b1bd decb 50bd
000000f0: 748e acbd 3631 a8bd 5b02 ad3d 7c51 b3bd
00000100: c3da babd 1f6d aa3d 9b5c 6f3d 4c3b 14bd
00000110: 0b03 5dbd 49f5 73bd 62e3 d3bb 83b1 213c
00000120: fe8d 233d c8ce 223d 85aa 733d a4f6 4bbd
00000130: 61d8 28bd c396 dbba a7c5 9e3d 8e30 14bc
00000140: aca5 093d 92e7 553d ca3b c13d ad49 153e
00000150: f8db bdbb 86ed 2abd c70e 0bbe 7016 2f3c
00000160: eb5c 713c 1566 71bc 53b5 863d 5a83 77bd
00000170: 65f1 6b3d fd5a f03d 12c7 67bc 9dc8 b23d
00000180: c91c ea3d cdaf 063e 2be9 8b3d 0fcb 80bd
00000190: e92c 773d e394 a5bd 36c2 0cbe 8480 c13d
000001a0: 7f9b 7dbd 7d89 e6bc 7feb 523c 8275 ad3d
000001b0: 3d8d 1fbd 475d 56bd 326c 71bd 2d61 c73d
000001c0: 27a0 89bd 8afb 723c adc4 bab9 dd11 83bd
000001d0: b3d0 51bd 69fe 6fbd c299 f9bd e3d4 0b3d
000001e0: c774 1ebb bf34 5b3d ce2d f2bc 7b99 223d
000001f0: b4dc 8fbc e1c1 a73d 8b5b 083d 94f9 843d
00000200: fa44 673d aab7 083d cc2a 5b3c 2112 e53d
00000210: 741a 803d 1e2b 87bd fdbd 9bba be19 40bd
00000220: fcd9 8b3d 010a a93d c3f0 84bd bc89 433d
00000230: 21b2 bdbb 80cc 17bd 1cc9 973b be37 753d
00000240: 42ca 36bd 656d 253c 35a4 883d 3ad7 55bb
00000250: 3df4 cb3c b4d5 983d d9f6 9b3d cc83 9c3d
00000260: 7151 b8bd eb42 133d 8228 143c a96d 9fbd
00000270: 1130 c1bd 0fb2 fcbc 1cf5 a9bd eb5d 183c
00000280: 5163 f13b f04b 523d a681 653d ffb6 b83c
00000290: f6e6 683c 1fdf a63c 362b 42bd 8a72 7dbd
000002a0: ea2a 2f3d 6c55 41bc 2c97 2ebc 3dc0 c4bd
000002b0: 4ecb 01bd 5338 993d 960f 54bd f628 acbd
000002c0: cd33 273c c66d 843d c719 863d 5eaa 9c3d
000002d0: 7520 d23c 0096 a33d d38e 5c3d a2a0 a63d
000002e0: c9ff 68bd bbeb 813c c5bd 843d 52be 8f3c
000002f0: aa01 25bd c98f 1fbd c709 d6bd 67cc 78bc
00000300: 0064 c7bc beb7 1dbd 2e59 cebb 8f89 b4bd
00000310: 6ac0 553d 1176 2abc e887 dbbc 6cd5 9bbd
00000320: b0d5 d4bc 88ae 853d 6294 323d 636c 2fbc
00000330: d940 fe3b f106 23bd 1e70 77bd 891a d6bb
00000340: 6f71 c83d 0c2c 863c 13cc 853d 3c10 c0bb
00000350: a0b9 983c c035 d33c 9407 c73d fd79 df3c
00000360: 3e33 5b3c 83b0 773d 4482 52bc 206e b03d
00000370: bcf8 873d a7d6 09bc cdd3 153c 1a06 9fbd
00000380: 93bf 973d bcb4 363d 0e79 f9bc 2094 62bd
00000390: d8d5 27bd 97fd 6b3d 8884 a83d 3061 3abd
000003a0: 9b9f 933d 2b36 14bb 9623 4ebd eb4e dc3c
000003b0: e422 7a3d f27b 993d 96a3 423d 3b73 efbc
000003c0: 59ee b73c 9839 5dbd e100 b73d e85f b13c
000003d0: f6cb 2bbd a60a 21bd 1746 23be ab4f 5f3d
000003e0: 724b 45bd bd77 b93c f555 c2bd dc13 913d
000003f0: cadf 923c 5345 60bc 969c 4ebd bc8a e1bd

fc2.bias f4 [84]
0.07775541 -0.0121243745 -0.055765465 0.0016769241 -0.04734421 -0.030097181 0.05971952 -0.059516534
0.0020500908 0.06713146 0.061617617 -0.0017379412 0.0051278574 0.026308836 -0.08112487 -0.044204015
-0.00073936133 0.04334679 -0.015942037 -0.00964093 -0.031032726 -0.025678992 0.09267442 -0.081654795
-0.06737081 0.11234901 -0.038585752 0.083696835 -0.064323716 0.06381617 0.08420385 0.00012256927
-0.039772578 0.04667044 -0.07583364 0.07275999 -0.08501285 0.043982506 0.09080393 -0.067437366
-0.06201048 0.060587235 0.006347795 -0.008923265 0.08629844 0.0696991 0.08336647 0.04944134
0.074103355 -0.08732113 -0.00814576 0.11675965 -0.06575327 0.056837168 0.027733251 0.09355549
0.0919448 0.05360821 -0.039255228 0.109125145 0.09777608 0.063169986 0.009376609 0.015145798
-0.08217023 -0.04652244 -0.03760623 -0.060175993 -0.027316144 -0.008319029 0.061446074 -0.013979621
0.040982276 0.08574326 -0.07029419 -0.05669015 0.028119318 0.007399318 0.094853766 -0.0026559401
-0.08144866 -0.06371765 -0.07397396 0.09287331
00000000: 3a3e 9f3d 50a5 46bc 546a 64bd 3ccc db3a
00000010: 01ec 41bd 5d8e f6bc 759c 743d 9cc7 73bd
00000020: d15a 063b 387c 893d c162 7c3d a1cb e3ba
00000030: 9607 a83b a185 d73c cc24 a6bd 450f 35bd
00000040: b3d1 41ba 678c 313d e098 82bc fef4 1dbc
00000050: 5838 febc c05c d2bc 16cc bd3d a13a a7bd
00000060: b5f9 89bd 3d17 e63d 180c 1ebd 3f69 ab3d
00000070: 27bc 83bd 0db2 823d 1173 ac3d f085 0039
00000080: 92e8 22bd 8129 3f3d ab4e 9bbd 3103 953d
00000090: 381b aebd 0027 343d 69f7 b93d 9a1c 8abd
000000a0: b3fe 7dbd 522a 783d 2a01 d03b e332 12bc
000000b0: 3dbd b03d 67be 8e3d 0abc aa3d 0183 4a3d
000000c0: 80c3 973d 6cd5 b2bd cb75 05bc af1f ef3d
000000d0: a7a9 86bd 17ce 683d d830 e33c 059a bf3d
000000e0: 8e4d bc3d 4894 5b3d 17ca 20bd 017d df3d
000000f0: d33e c83d 445f 813d 59a0 193c 1526 783c
00000100: de48 a8bd 508e 3ebd fd08 1abd 1a7b 76bd
00000110: 1bc6 dfbc 894c 08bc e1ae 7b3d c80a 65bc
00000120: 08dd 273d 2a9a af3d 66f6 8fbd ee33 68bd
00000130: 7c5a e63c fa75 f23b b142 c23d 480f 2ebb
00000140: 8ece a6bd 667e 82bd a97f 97bd 5d34 be3d

fc3.weight f4 [10, 84]
-0.014909675 0.115409985 -0.11750955 0.04192644 0.26757288 0.0389627 -0.16917036 0.13872103
-0.03012541 0.05242534 0.15406342 0.08248399 0.07236446 -0.08768692 0.106032796 -0.070528105
0.14915946 -0.07352773 -0.14920555 0.06786655 -0.024464188 0.12994038 0.18743987 0.12597673
-0.0407502 -0.10352621 0.14053509 -0.20757568 -0.13496944 0.00364792 -0.19982657 0.040062044
0.20008463 0.21897559 0.0813466 0.037177935 0.11845212 0.19763213 -0.10406392 -0.09650374
0.045722973 0.1637523 -0.087967314 0.14290601 -0.19418238 -0.09086789 0.07269593 -0.07278525
-0.05502694 -0.014995112 -0.0892057 0.00415554 -0.049881756 -0.09563982 0.0375905 -0.16585328
-0.22511894 0.114620805 0.10966562 -0.08608637 -0.16886547 -0.0811986 -0.055845007 -0.057634223
-0.06350335 -0.11943829 0.05921243 0.17107345 -0.04306847 -0.17832398 -0.008207862 -0.014270315
0.011365609 0.081917785 -0.10469477 -0.06758732 0.0046041897 -0.102654524 -0.05445285 -0.20175216
-0.06355313 -0.0007145388 0.0040356754 -0.027271396 0.12411304 0.038880188 -0.22459616 0.047183607
-0.16865982 -0.069369175 0.02379716 -0.15623496 -0.18791246 0.07126642 -0.27088788 -0.08895994
0.05186047 0.03299506 0.18107465 0.13583876 0.07712444 0.1425037 -0.09992488 0.09393776
0.021937028 0.2518551 0.13144389 -0.027095277 0.08460733 0.25265265 -0.08189274 0.0011666128
-0.057273798 -0.0914545 0.14924675 0.019439284 -0.14286384 0.10958857 -0.21892421 0.0038342227
0.07518236 0.17665681 0.10465019 0.017164161 -0.099118836 0.21854612 -0.12892486 -0.14040643
-0.081661396 0.049181197 0.22241215 -0.0010157365 -0.08625321 0.009958451 0.033799022 0.29956588
0.04287021 -0.025676573 -0.398054 0.08320692 0.18618415 0.14435871 -0.054202117 0.15556157
0.30177772 -0.108298965 -0.07935186 0.27565145 0.07852041 -0.06560524 0.08646623 -0.013143361
-0.04502491 0.15131178 -0.074840784 0.052464433 0.009933042 0.077392526 -0.20258161 -0.025314914
0.12100792 0.10036306 0.21379405 -0.026844319 0.10910009 -0.11554874 -0.046084717 0.14970855
0.027202846 -0.055276785 -0.21447979 0.06583921 0.08280417 -0.09377411 0.14846565 0.009490899
0.16205847 -0.016463205 -0.027754627 -0.018375857 0.112314925 0.054853972 -0.18796995 -0.15107037
-0.04196225 0.21731064 -0.18467547 0.07967566 0.04439447 0.25635654 -0.11257142 0.30985698
-0.02343339 0.20632221 -0.0110177 -0.09799547 -0.24165902 0.05954959 -0.017250497 0.030890092
0.068826534 0.17431732 -0.11810931 0.060920496 0.10860954 -0.11715252 -0.11265115 -0.113383934
-0.11800081 -0.32419875 0.029270897 0.29190516 -0.17543976 -0.1978179 -0.021773675 -0.02821185
0.13201886 0.07645668 0.2992837 -0.11878463 0.057537913 0.054492276 0.1101114 -0.09154494
0.0054009133 0.2530879 0.064492494 0.098436765 0.1709259 0.029026778 0.072130874 -0.22654821
0.026646443 -0.05344722 -0.024973232 -0.043675076 0.271657 -0.13218413 0.0640926 0.07629121
0.08857756 -0.0840344 0.071761705 0.059275486 0.0376799 -0.03870053 -0.008834458 -0.075179815
-0.0717507 0.12154102 0.10495612 -0.001340092 0.17889348 -0.04121847 0.25244427 0.0986244
00000000: b647 74bc 125c ec3d d9a8 f0bd 0fbb 2b3d
00000010: 50ff 883e 5a97 1f3d ff3a 2dbe e30c 0e3e
00000020: 90c9 f6bc f4bb 563d cdc2 1d3e 5eed a83d
00000030: d133 943d 3395 b3bd b927 d93d 0a71 90bd
00000040: 42bd 183e b595 96bd 57c9 18be 9efd 8a3d
00000050: 1f69 c8bc 170f 053e 3df0 3f3e 0b00 013e
00000060: afe9 26bd 8d05 d4bd 6ee8 0f3e b88e 54be
00000070: 6e35 0abe f111 6f3b 569f 4cbe 1918 243d
00000080: fce2 4c3e 233b 603e 0c99 a63d e447 183d
00000090: 0697 f23d 1460 4a3e 771f d5bd c1a3 c5bd
000000a0: 0348 3b3d afae 273e 3528 b4bd f455 123e
000000b0: bfd7 46be f218 babd 9be1 943d 6f10 95bd
000000c0: ee63 61bd 0fae 75bc 7ab1 b6bd 322b 883b
000000d0: d050 4cbd cfde c3bd 7ff8 193d 71d5 29be
000000e0: 9485 66be 50be ea3d 5e98 e03d 0d4e b0bd
000000f0: 12eb 2cbe 744b a6bd bcbd 64bd dd11 6cbd
00000100: 0b0e 82bd 109c f4bd bc88 723d e12d 2f3e
00000110: 9068 30bd 909a 36be 457a 06bc 0ace 69bc
00000120: d236 3a3c 83c4 a73d 366a d6bd 396b 8abd
00000130: bede 963b 893c d2bd f409 5fbd 1e98 4ebe
00000140: 2528 82bd e34f 3bba b33d 843b 4368 dfbc
00000150: fa2e fe3d d540 1f3d 89fc 65be 9943 413d
00000160: 29b5 2cbe 6d11 8ebd 43f2 c23c 0ffc 1fbe
00000170: 206c 40be 21f4 913d d1b1 8abe a130 b6bd
00000180: a56b 543d d425 073d a26b 393e 5119 0b3e
00000190: 6bf3 9d3d 7dec 113e 6aa5 ccbd 7162 c03d
000001a0: 48b5 b33c 27f3 803e 3a99 063e eaf6 ddbc
000001b0: 9c46 ad3d b05b 813e 62b7 a7bd 08e9 983a
000001c0: ee97 6abd 7f4c bbbd 24d4 183e 223f 9f3c
000001d0: e64a 12be f96f e03d ab2d 60be 9547 7b3b
000001e0: 36f9 993d 86e5 343e d752 d63d db9b 8c3c
000001f0: d1fe cabd 8eca 5f3e e104 04be b4c6 0fbe
00000200: 173e a7bd 3972 493d 03c0 633e 7622 85ba
00000210: 86a5 b0bd c528 233c d870 0a3d b360 993e
00000220: ac98 2f3d ad57 d2bc bccd cbbe 6468 aa3d
00000230: 0fa7 3e3e c5d2 133e 0a03 5ebd 884b 1f3e
00000240: 9c82 9a3e d9cb ddbd 3a83 a2bd 3022 8d3e
00000250: 4fcf a03d 0a5c 86bd 3515 b13d 4057 57bc
00000260: 0a6c 38bd 7af1 1a3e 2046 99bd f2e4 563d
00000270: 33be 223c f97f 9e3d 8e71 4fbe 3961 cfbc
00000280: 00d3 f73d 268b cd3d d4ec 5a3e 9ee8 dbbc
00000290: de6f df3d d1a4 ecbd 54c3 3cbd 334d 193e
000002a0: 81d8 de3c e969 62bd 97a0 5bbe b5d6 863d
000002b0: 3c95 a93d a40c c0bd 6107 183e b77f 1b3c
000002c0: a8f2 253e d8dd 86bc ac5d e3bc f788 96bc
000002d0: 5e05 e63d 8fae 603d 327b 40be 31b2 1abe
000002e0: 9ce0 2bbd ae86 5e3e 911b 3dbe fe2c a33d
000002f0: fad6 353d 2a41 833e d88b e6bd 93a5 9e3e
00000300: 61f7 bfbc 2146 533e 9583 34bc d9b1 c8bd
00000310: 7675 77be 45ea 733d ea50 8dbc 380d fd3c
00000320: edf4 8c3d 3d80 323e 4be3 f1bd c587 793d
00000330: ae6e de3d a9ed efbd a5b5 e6bd d635 e8bd
00000340: 69aa f1bd 61fd a5be 85c9 ef3c 9874 953e
00000350: 7ba6 33be c790 4abe b55e b2bc 8a1c e7bc
00000360: f42f 073e 5295 9c3d b73b 993e 5b45 f3bd
00000370: e0ac 6b3d 4b33 5f3d 1682 e13d ea7b bbbd
00000380: 25fa b03b bd94 813e a414 843d 3799 c93d
00000390: 3307 2f3e 91c9 ed3c 5ab9 933d 41fc 67be
000003a0: a449 da3c 79eb 5abd aa94 ccbc a3e4 32bd
000003b0: a016 8b3e 475b 07be fb42 833d 913e 9c3d
000003c0: 2768 b53d 3a1a acbd cdf7 923d daca 723d
000003d0: 3d56 1a3d 7284 1ebd 67be 10bc e0f7 99bd
000003e0: 08f2 92bd 80ea f83d 3cf3 d63d 07a6 afba
000003f0: da2f 373e b3d4 28bd 6040 813e 97fb c93d

fc3.bias f4 [10]
-0.015557716 -0.051982854 0.045898445 -0.04726728 0.020324161 0.09882091 0.019335864 0.052225888
-0.021649374 0.03437388
00000000: cae5 7ebc f9eb 54bd 0200 3c3d 569b 41bd
00000010: db7e a63c 9e62 ca3d 3f66 9e3c d0ea 553d
00000020: 075a b1bc a0cb 0c3d
